models/sess3000-max49-sm1.pth (torch, 106069 bytes, 24 tensors)

fc1.weight f4 [64, 24]
00000000: b8dd 8cbe 39f2 90be dd09 1b3d e3c7 30be
00000010: 6a99 42bd 03b7 203e 1e11 0fbe 3323 3cbe
00000020: ae3c d53e 9d68 463d c1dd 2ebf 84bb 11be
00000030: 9861 fcbd aa32 073f 403c 893c f966 2b3e
00000040: af02 a2be 9da4 cdbe 0fb2 f43e ed8c 34be
00000050: e16f f7be 61f3 36be 89e0 84be 5130 663e
00000060: 71ab bcbe bc0e 633e 416b 7bbd cbee 46be
00000070: ece8 60be 8cb6 863e bb06 0c3e 3279 97bd
00000080: 7be3 41be f4ec a93e 827a 81bf 195e 0ebe
00000090: e246 88bd 37ac ad3f 56aa 073e 36c7 5f3e
000000a0: d3b6 cabd 4120 b7bd d211 913e 9e1f 15bd
000000b0: ff38 e4be b41e 16be 2b2f 9abe b451 cebc
000000c0: b91e b53e db3f 063e 071a 5f3e 2dda f53c
000000d0: 30f3 2d3e 39f4 a7be 3239 f43e ceb5 803d
000000e0: d515 343e c9f6 2dbd dfb1 0a3f c853 873e
000000f0: a61d d53e fd7d 69bf c4d3 703e d2e1 063f
00000100: fdbd 563e 118c a03d 5fd2 933e f0ce 7b3d
00000110: d0a3 6e3f cead 443d e7f8 743e dd9c 1ebf
00000120: 7d1e 093e fef7 2f3c 56ea 383e 522f 1c3e
00000130: f62f 633e 3e6b eb3e 02fe 16be ead1 713e
00000140: 9c37 1abf 99ab 863e 46d9 123f 4e61 273e
00000150: 599e 593e 896d cfbe 1a14 84bd 07bb 433f
00000160: 1392 b13e f430 963e a619 25bf 601f c93e
00000170: 94a3 d7be 2766 8e3e 0aee e33d 1dd6 103e
00000180: d639 0c3c 1220 a23e 6007 1c3e ed05 5e3e
00000190: b88a 0e3e c44d ac3e c832 ca3e 0a1a cd3d
000001a0: 63eb 26bf b828 9b3d 733d 813c ae5d d23e
000001b0: 7af6 adbd 6fe4 1dbf cd82 a43e 1a8b ff3e
000001c0: 30f1 6b3e 13d6 863d 01e7 9f3e f794 de3e
000001d0: 7451 69bf 012a 053f 5dbd a03e 3be5 493d
000001e0: fdac 0c3e 85f6 843c d412 073d 214e 02be
000001f0: 8a32 42be a783 4bbe ec3a 0d3e 414b 2dbe
00000200: b682 0fbd 9a3f 9abd 9558 30bd 053d 153e
00000210: a945 333e 60a6 df3a 0b7f 2abe 149c 14be
00000220: 1b19 42be 3617 60bd f538 09bc 8f5f 5cbd
00000230: 9804 51bc 75fc 1e3e 169a 00bd 7ae1 44bd
00000240: 7467 bbbe 4b0e 3bbe c721 afbd 248c 603d
00000250: a4d1 b7bd 3945 523d 9201 76be 4d95 3dbd
00000260: d2ff 6dbe a580 0dbd b7da bcbe 3042 a3be
00000270: 4895 7dbe 1402 0f3f ccd7 7abe 7980 c1be
00000280: f53e d6be c181 91be 799d ce3e d817 c83d
00000290: 44a2 acbf 5be7 b5be 989d 043d 1a4b 3d3f
000002a0: 7359 a0be 9a3e 1c3e c6f8 90be 3ef4 1fbe
000002b0: 4a1b 67be 7a88 e3bd 20b8 b7be 1cfc cfbd
000002c0: b524 5a3d 68d0 363e d68d 19bf fce3 87be
000002d0: cb6f dfbd 10e0 a53f de3a ef3d bd85 9f3e
000002e0: 1467 ee3c b567 ddbd 51a6 00be 2e89 313e
000002f0: 7e3c b6be 5213 bdbe af47 6bbe 888a 993d
00000300: 4fe5 143d c0f9 1bbe 32e8 22bd d6fd 073c
00000310: 5d35 e1bd cc3e 48bf 0c30 49be 4738 6cbe
00000320: 52ec 1c3f 3a45 63be 6a62 83be 157c 80be
00000330: 9a92 77be 3c13 023e 14b9 4a3c 554d b1be
00000340: 003a d9be 70d5 f3bc 11ab 983e 7f8b 82be
00000350: d148 45bf e5f9 64be cbd8 63be 4410 273f
00000360: 685d 4e3e a936 333e 497d 503e 957d 94bd
00000370: 2d6e 503e 6c16 72be b789 233e b1d0 4e3e
00000380: 8918 183e 08e8 0d3d 24e9 b03d 2312 6f3e
00000390: 82df b23d ff8e 333d 612a 343e 8c72 9ebf
000003a0: 3928 8fbe e7a4 cfbd c232 8b3f cdd8 8fbe
000003b0: 94a4 1c3f 131e b93e 0923 89bd 9d19 20bf
000003c0: c778 003e b86a 0e3e 3aa6 5ebe faa5 95be
000003d0: c265 09be 7948 bcbe b41c 1dbe c4ae f0bd
000003e0: ffe2 033f 86ac 7abd 7cb9 44bf e48f ebbd
000003f0: 5b2f f03d 79b6 483f b087 ccbd dc15 6ebd
-0.27512908 -0.283098 0.037851203 -0.1726375 -0.04750959 0.15694813 -0.13971373 -0.18372802
0.41647857 0.04843961 -0.6830712 -0.14231688 -0.12323302 0.5281168 0.016752362 0.167385
-0.31642672 -0.40164652 0.47792098 -0.17631884 -0.48327544 -0.17866279 -0.25952557 0.22479369
-0.3684955 0.2217359 -0.061381582 -0.1942703 -0.21963853 0.26311147 0.13674442 -0.07396163
-0.18934433 0.33188593 -1.0115511 -0.13903083 -0.06654145 1.3568181 0.13248572 0.21853337
-0.09898152 -0.08941699 0.28333908 -0.036407106 -0.44574735 -0.1466015 -0.3011411 -0.025185443
0.35375002 0.13110296 0.21787272 0.03001126 0.169873 -0.32803515 0.47699887 0.062846765
0.17586453 -0.04247168 0.5417766 0.26431108 0.41624182 -0.9120787 0.23518282 0.52688324
0.20970912 0.078392155 0.28871438 0.061476648 0.9321871 0.048017316 0.23923074 -0.61958104
0.13390537 0.010740278 0.18058142 0.15252426 0.22186264 0.45980257 -0.14745334 0.23615232
-0.60241103 0.26302794 0.5736278 0.16345713 0.21251811 -0.40513256 -0.064491466 0.76457256
0.34681758 0.29334223 -0.6449226 0.3928175 -0.42116988 0.2781231 0.11129387 0.14144178
0.008558711 0.31665093 0.15237188 0.21681948 0.13920105 0.3365308 0.39491868 0.10014732
-0.6520292 0.07576126 0.015776372 0.41087097 -0.08494277 -0.61676687 0.32131043 0.49910814
0.23041224 0.065838 0.3123093 0.43473026 -0.9113991 0.5201722 0.31394473 0.049290877
0.13737865 0.01623083 0.03297694 -0.12725116 -0.18964592 -0.1987444 0.13792008 -0.16923238
-0.035036765 -0.07531662 -0.04305323 0.14574058 0.17507042 0.0017063133 -0.16650026 -0.14512664
-0.1895489 -0.054709636 -0.008375396 -0.05380207 -0.012757443 0.15525992 -0.031396948 -0.048066594
-0.36602366 -0.18267171 -0.085513644 0.05482115 -0.08975533 0.051335547 -0.24024037 -0.046284962
-0.23242119 -0.034546513 -0.36885616 -0.31886435 -0.24763978 0.55862546 -0.24496382 -0.3779333
-0.41844907 -0.28419307 0.40354517 0.09770173 -1.348702 -0.35528073 0.032376856 0.7394272
-0.31318244 0.15258256 -0.283148 -0.15620515 -0.22569004 -0.11110015 -0.35882664 -0.10155508
0.053257663 0.17852938 -0.5998205 -0.26541126 -0.10909995 1.2959003 0.1168115 0.31156722
0.029101886 -0.10810796 -0.12563445 0.17337486 -0.35593027 -0.36928803 -0.22976564 0.07497126
0.0363515 -0.15231991 -0.03977222 0.008300265 -0.10996506 -0.7822082 -0.19647235 -0.23068343
0.61298096 -0.22194377 -0.2566102 -0.25094667 -0.24177018 0.1270265 0.012373228 -0.34629312
-0.42427063 -0.02976486 0.29818013 -0.25497052 -0.77064234 -0.22360952 -0.22250669 0.65259194
0.20152819 0.1750132 0.20360292 -0.07250515 0.20354529 -0.23641366 0.15970503 0.20196797
0.1485311 0.03464511 0.08638218 0.23346762 0.08734037 0.043837544 0.17594291 -1.2378707
-0.27960375 -0.101388745 1.0874865 -0.28095093 0.61188626 0.36155757 -0.066961356 -0.6253908
0.12546073 0.13907897 -0.21743098 -0.29228193 -0.13417724 -0.36774042 -0.1534298 -0.11752084
0.51518244 -0.061199687 -0.76845527 -0.11502054 0.11727782 0.7840343 -0.09986818 -0.058126315

fc1.bias f4 [64]
00000000: 9fed 57bd cb33 8fbd 3daf 493e b3af 693e
00000010: aa64 0d3e d763 43be 4fe5 23be 47fa f33d
00000020: ed9f 35be 03d6 8f3d 09e5 83be 2cff 07be
00000030: 645a a7bd f4b5 d3be ce96 a7be d4da 87be
00000040: 7077 8c3e d91a d4be 1268 893e 77ee 78be
00000050: 9a30 253e 5529 bcbe e328 c3be 8b38 94be
00000060: 3de4 c1bd 3f65 06bd d473 223e ca57 adbe
00000070: a1b0 d63b 0338 443e 9064 d9bd acba 6bbe
00000080: 28bb dfba 1618 65be 8fb5 2cbd adea 82be
00000090: 2646 7cbe 645a d4be 367b 2f3e e7a3 8abd
000000a0: 1b83 e4bd 6bbc 82be 4fe6 743e 6169 8abd
000000b0: 44a5 a43c f8e4 c5bd 3933 cb3d 64ab b0bc
000000c0: 1ddf 23be 3a33 073d 405f ad3e 8c8f b4be
000000d0: f24c 653e 0d6d 323e c8a9 f1be 661b 323d
000000e0: f7bf 37be 05a4 903e f86c 3ebe 2a19 5a3e
000000f0: 1afc 06bb acd7 5f3e 704a 433d 8a6a ecbd
-0.052716848 -0.069923006 0.19695754 0.2282093 0.13807932 -0.19081055 -0.16005443 0.11912971
-0.17736788 0.07023241 -0.25760677 -0.13280934 -0.081715375 -0.41349757 -0.32732242 -0.2653414
0.27434874 -0.41426733 0.26837212 -0.24309717 0.16131821 -0.36750284 -0.38117132 -0.2894939
-0.09467361 -0.0328114 0.15864497 -0.3385604 0.0065518175 0.19161992 -0.10614884 -0.23020428
-0.0017069327 -0.2237247 -0.042165335 -0.25569668 -0.24636135 -0.41475213 0.17136845 -0.06769543
-0.11157819 -0.25534377 0.23915981 -0.06758381 0.020098336 -0.09662813 0.09921879 -0.0215661
-0.1600308 0.033007838 0.33861732 -0.35265768 0.22392634 0.17424412 -0.47199845 0.04348316
-0.17944323 0.28250137 -0.18596256 0.21298662 -0.0020597042 0.21859616 0.04767841 -0.11543758

fc2.weight f4 [64, 64]
00000000: 46da bf3e f04c e23e 3064 4ebf debb 7abf
00000010: e3ad 05bf 88ee 573d 3cd7 903e 4ab0 ad3e
00000020: 8dd1 3f3e 31d6 a33e 4bdd bf3e ec80 263f
00000030: 87c4 bc3e 0146 113f 8327 cb3e 472a 103f
00000040: 6f98 f93d d882 8d3d a027 cabf a969 5f3d
00000050: e688 a93e 29ff b33e 882c 9b3e 0e07 063f
00000060: 8429 623e 7ef0 ad3e 870c 20bf 6b46 c93e
00000070: 8d03 3cbf 0ee6 13bf 6107 103e b4f4 923e
00000080: cc82 66be 3e2c 223f e537 b7be cce5 4e3f
00000090: 9ede f43d a72b 193f 422a b9be 35f9 de3e
000000a0: ae32 4ebd e193 e93e c109 7ebf 0bad 723e
000000b0: 2de2 73bd 1f41 c3bd 8920 c6be 1686 f83e
000000c0: 66c0 a23e ef4f 65bf fe96 17bf 6988 a23e
000000d0: 1e55 853e a80e 58bf fe70 ef3e 169a d0be
000000e0: e3b6 213f 89af 90bf 687b a93d a801 13bf
000000f0: daaa 5fbe f87b 53bf 9586 4bbf a1ed 0ebf
00000100: 911f 56bd 1c09 94bc 29bb 033e 43f5 40be
00000110: 6e68 9cbe 3c66 6dbd ab30 6cbd 3aea 713d
00000120: 0ac8 babc 35b5 79be e39f 3f3e c29f 84bd
00000130: bdb1 323d eff4 2ebe 6216 c33c caba 143d
00000140: 09a9 eabb 4bc6 23bb 001f 6b3e a8d9 403c
00000150: 911a ccbd b5d4 3ebd 32e3 bb3c 2bbf 84bd
00000160: 1245 80bd 9773 093e 993f 2ebd 4f5c 163e
00000170: 2c04 05bf 8730 acbe 32e9 573e 45ba 653e
00000180: b1c8 04be a068 d73d 5d60 f13e ec08 d2bb
00000190: 56b8 2bbe cc1f e23d 0a39 80be f1e3 04be
000001a0: b2d2 0dbe 9ae8 3fbe 9e61 abbe f5a0 63be
000001b0: 37d7 09bd ff6d 4dbe c464 20bd e7bf 58be
000001c0: 488e 05bd 48d0 62be 9550 5dbe e721 afbd
000001d0: 7a91 c23e 22dd a1be fb26 b5bd 9aac cebd
000001e0: 9225 90be 1379 4c3b 083a 033d 8616 21be
000001f0: 75c3 693c 033f 06bd fa19 733e bb4b cdbe
00000200: 76b6 09bd 8a6d 01be 331a b6bc 2427 8ebc
00000210: c34b 263d d0cf 663c 62c3 0ebd a502 83bd
00000220: e39c 493d bff5 1d3c a14b efbd 895c a0bd
00000230: dd87 ab3c f1f4 2b3d 9a11 fd3c ea61 1bbe
00000240: bbd7 46be e6bd a4bd e68b 8e3d 5fde ba3d
00000250: 081d afbd 628b 313d b0b3 20bc e24b b3bd
00000260: c675 8cbd 2ebf 9b3d 216d 96bb 092a 8f3c
00000270: e2a7 2d3c a8ae b2bd 49cd ea3c 60a8 5ebd
00000280: 460d dbbd dbd3 633d b8e8 bfbc ab5d 2bbb
00000290: f605 15bd 695e 8b3d 647c a03d 4c71 da3a
000002a0: fe24 c4bd 3d86 16be 5465 00bd 94c9 823d
000002b0: c0a3 3ebd 10d2 103d a734 e8bc 0824 953d
000002c0: f27f d0bd 411a efbd 1c3a 9fbd a447 17be
000002d0: 14d8 093d bd20 433d 2474 edbc 645a acbd
000002e0: e37e 343d 4bcc 26bc fc01 2c3d 1b1c 9a3d
000002f0: 417c 4fbd d833 c5bd 24be 42be 07ad fc3c
00000300: e5d4 083e a4fd 0dbf c0df 3cb8 5e05 ac3e
00000310: 13f0 a83e 66af ed3d 4df1 c83c e9dc 16bf
00000320: 63cf 143d 1752 013f 5f31 cfbe 157b 433e
00000330: 1c18 49be 1837 803e 6afc 82bb fede 22be
00000340: 1263 2b3e 1800 e2bd e67f e83e 5601 173e
00000350: c1c0 e6be 2797 033e c1c3 2abc 2724 c83d
00000360: 72ba bbbd 4f38 02bf 3bbb c83e 1c3f cbbc
00000370: b241 e23d 3c73 fe3e a51a 33bf 5a36 88be
00000380: ee09 0c3e 8a9d 02bf ddbe 2fbf d84e b9be
00000390: c7bb c33d a2b4 03be 3983 c53e 286c 17be
000003a0: 1099 d0bd cc89 83bd 0ca3 673e 9857 a83e
000003b0: e9c5 623d b945 b73e db1a 5a3d 91bb b33d
000003c0: 6084 af38 b613 1e3f 8783 1f3e d27c a3bc
000003d0: 5473 13be 065d f73e be9f 713d 4f17 163f
000003e0: 1bc5 ad3d 709a 73bd 2853 cb3d d440 ae3e
000003f0: 975e 003e 448c d03e 2414 9c3e fa4a 9d3f
0.37471217 0.44199324 -0.80621624 -0.9794291 -0.52218455 0.052717716 0.2828921 0.3392356
0.18732281 0.31999353 0.3747352 0.6504047 0.36868688 0.5674744 0.39678583 0.5631451
0.121872775 0.06909722 -1.5793343 0.054544125 0.33112258 0.3515561 0.30307412 0.52354515
0.2208615 0.33972543 -0.62519115 0.39311537 -0.7344292 -0.5777291 0.14065315 0.2870232
-0.22510833 0.6334876 -0.35784832 0.8081939 0.11956523 0.59832233 -0.36165053 0.43549505
-0.0503413 0.45620635 -0.99233633 0.23698823 -0.05954187 -0.09533905 -0.38696697 0.485398
0.31787413 -0.89575094 -0.5921477 0.31744698 0.26041502 -0.84397364 0.46765894 -0.40742558
0.6316969 -1.1303569 0.08275491 -0.574244 -0.21842518 -0.82611036 -0.7950223 -0.5583134
-0.052276198 -0.01807075 0.12864365 -0.1884356 -0.30548424 -0.057958826 -0.0576636 0.059061266
-0.022800464 -0.24385531 0.18713336 -0.06475784 0.043626536 -0.17085622 0.023814384 0.03631095
-0.007161264 -0.0024990018 0.22961044 0.011770643 -0.09966005 -0.046589572 0.022935484 -0.06481775
-0.06263174 0.13423 -0.04254112 0.1468365 -0.5195949 -0.33630773 0.2108505 0.22434337
-0.12967183 0.105180025 0.47143832 -0.006409755 -0.16769537 0.11041221 -0.25043517 -0.12977578
-0.13849905 -0.18741074 -0.33472914 -0.22229369 -0.03365251 -0.20061491 -0.039158598 -0.21166955
-0.032606393 -0.22149765 -0.21612771 -0.08551388 0.38001615 -0.31614023 -0.088453256 -0.10091515
-0.28153664 0.0031200096 0.032037765 -0.15731248 0.014267792 -0.032774936 0.23740378 -0.4009684
-0.033621274 -0.12639442 -0.02222929 -0.017352648 0.040599596 0.014087632 -0.0348543 -0.06396989
0.049221884 0.00964111 -0.11684347 -0.0783015 0.020938808 0.04198164 0.030892182 -0.1517407
-0.19418232 -0.08044033 0.06960277 0.09124445 -0.08550459 0.043345816 -0.009808466 -0.08754708
-0.06858401 0.07604824 -0.004590646 0.017476099 0.010599108 -0.08724719 0.02866234 -0.054359794
-0.10695891 0.055621963 -0.023426399 -0.002614836 -0.036382638 0.06805117 0.07836226 0.0016665845
-0.09577368 -0.14699645 -0.031346634 0.06386104 -0.046542883 0.03535658 -0.02834542 0.07282263
-0.10180654 -0.116749294 -0.07774755 -0.14773422 0.033653334 0.047638644 -0.028986044 -0.08415678
0.04406632 -0.010180543 0.04199408 0.07524892 -0.050655607 -0.09629029 -0.19017845 0.030844225
0.13362463 -0.5546515 -4.5031076e-05 0.33597845 0.32995662 0.1160572 0.024529124 -0.5893083
0.036330592 0.50515884 -0.40467355 0.19089921 -0.19638103 0.25042033 -0.0039973753 -0.15905377
0.16737011 -0.11035174 0.4541008 0.14746603 -0.45068935 0.12850629 -0.010422648 0.097725205
-0.09166421 -0.5086717 0.39205346 -0.024810366 0.11047687 0.49697292 -0.6996253 -0.26603967
0.13675663 -0.51021636 -0.6865061 -0.36192966 0.095573 -0.12861875 0.38576677 -0.14787352
-0.10185444 -0.06422767 0.22620791 0.3287933 0.055364523 0.35795382 0.053248268 0.0877601
8.369307e-05 0.61748827 0.15577517 -0.01995698 -0.14399463 0.4831316 0.058990233 0.58629316
0.084848605 -0.059473455 0.0992797 0.34033835 0.12536083 0.40732014 0.30484116 1.2288506

fc2.bias f4 [64]
00000000: aa0c 9dbd feca 25be d6db 1ebe 08e6 493e
00000010: d51b 0c3e 4026 40be 5638 16be e71c 12be
00000020: 8667 8e3d 7a92 32be d022 d4bd 3e32 9fbd
00000030: 3d48 253e fad9 63bc 783e f0bd 238e 61bc
00000040: 14f5 55be 4203 abbd 0727 13be 4051 3a3e
00000050: f9c6 84bd 0626 9b3e 7d0c 3e3e 4e3f 503c
00000060: 62c1 edbc 63b4 203e 6e2a 84bd 1d8c 303e
00000070: bc11 c43d 9ebf 003d ee09 b2bd e793 17be
00000080: a6bb db3c 542b 2a3e af0f 7fbe 01f2 173e
00000090: 0754 47bd ee1a abbd 212e 28bd 6b2b 0cbe
000000a0: 1156 b5bc 22df f7bd 2a32 22bd 802e 5d3e
000000b0: d323 36be 7194 583d 53bc 563e 0d45 0f3e
000000c0: 35ea 913d 9455 a23d 84b0 adbc 9823 b03e
000000d0: 765b 1a3e 1e26 69bd ed4c cd3d d521 96bd
000000e0: 1ddc e33c 064a fdba f964 423e c4dc 543e
000000f0: 1382 11be 7828 dbbc 14ac 82bc 2189 c2be
-0.07668431 -0.16190717 -0.15513548 0.19716656 0.13682492 -0.18764591 -0.14669928 -0.14268838
0.06953339 -0.17438689 -0.103582025 -0.07773255 0.16140838 -0.01390695 -0.11730665 -0.013766798
-0.20894271 -0.08350231 -0.14370357 0.18195057 -0.064832635 0.30302447 0.18559451 0.0127104055
-0.029022876 0.15693812 -0.06453405 0.17240949 0.09573695 0.03143274 -0.086933 -0.14802514
0.026822876 0.16618091 -0.24908327 0.14838411 -0.04866412 -0.08354746 -0.041059617 -0.13688438
-0.022135766 -0.12103106 -0.03959862 0.2159977 -0.17787103 0.05287594 0.20970277 0.13991185
0.071247496 0.07926479 -0.021202333 0.34402156 0.15073952 -0.056921117 0.10024438 -0.07330672
0.02781492 -0.0019324429 0.1898383 0.2078734 -0.14209776 -0.026752695 -0.015951194 -0.37995246

fc3.weight f4 [4, 64]
00000000: 3a81 38bf a0ca ae3d 41b4 dfbc 0de3 0bbd
00000010: c31f b6be 6c6a 69bf a134 503d 6d56 963d
00000020: 6158 603e 0028 bbbb 82dd b83e 91bd a1be
00000030: 2513 0d3c 80c8 5f3c 919e 15bf cd35 21bf
00000040: d160 63bf 3a1a 9bbe 1827 aabd 37be f2bd
00000050: 46c9 93bd 5df8 c4be 4b6f fb3e 0277 9fbc
00000060: dde9 893c 95ad c2bd b1cf 373e 0204 8ebd
00000070: 4e2c bb3e 7d1a 86be c3f3 00bd c098 7abf
00000080: efff c93d 9957 69be 6b7c 67be 6b71 2d3e
00000090: 39f5 31bf 329c 3abf 9127 06bf 2525 a4be
000000a0: 72d0 babd b67c 46bd 1888 133e fd7e a0bf
000000b0: 8a58 c4be 87ee 7f3c d89d a6be fb7b cf3e
000000c0: 2050 48be 4e20 4c3c 49c1 54be 05e3 9a3e
000000d0: 1d17 71bf 60b4 1e3e 6a16 91bf 415c f5be
000000e0: eb4b 4d3e 13e1 4ebf 9799 c2bd e422 1d3f
000000f0: 90ef b23d d644 c03f 764c 743d 1895 d7be
00000100: bc9a 97bd 98c0 103e 208d d63c 76c3 a2be
00000110: 0270 fcbe 7739 eb3d 0bd6 52bc 2288 923d
00000120: db82 2a3e 8c96 e6be 9db5 37be f1b6 00bf
00000130: 7bb9 da3e a144 3b3c 3274 fbbe b9ed ebbd
00000140: eaad 4ebf 67a6 82be 8af7 42bf 89c9 213f
00000150: ab6e 28bd 4dc8 ca3e 8981 a13e 6cc7 12bc
00000160: 9b0c 88be 3168 123f 370c 0ebf 0d06 88be
00000170: e41c 33bf 3f28 b2be c453 4ebf b3e8 2dbf
00000180: 4e99 98be b457 5abe eb94 23bf 1cbe c5bf
00000190: 83ed dcbe 9337 a1be 20f2 74bf c597 b13d
000001a0: 11c6 6d3d b021 12bc ff32 13bf fe64 3ebd
000001b0: 21f5 22be 4e93 48bd f053 babe b3ba d8bd
000001c0: 9113 97be 00d5 fd3c 24d1 17be 87f7 6abe
000001d0: a4e8 843e 5122 5bbf 117c 3c3e 9353 983e
000001e0: 4644 93bf 74ce 77bf 8264 333e e06e 493f
000001f0: 4240 fb3d 4203 ec3c 7446 563d 242e e1be
00000200: a5c5 57be bb48 66be 4377 f1bd 7575 aa3e
00000210: 1356 59bf b93b 44bf 183b b63d 5479 e4bd
00000220: 231f 82bf 6d4e 27bf 8cfb c0be 72a3 43bf
00000230: 0524 4bbf fa12 d7bb cc62 e5be 3cd1 50bf
00000240: 5ed0 14be c5e2 723e dcfd dd3d e577 d53e
00000250: 1f40 823c ab86 8f3d f4a7 f43d ff73 df3c
00000260: 2df2 46bf d907 01be f105 6abf 3d34 373f
00000270: ab29 8a3d 4e22 b8bc 354e 58be 717a 8bbe
00000280: 7fbc 103d a989 5cbf 7c13 a9be dd23 133d
00000290: 6e2e e03d 1d75 a4bd dbb9 6d3e 42e7 33bf
000002a0: 0c39 cebc 4073 45bd fa5d 10bf 7a95 e43c
000002b0: 14c8 03bf ea16 eabd 7e9e cebd 03c7 68bf
000002c0: 083b 6bbc 56bd 34bb b2bc 0bbf 4019 363f
000002d0: 5519 95bd 0647 acbe 2af4 ebbe 381f 663d
000002e0: ea66 a3be a6a7 1d3d af4c d03e 7e32 d9bf
000002f0: d877 f43d d4d0 d73e 9475 f33d f42f 14bf
00000300: 5549 37bf a1f1 41bd 37b3 59bc cbe8 243f
00000310: e8f5 a9bd 4a42 903d e69c bfbd dcae 03bd
00000320: 9d49 be3e 6cbd 05bf 3e30 2abe 75fc 6fbd
00000330: 0c9f 5c3e a526 9abd f577 63be 170a 2dbc
00000340: 300c 943d ad55 9cbf 47b8 5ebf 3be4 073e
00000350: 6614 4cbd bffb ca3e c9e0 bb3e c1db a2bd
00000360: 5e90 a93e 822c fdbe 59cb 1cbd eb72 26be
00000370: 85d3 6dbf 2e92 e5be 0e14 993d af9e bf3d
00000380: ca64 0f3f f26c ddbe 6b60 c3be c6d4 cfbd
00000390: 2f5a 19bf eacc 3dbf f45b 2f3d 3cbc 0dbf
000003a0: 64ae 69bd 28f1 943d 5015 eabe 233d 91be
000003b0: b6ed 813e 71e6 d0bd a91d 31bf e9d2 ca3e
000003c0: a36f 86bf 21e6 24bd e279 26bf fdcb 8e3e
000003d0: 08d0 a33e 24ad 33bf cdc9 24be 9d65 62bf
000003e0: 36bb a8be 2505 33be ec5e 88bf 08c3 133f
000003f0: f2f8 2d3d 85b3 58bb 1521 24bd a89b 05be
-0.72072184 0.085347414 -0.027307631 -0.03415208 -0.35571107 -0.9117801 0.05083144 0.07340703
0.21908714 -0.0057115555 0.36106497 -0.3158994 0.008610521 0.013658643 -0.5844508 -0.6297272
-0.88819605 -0.30293447 -0.08308238 -0.11852687 -0.07216124 -0.38470736 0.49108347 -0.019465927
0.016835148 -0.095057644 0.17950322 -0.06934358 0.3655724 -0.26192084 -0.03148247 -0.9788933
0.098632686 -0.22787322 -0.22606055 0.16937797 -0.69514805 -0.72894585 -0.52404124 -0.3205959
-0.09121789 -0.048458777 0.14407384 -1.2538754 -0.383488 0.015620834 -0.325423 0.40524277
-0.19561815 0.012458874 -0.20776857 0.30251327 -0.94175893 0.15498495 -1.1334965 -0.47921947
0.20048492 -0.80812186 -0.09501951 0.61381364 0.08737099 1.5021007 0.05964323 -0.42105937
-0.0740256 0.14135969 0.02619034 -0.3178975 -0.49304205 0.1148557 -0.012868415 0.071548715
0.1665148 -0.45036733 -0.17940374 -0.50279146 0.42719635 0.011429937 -0.49112087 -0.115199514
-0.8073412 -0.2551758 -0.76158965 0.63198143 -0.041121166 0.39605942 0.3154414 -0.008958679
-0.26572117 0.57190233 -0.5548739 -0.26567116 -0.6996596 -0.3479633 -0.80596566 -0.67933196
-0.29804462 -0.21322519 -0.63899106 -1.5448642 -0.43149957 -0.31487712 -0.95681953 0.08671526
0.05805022 -0.008919165 -0.5749969 -0.046483032 -0.15913822 -0.048968606 -0.36392164 -0.10582485
-0.29507115 0.030985355 -0.14825875 -0.22945987 0.2595874 -0.8559924 0.18406703 0.29751262
-1.150521 -0.967994 0.1751881 0.78684807 0.122681156 0.028810147 0.052313283 -0.43980515
-0.21071489 -0.22488682 -0.117903255 0.33292738 -0.84896964 -0.7665363 0.0889799 -0.11155954
-1.0165752 -0.65354043 -0.37691915 -0.7642127 -0.79351836 -0.0065635415 -0.4480194 -0.81569266
-0.14532611 0.23719318 0.108394355 0.41693035 0.015899716 0.07008108 0.11946097 0.027276991
-0.7771328 -0.1260065 -0.91415316 0.71564084 0.06746229 -0.022477295 -0.21123584 -0.27241853
0.035336014 -0.8614755 -0.33022678 0.035922874 0.10946356 -0.0803015 0.2321543 -0.70274746
-0.025173686 -0.048205614 -0.56393397 0.027903307 -0.5147717 -0.11430152 -0.10088824 -0.9092867
-0.014357336 -0.0027578673 -0.545848 0.7113228 -0.07280222 -0.33647937 -0.4608472 0.056182116
-0.31914455 0.03848996 0.40683505 -1.6968534 0.11936921 0.4215151 0.118876606 -0.5788567
-0.7159627 -0.047349576 -0.013287357 0.64417714 -0.08298856 0.07043894 -0.09356098 -0.03214918
0.37165537 -0.5224216 -0.16619965 -0.05859037 0.21545047 -0.07526902 -0.22213729 -0.010561488
0.07228887 -1.2213646 -0.86999935 0.13270657 -0.04982414 0.39645192 0.36694935 -0.07952071
0.33117956 -0.4944802 -0.038279865 -0.16254775 -0.9290088 -0.4483809 0.07474528 0.09356438
0.56013167 -0.4324718 -0.381595 -0.10148005 -0.59903234 -0.741408 0.042812303 -0.5536535
-0.057051077 0.072725594 -0.45719385 -0.28366956 0.25376672 -0.10200203 -0.6918588 0.39614037
-1.0502819 -0.04025853 -0.6502973 0.27890006 0.31994653 -0.70186067 -0.16092606 -0.884363
-0.3295533 -0.17482431 -1.0653968 0.5771947 0.04247374 -0.0033065986 -0.040070612 -0.1304766

fc3.bias f4 [4]
00000000: f332 51be 319d 033e d110 ca3d a9fe 3c3d
-0.20429592 0.12852933 0.09866489 0.0461413

fc1.weight f4 [64, 24]
00000000: 0889 8ebe 734b 9abe a831 0f3d 7dbf 02be
00000010: 4bb2 3cbd bd4f 163e ecd4 05be 648a 2cbe
00000020: a4f5 d23e f313 2d3d 3a99 33bf 29d4 a4bd
00000030: ef9a f9bd cdcf 083f 2bed 033c 8adc 113e
00000040: a9c5 91be 8865 c1be e4da fb3e 3520 2dbe
00000050: ae12 13bf 627d 36be 5f71 7bbe a033 783e
00000060: a5af 98be 90e7 483e ef8d cabd b804 25be
00000070: 0c4b 5cbe 4050 7b3e 1b1f 943d 6b7a 71bd
00000080: 190c 54be 8d75 a63e 6036 85bf f247 e6bd
00000090: b5ac 8bbd 9b17 aa3f 0cbd 023e 40ca 3a3e
000000a0: ad7e 50bd d25e c2bd f622 943e 3d5c 2ebd
000000b0: ebbc 03bf c58c 32be 8169 90be e510 06bd
000000c0: 1e6a a03e 0d7e 033e bda8 3c3e d4ed aa3d
000000d0: 1db5 303e e38d b7be 6a91 023f 8794 403d
000000e0: 2065 413e 77e6 3abc 2102 0e3f 3abc 673e
000000f0: 1df9 cd3e ea08 62bf f146 853e de88 0c3f
00000100: 6794 d93d 7c48 7f3d cc07 853e 71b6 4d3d
00000110: 4316 883f d7cc ae3d 23f0 6b3e 1cb0 1bbf
00000120: feaa 193e ef8d dabc 2745 5a3e 4554 163e
00000130: 6933 573e e735 e93e 2e3f eebd afe2 883e
00000140: 01c5 14bf 83a7 803e da56 1c3f ebaf 793e
00000150: 7be1 593e 2f0d c4be 2967 e0bc dae3 433f
00000160: f204 9d3e dbf6 8f3e 513b 1cbf c21d c63e
00000170: 79a4 f5be 8de2 a93e 4578 123e ef15 0e3e
00000180: feac 9d3d b6d9 a53e cb95 0a3e 7cea 1b3e
00000190: 0fcf de3d 8f57 9a3e e3b9 c33e 26e3 273e
000001a0: 4d0d 27bf 42ed bc3d 602d 373d 436f a93e
000001b0: 18c0 a0bd 345c 1ebf e8e0 a53e 2d1f e33e
000001c0: 7b62 803e 9065 873d 00fd 943e db90 dd3e
000001d0: 6786 61bf a9cd 013f f111 a33e ad83 2c3d
000001e0: fdac 0c3e 85f6 843c d412 073d 214e 02be
000001f0: 8a32 42be a783 4bbe ec3a 0d3e 414b 2dbe
00000200: b682 0fbd 9a3f 9abd 9558 30bd 053d 153e
00000210: a945 333e 60a6 df3a 0b7f 2abe 149c 14be
00000220: 1b19 42be 3617 60bd f538 09bc 8f5f 5cbd
00000230: 9804 51bc 75fc 1e3e 169a 00bd 7ae1 44bd
00000240: 5aa4 a5be b24e 57be 38dd d8bd fbc1 9a3d
00000250: 35bd c7bd 80a6 0e3d b2b6 74be fc0b 75bc
00000260: d496 6ebe 1a24 29bd 2ced cfbe 67a7 85be
00000270: a9e5 77be 8e0a 103f b6c7 7cbe 1463 c1be
00000280: 4331 a9be eed0 94be 9f56 d93e ea26 a83d
00000290: 4dc8 abbf c696 8dbe ca53 fc3c a2f4 413f
000002a0: 8a89 93be d26f 043e 2d8c a9be af1a e1bd
000002b0: 0eee 68be 9031 04be 31f3 c9be 609a d7bd
000002c0: 6782 103d 5feb 313e 47d2 21bf 014a 7fbe
000002d0: ec9d f1bd 7de0 a03f cbae f03d 5309 813e
000002e0: 92a5 d53d 58e8 0abe 0b5a e1bd 8499 263e
000002f0: d2ec debe 3b82 b8be 66bf 67be ae53 7b3d
00000300: 24d3 f0bb eb4b 17be 748f 90bc cf16 063d
00000310: 036b 04be e502 3cbf c467 0abe 8450 6abe
00000320: 36ee 1e3f 2dcd 54be 0c0d 92be 40a9 6cbe
00000330: 3f95 83be 4234 003e f97c e9bb 9b8f 99be
00000340: 4f06 c5be abdb 4bbb 5408 9f3e 5f3c 7cbe
00000350: ccc1 4cbf 9dc1 1abe 516d 7ebe e6af 263f
00000360: fa49 2b3e f68c 283e 7018 463e 31a3 a2bd
00000370: f9e2 303e 6d54 6fbe fca9 093e 7d18 443e
00000380: 029d f33d 2fe5 be3c f39b 373e 3b0d 733e
00000390: f5fb ed3c 8ce8 eebb 4df7 303e c958 9ebf
000003a0: 3fea 98be b01b 19be 5e38 853f 89d6 9bbe
000003b0: eb2d 223f 0e5b 3e3e 1656 09bd 28a8 29bf
000003c0: 703a c33d 2510 e83d 5982 89be ca23 66be
000003d0: 8e90 2ebe 22e6 bebe 18ff 13be f4fc c9bd
000003e0: e35a 003f 8dd0 89bd 0a04 48bf 832f 0abd
000003f0: 801d 2c3d b387 433f 2a48 20be 6c5f 12be
-0.27838922 -0.30135688 0.034959465 -0.1276836 -0.04606847 0.14678855 -0.13069504 -0.16849667
0.41203034 0.042255353 -0.7015568 -0.08048279 -0.12187754 0.5344208 0.008052151 0.14244285
-0.28471115 -0.37772775 0.49190438 -0.16906817 -0.5745038 -0.17821267 -0.24554966 0.24238443
-0.29821506 0.19619584 -0.09890353 -0.16115081 -0.21513003 0.24542332 0.072324954 -0.058954637
-0.2070774 0.3251156 -1.0407219 -0.11244191 -0.068200506 1.3288454 0.12767428 0.18241215
-0.050902057 -0.09490742 0.28932923 -0.042568434 -0.5146014 -0.17436512 -0.28205493 -0.032730956
0.3133096 0.12841053 0.18423744 0.08346143 0.17256589 -0.35850438 0.51003134 0.047016647
0.18886232 -0.011407486 0.55472 0.22630396 0.4022912 -0.8829485 0.26030686 0.5489634
0.106240086 0.062324986 0.2598251 0.050222818 1.0631794 0.08535164 0.23040824 -0.60815597
0.15006635 -0.026679007 0.21315442 0.14680584 0.21015705 0.45548937 -0.11633144 0.26735446
-0.58113104 0.251278 0.61070025 0.24383514 0.2127742 -0.38291308 -0.02739294 0.7651955
0.30667835 0.28118023 -0.6102801 0.38694578 -0.47977045 0.33180657 0.14303692 0.13875555
0.07699011 0.32392663 0.13533704 0.15226167 0.10879337 0.30144927 0.38227758 0.16395244
-0.6525467 0.09224941 0.044721007 0.33092698 -0.07849139 -0.6185944 0.32398152 0.44359723
0.25075135 0.066111684 0.29099274 0.43274578 -0.88095707 0.5070444 0.31849626 0.042117763
0.13737865 0.01623083 0.03297694 -0.12725116 -0.18964592 -0.1987444 0.13792008 -0.16923238
-0.035036765 -0.07531662 -0.04305323 0.14574058 0.17507042 0.0017063133 -0.16650026 -0.14512664
-0.1895489 -0.054709636 -0.008375396 -0.05380207 -0.012757443 0.15525992 -0.031396948 -0.048066594
-0.32351953 -0.21026114 -0.10589069 0.0755653 -0.09752885 0.034826756 -0.23897818 -0.014956471
-0.23299724 -0.041294195 -0.40610635 -0.2610428 -0.24208702 0.56266105 -0.24685559 -0.37770903
-0.33045396 -0.2906565 0.424489 0.08210547 -1.3420502 -0.27654094 0.030801672 0.75763905
-0.2881587 0.12933281 -0.33114758 -0.109914176 -0.2274706 -0.12909532 -0.39443353 -0.105274916
0.03528061 0.17374943 -0.6321148 -0.24930574 -0.11797699 1.2568508 0.11752089 0.25202426
0.10431971 -0.13565195 -0.110035025 0.16269499 -0.43540055 -0.36036858 -0.22631606 0.0613591
-0.0073493887 -0.14775054 -0.017646529 0.032736596 -0.12931447 -0.73441917 -0.13516146 -0.22882277
0.6208223 -0.20781393 -0.2852558 -0.23111439 -0.25699803 0.12519935 -0.0071254936 -0.29992375
-0.38481376 -0.0031106274 0.3106104 -0.24632405 -0.7998321 -0.1511292 -0.24846388 0.6511215
0.16727439 0.16460022 0.1934526 -0.079412825 0.17274083 -0.2337205 0.1344375 0.19149967
0.11895181 0.023302643 0.17930584 0.23735516 0.029050807 -0.0072909053 0.17281838 -1.2370845
-0.29866216 -0.14951968 1.0407827 -0.30437115 0.63351315 0.18589422 -0.033529364 -0.6627221
0.095326304 0.11331204 -0.2685726 -0.2247459 -0.1704733 -0.37284952 -0.1445278 -0.098627
0.5013868 -0.06729231 -0.78131163 -0.033736717 0.04202032 0.76378936 -0.15652528 -0.14294213

fc1.bias f4 [64]
00000000: 797e 31bd 943d 94bd cefb 4b3e cc60 753e
00000010: 2096 0c3e d763 43be 7bff 1bbe 59eb de3d
00000020: a3df 31be 97c9 1a3d 5bb8 8fbe 8fa4 1bbe
00000030: 1b8b c2bd f46e d8be c7b2 abbe f86d 82be
00000040: 6221 903e ee32 cdbe b2f9 873e 177f 66be
00000050: adb5 243e 0782 b1be e816 c3be c481 90be
00000060: a953 dcbd a8ae 32bd 8064 333e 9fa4 aebe
00000070: 1a3d 303b 84ff 503e 5c28 c4bd 3342 74be
00000080: a7de eb3b 9a4b 7cbe e56f 8dbc 248b 81be
00000090: 657b 78be 14e9 d1be b5a7 213e 4dc9 97bd
000000a0: 6f6d e0bd dbae 83be a8e6 843e a75b a2bd
000000b0: 5b0c 6c3c 8b94 a9bd aad4 e83d 9f5e 01bd
000000c0: 5fd6 1abe 45ee d13c ba3b ac3e c835 b3be
000000d0: ec7b 6a3e 4760 1a3e cf4b eebe 62f9 b23c
000000e0: 89ea 31be 506c a33e f86c 3ebe c8ad 7e3e
000000f0: 796b a13b 36d5 6a3e 0b8f 3a3d f58d e6bd
-0.043333504 -0.072383076 0.19920275 0.23962706 0.13729143 -0.19081055 -0.15234177 0.10884733
-0.17370467 0.037789907 -0.2807034 -0.15199493 -0.094991885 -0.4227215 -0.33534834 -0.25474524
0.2815047 -0.4007792 0.2655769 -0.22509418 0.16084929 -0.34669515 -0.38103414 -0.28224003
-0.107581444 -0.043623596 0.17518806 -0.3410997 0.0026891888 0.20409971 -0.095780104 -0.23853378
0.007198173 -0.24638215 -0.01726527 -0.25301468 -0.24265821 -0.40998137 0.15786631 -0.07411442
-0.10958373 -0.25719342 0.25957227 -0.079276375 0.014407243 -0.082802854 0.113686875 -0.03158438
-0.15120839 0.025626311 0.33639318 -0.3500197 0.22898835 0.1507579 -0.46542212 0.02184743
-0.17374624 0.31918573 -0.18596256 0.2487098 0.004926142 0.22932896 0.045546573 -0.11257545

fc2.weight f4 [64, 64]
00000000: 63c3 bf3e 7f62 d13e 5442 3dbf ae29 76bf
00000010: 471b 03bf 88ee 573d 7674 963e 56cf 9d3e
00000020: c503 373e 8757 a43e fba3 b33e 2a9d 273f
00000030: e7dc ad3e fba2 0f3f cebf c33e e48a 123f
00000040: 4159 f53d c756 9e3d 3af0 c9bf f46d aa3d
00000050: 7001 953e c514 ba3e a085 a03e 9b3d 033f
00000060: 18b4 573e ecf8 a93e 2f70 23bf 7ebf c23e
00000070: f146 2fbf eb89 17bf f5fb 053e f6c7 9b3e
00000080: fc85 75be 6919 233f 17ac adbe a671 503f
00000090: 414d db3d be61 1c3f ea05 b5be f263 d53e
000000a0: 64f9 59bd 8824 e43e 1338 86bf 20de 5a3e
000000b0: 4caa 31bd a25c bdbd 3dfc c9be 71c2 f83e
000000c0: f119 a13e cb5d 63bf f08c 21bf b1e9 a53e
000000d0: ed21 4d3e a396 5dbf 64fb f63e 283e d2be
000000e0: 2526 2d3f 0945 91bf 687b a93d 1fce 13bf
000000f0: 4831 64be a4a2 3abf 9ecb 45bf 2a6e 14bf
00000100: 1163 39bc 15dc df3b 9d9e c63d 12dd 38be
00000110: 28ce 9abe 3c66 6dbd d6dc 57bd 6549 b53d
00000120: aac8 133d b012 63be 72e3 653e c9dc d7bc
00000130: 4e45 e13d c546 d5bd 925a 953d 2f67 5a3d
00000140: 2fd2 adbc 9aaa 243d f437 493e e6c2 063d
00000150: f0e7 b2bd 712e 3cbd 3134 a63c 5469 e5bc
00000160: 0a32 59bc ffd8 313e 150b 11bd 2633 383e
00000170: e487 04bf 9416 c0be 7223 823e c031 823e
00000180: 9203 dabd e7ba 183e fbc6 e93e 7c32 503b
00000190: 35cb 16be 446e 133e 5c6c 84be 20f3 e1bd
000001a0: 4619 ccbd bea9 16be dcb7 a2be 96ca 37be
000001b0: ff2a f6bc d935 39be 4e02 d1bc ce9b 39be
000001c0: 56a1 60bc 8f72 80be cc6f 55be 7eb4 bbbc
000001d0: 236d b03e 82a7 acbe 4836 aebd a222 8abd
000001e0: 4068 7bbe 42a9 463c 083a 033d d440 0fbe
000001f0: eb2e 1c3d 5410 2bbd 2b00 683e 25dd b5be
00000200: 76b6 09bd 8a6d 01be 331a b6bc 2427 8ebc
00000210: c34b 263d d0cf 663c 62c3 0ebd a502 83bd
00000220: e39c 493d bff5 1d3c a14b efbd 895c a0bd
00000230: dd87 ab3c f1f4 2b3d 9a11 fd3c ea61 1bbe
00000240: bbd7 46be e6bd a4bd e68b 8e3d 5fde ba3d
00000250: 081d afbd 628b 313d b0b3 20bc e24b b3bd
00000260: c675 8cbd 2ebf 9b3d 216d 96bb 092a 8f3c
00000270: e2a7 2d3c a8ae b2bd 49cd ea3c 60a8 5ebd
00000280: 460d dbbd dbd3 633d b8e8 bfbc ab5d 2bbb
00000290: f605 15bd 695e 8b3d 647c a03d 4c71 da3a
000002a0: fe24 c4bd 3d86 16be 5465 00bd 94c9 823d
000002b0: c0a3 3ebd 10d2 103d a734 e8bc 0824 953d
000002c0: f27f d0bd 411a efbd 1c3a 9fbd a447 17be
000002d0: 14d8 093d bd20 433d 2474 edbc 645a acbd
000002e0: e37e 343d 4bcc 26bc fc01 2c3d 1b1c 9a3d
000002f0: 417c 4fbd d833 c5bd 24be 42be 07ad fc3c
00000300: b15f 9e3d 81e2 0fbf 7baf 04bd 0d48 8f3e
00000310: 9268 9e3e 66af ed3d e52c 113b b7f2 18bf
00000320: f727 6c3d 138d f23e 4cfa d0be 0261 e13d
00000330: 2077 40be 451a 6b3e ef1e ccbc d9a0 2dbe
00000340: dd1e 0b3e e1d2 f7bd b3d7 d73e 150f 073e
00000350: 120d e5be e4f4 df3d ef22 493c 498b 7b3d
00000360: b1c0 d2bd 4c94 04bf cced b03e 20e1 90bc
00000370: cb60 953d b050 f53e 0400 2ebf 7da1 99be
00000380: b3de e83d f0b3 ffbe f351 29bf 74e4 c8be
00000390: ba2d 933d c80e 40be c40f c13e 5c5a 1ebe
000003a0: cfd8 cebd c8d0 9bbd 849e 483e 4a76 993e
000003b0: be9f fb3c ea82 9a3e 7fc3 123d a66d 7b3d
000003c0: 7ac3 38bd 766d 1d3f d547 f43d f1bc 17bd
000003d0: 07ca 03be a153 ee3e 9ea2 0d3d 4d7e 0b3f
000003e0: df9a a73d 05d7 9ebd 2853 cb3d 5716 9c3e
000003f0: bb9d dd3d 0a43 c83e 80c4 563e a1dd 9c3f
0.37453756 0.4089546 -0.73929334 -0.9615735 -0.51213497 0.052717716 0.29385728 0.30822247
0.17872532 0.32098028 0.35086045 0.6547419 0.33957598 0.56108063 0.38232273 0.5724318
0.119799145 0.07731395 -1.5776436 0.08321753 0.2910266 0.3634397 0.31351948 0.5126588
0.21064794 0.33197725 -0.63843054 0.38036722 -0.68467623 -0.5919482 0.13084395 0.30425996
-0.23976892 0.6371065 -0.33920357 0.81423414 0.107080944 0.6108664 -0.35356075 0.41677815
-0.053216353 0.4455912 -1.0485862 0.21373796 -0.0433753 -0.09246184 -0.39450255 0.48585847
0.31465104 -0.8881499 -0.6310568 0.32404855 0.20032473 -0.8655798 0.4823867 -0.41063046
0.6763633 -1.1349193 0.08275491 -0.5773639 -0.22284424 -0.7290442 -0.7726382 -0.57980597
-0.011315123 0.0068316557 0.09698222 -0.18053082 -0.3023541 -0.057958826 -0.05270084 0.088518895
0.03608004 -0.22175097 0.22450045 -0.026350396 0.10999547 -0.10413889 0.072926655 0.05332106
-0.021218387 0.04020176 0.1965025 0.032900713 -0.08735645 -0.045942727 0.020288559 -0.028004326
-0.013256559 0.17367934 -0.03541096 0.17988262 -0.5176985 -0.37517226 0.25417668 0.2542858
-0.10645212 0.14915048 0.45659623 0.0031768372 -0.14725955 0.14397532 -0.25863922 -0.110327005
-0.09965758 -0.14713189 -0.317809 -0.17948374 -0.030049799 -0.18086948 -0.025513794 -0.18125841
-0.0137103405 -0.250874 -0.20843428 -0.022913214 0.34458265 -0.33721548 -0.08506447 -0.06744887
-0.24551487 0.012125315 0.032037765 -0.13989574 0.038130682 -0.04176362 0.22656314 -0.35520282
-0.033621274 -0.12639442 -0.02222929 -0.017352648 0.040599596 0.014087632 -0.0348543 -0.06396989
0.049221884 0.00964111 -0.11684347 -0.0783015 0.020938808 0.04198164 0.030892182 -0.1517407
-0.19418232 -0.08044033 0.06960277 0.09124445 -0.08550459 0.043345816 -0.009808466 -0.08754708
-0.06858401 0.07604824 -0.004590646 0.017476099 0.010599108 -0.08724719 0.02866234 -0.054359794
-0.10695891 0.055621963 -0.023426399 -0.002614836 -0.036382638 0.06805117 0.07836226 0.0016665845
-0.09577368 -0.14699645 -0.031346634 0.06386104 -0.046542883 0.03535658 -0.02834542 0.07282263
-0.10180654 -0.116749294 -0.07774755 -0.14773422 0.033653334 0.047638644 -0.028986044 -0.08415678
0.04406632 -0.010180543 0.04199408 0.07524892 -0.050655607 -0.09629029 -0.19017845 0.030844225
0.077330954 -0.5620499 -0.032393914 0.27984658 0.30939156 0.1160572 0.0022152003 -0.59745353
0.0576553 0.47373256 -0.4081596 0.11004831 -0.18795443 0.2295924 -0.024917094 -0.1695589
0.13585992 -0.12100769 0.42156753 0.13189347 -0.44736534 0.10935381 0.012276395 0.06141213
-0.10290659 -0.51788783 0.34556425 -0.017685473 0.072938524 0.47913122 -0.67968774 -0.30006018
0.113706015 -0.4994197 -0.6614067 -0.39236796 0.07186456 -0.18755639 0.3770734 -0.15464157
-0.10099947 -0.07608181 0.19591719 0.2997306 0.03071582 0.30178005 0.03583097 0.061383866
-0.045108296 0.6149515 0.119277634 -0.037045423 -0.12870036 0.4654818 0.034578912 0.54489595
0.08183836 -0.077558555 0.0992797 0.30485794 0.108211 0.39113647 0.20973396 1.2255136

fc2.bias f4 [64]
00000000: 1fea c7bd 4298 10be d6db 1ebe f966 2b3e
00000010: 64bd fe3d f79c 11be 5638 16be e71c 12be
00000020: b067 ab3d 810b 61be 0d9e bbbd fc4c 9abd
00000030: e3f9 393e fad9 63bc 4cd5 c4bd 2eaa 383c
00000040: 28b3 4fbe f2b8 69bd 21cf f9bd 24dc 2c3e
00000050: f9c6 84bd 31a3 9e3e e895 3b3e 4e3f 503c
00000060: 9771 c9bb 9051 1f3e 3e0b e8bd 428b 273e
00000070: b814 b23d 14cb bd3c 56a2 12be 706e 0fbe
00000080: 276c 2b3d 1ba4 fa3d 5d71 66be 7c84 d43d
00000090: 141b 6dbd 0031 8abd e6e1 54bd 9574 16be
000000a0: 1156 b5bc 22df f7bd ef7d b0bd cfb1 3b3e
000000b0: fd31 24be 7194 583d f1b0 453e a729 353e
000000c0: b75d 9e3d 9455 a23d 045a 19bd 26a1 a63e
000000d0: f251 083e 397e 95bd 991a b53d 9bcb 84bd
000000e0: 76a7 fd3b d5dd aebc 6f9a 413e c806 4c3e
000000f0: 1382 11be 2f6a 15bd 14ac 82bc c8c8 b8be
-0.09761452 -0.14120582 -0.15513548 0.167385 0.12438467 -0.14220034 -0.14669928 -0.14268838
0.08369386 -0.21977045 -0.09161005 -0.07534215 0.1816173 -0.01390695 -0.09610996 0.011271043
-0.20283186 -0.057061143 -0.1219771 0.16880852 -0.064832635 0.3098388 0.18318903 0.0127104055
-0.006147574 0.15558457 -0.11330269 0.16361716 0.08695358 0.023168124 -0.14319739 -0.14006972
0.04185119 0.12238332 -0.22504182 0.10376832 -0.05788715 -0.06747627 -0.051973246 -0.1469291
-0.022135766 -0.12103106 -0.0861777 0.18329547 -0.16034694 0.05287594 0.19305779 0.1769167
0.077327184 0.07926479 -0.03743936 0.32544822 0.1331251 -0.07299466 0.08842964 -0.06484147
0.00774091 -0.021346012 0.18906568 0.19924462 -0.14209776 -0.036478218 -0.015951194 -0.36090684

fc3.weight f4 [4, 64]
00000000: f10c 2cbf 13ea b63d 41b4 dfbc 252f 33bd
00000010: d665 afbe 8f7d 61bf a134 503d 6d56 963d
00000020: e2b9 553e a594 ebba 6984 b73e 3c02 a0be
00000030: bbfd 09bc 80c8 5f3c 0ab6 0abf 8ce3 1abf
00000040: 6284 56bf b6a7 a5be a76d 8fbd 87fe 2ebe
00000050: 46c9 93bd a9d9 bebe 97df f53e 0277 9fbc
00000060: fd08 093c 1200 a7bd 9656 3f3e 55b7 a7bd
00000070: 31da bd3e bb7d 80be 542e c7bc c652 6dbf
00000080: 685c bd3d 65ee 5cbe 040d 47be 3e20 363e
00000090: 8654 23bf 3f00 2ebf a4de f1be 69b6 9fbe
000000a0: 72d0 babd b67c 46bd 7c70 0e3e c811 98bf
000000b0: c025 bbbe 87ee 7f3c fbc8 9ebe 38b3 cf3e
000000c0: 0ff4 3bbe 4e20 4c3c 7944 4abe a91d 953e
000000d0: 93f9 62bf a0bc 2e3e 48a1 8bbf 4f81 e2be
000000e0: 58ed 543e ae61 42bf 69fc b2bd 7a67 0e3f
000000f0: 90ef b23d b632 c13f 764c 743d 66c7 c3be
00000100: 7a40 b3bd be33 153e 208d d63c b963 91be
00000110: d43d febe 12d1 d33d 0bd6 52bc 2288 923d
00000120: 0288 223e a416 dabe 3ec2 18be b37b 02bf
00000130: 5576 d43e a144 3b3c adb2 ffbe de73 08be
00000140: fa08 53bf 0382 94be 09a3 40bf c5dd 1c3f
00000150: ab6e 28bd 8faf c13e b47f a43e 6cc7 12bc
00000160: 2999 92be 8b7e 0e3f 1ed4 06bf 97dc 92be
00000170: 6344 2ebf 33e8 b7be 1408 45bf b8f8 32bf
00000180: 6e90 99be f36c 56be 2817 24bf 5deb bfbf
00000190: 16cb e6be cc57 a9be bbd2 7dbf 42a6 b93d
000001a0: 11c6 6d3d b021 12bc 2d51 08bf 52b2 85bd
000001b0: a009 40be 4e93 48bd aa0a c1be 4c1a dfbd
000001c0: eb32 a6be 00d5 fd3c 0606 11be 1ed9 6cbe
000001d0: b61c 6d3e a2cb 51bf c22a 2c3e ea97 8b3e
000001e0: a268 8cbf 8990 7cbf bdef 163e 4ae3 3d3f
000001f0: 4240 fb3d 817f 4a3d 7446 563d 51f1 e3be
00000200: 6e2d 80be eb86 63be 4377 f1bd 868e 963e
00000210: ccd5 5abf 9aa8 4bbf 183b b63d 5479 e4bd
00000220: e925 80bf 1395 25bf e243 abbe f690 45bf
00000230: 7c90 48bf fa12 d7bb d6a0 f2be 180e 4fbf
00000240: 0448 2ebe 1a1a 573e cf8a b33d 5ff6 ad3e
00000250: 1f40 823c 7f8e 2d3d 0730 d33d ff73 df3c
00000260: d4a0 44bf 8fe6 06be 989f 6fbf 9493 313f
00000270: 44ea 7b3d 5ac5 18bd 1963 71be 43ae 96be
00000280: 56d5 9d3b 32fa 5dbf aa7d b1be f4e0 d23a
00000290: 416c 933d 002a e2bd 6943 4d3e 4b9c 31bf
000002a0: 0c39 cebc 4073 45bd 46bf 0dbf bcc1 513c
000002b0: 3694 fdbe ea16 eabd 25ef f3bd 9409 67bf
000002c0: 8463 fdbc 56bd 34bb 6dcc 08bf bddd 2f3f
000002d0: 9c0a bebd ff54 afbe d372 ffbe bf5b f33c
000002e0: ac91 acbe 3602 383c 852c c73e 8f84 e2bf
000002f0: d877 f43d 789a c63e 9475 f33d b2d9 1abf
00000300: b130 3cbf 00db a0bd 37b3 59bc 4446 1e3f
00000310: 8651 8bbd e406 8b3d e69c bfbd dcae 03bd
00000320: a330 c93e 7159 07bf 0ad5 4fbe d88b 52bd
00000330: bddc 6a3e a526 9abd 18db 81be 5d69 f7bb
00000340: 53c9 443d 5efe a3bf e662 65bf 9b42 b63d
00000350: 6614 4cbd 5ec3 c73e 5e8b b83e c1db a2bd
00000360: 8e22 b83e 8eeb 00bf e995 08bd 5b61 46be
00000370: 4600 76bf 3e57 e7be 0942 7c3d f257 8f3d
00000380: 68db 113f d0bc d8be 1ce1 d1be fd5a ebbd
00000390: 302c 26bf a8e9 45bf 9641 a93c 429a 0dbf
000003a0: 64ae 69bd 28f1 943d bd20 f3be 2acc 98be
000003b0: ee6a 7f3e 71e6 d0bd 011d 32bf d624 d43e
000003c0: ef29 87bf 21e6 24bd 960b 24bf 26b4 743e
000003d0: 07a1 9f3e 10f4 39bf 4cf6 2abe f5b8 63bf
000003e0: 899a b3be cd6c 51be 6b16 89bf 0f4e 183f
000003f0: f2f8 2d3d ce97 11bd 1521 24bd 57c5 22be
-0.67207247 0.08931365 -0.027307631 -0.043746132 -0.34257382 -0.8808221 0.05083144 0.07340703
0.2087169 -0.0017973377 0.35843208 -0.31251705 -0.00842231 0.013658643 -0.5418402 -0.6050346
-0.8379575 -0.32354516 -0.070033364 -0.17089282 -0.07216124 -0.37275437 0.48022148 -0.019465927
0.008363959 -0.0815431 0.18685374 -0.08189265 0.3708053 -0.25095925 -0.024314083 -0.9270443
0.09246141 -0.21575315 -0.19438559 0.17785737 -0.6380085 -0.67969126 -0.47240174 -0.31193855
-0.09121789 -0.048458777 0.13910097 -1.1880426 -0.36552238 0.015620834 -0.3101271 0.4056642
-0.1835482 0.012458874 -0.19752683 0.2912419 -0.8866207 0.17064142 -1.0908594 -0.4423928
0.20793664 -0.759303 -0.0873955 0.5562664 0.08737099 1.5093601 0.05964323 -0.38238066
-0.08752532 0.1457052 0.02619034 -0.28396395 -0.49656546 0.10342611 -0.012868415 0.071548715
0.15872195 -0.42595398 -0.14917848 -0.5097 0.4149653 0.011429937 -0.49941006 -0.1332545
-0.8243557 -0.2900544 -0.7524877 0.61275893 -0.041121166 0.37829253 0.3212868 -0.008958679
-0.28632477 0.5566184 -0.52667415 -0.28683922 -0.680731 -0.3591934 -0.7696545 -0.69910765
-0.29993004 -0.20939998 -0.64097834 -1.4993702 -0.45076817 -0.33074796 -0.99149674 0.09064914
0.05805022 -0.008919165 -0.53248864 -0.065281525 -0.18753672 -0.048968606 -0.3770345 -0.108936876
-0.32460722 0.030985355 -0.14162454 -0.23129699 0.23155484 -0.81951344 0.16813186 0.2726434
-1.0969431 -0.98658043 0.1473989 0.7417494 0.122681156 0.049438003 0.052313283 -0.44520047
-0.2503466 -0.22219436 -0.117903255 0.29405612 -0.8548248 -0.7955414 0.0889799 -0.11155954
-1.0011569 -0.64680594 -0.33450228 -0.7717432 -0.78345466 -0.0065635415 -0.47388333 -0.8088088
-0.1701966 0.2100605 0.0876671 0.3397703 0.015899716 0.042372223 0.10311895 0.027276991
-0.76807904 -0.13173889 -0.93602896 0.6936581 0.06150271 -0.037297584 -0.23572959 -0.29429826
0.0048166914 -0.8670989 -0.34666187 0.001608877 0.07198382 -0.11043167 0.20045246 -0.6937911
-0.025173686 -0.048205614 -0.55369985 0.0128025375 -0.49527138 -0.11430152 -0.119108476 -0.9024899
-0.030931242 -0.0027578673 -0.5343693 0.6869772 -0.09279367 -0.34244534 -0.4989229 0.029706834
-0.3370489 0.011230996 0.38901153 -1.7696704 0.11936921 0.38789725 0.118876606 -0.60488427
-0.735118 -0.07854271 -0.013287357 0.61825967 -0.06802659 0.06788424 -0.09356098 -0.03214918
0.3929492 -0.5287085 -0.20296112 -0.051402897 0.22935767 -0.07526902 -0.25362468 -0.007550402
0.04804356 -1.2812002 -0.8960403 0.08899423 -0.04982414 0.3901624 0.3604383 -0.07952071
0.35963863 -0.5035943 -0.03334609 -0.19373076 -0.9609417 -0.45183748 0.061586414 0.06999196
0.5697541 -0.42331553 -0.40992057 -0.11491964 -0.64911175 -0.77309656 0.020661157 -0.55313504
-0.057051077 0.072725594 -0.47485915 -0.29843265 0.24943134 -0.10200203 -0.69575506 0.41434354
-1.0559672 -0.04025853 -0.6408018 0.23896846 0.31177542 -0.72638035 -0.16695517 -0.889541
-0.35078838 -0.2045166 -1.0709966 0.5949411 0.04247374 -0.035545163 -0.040070612 -0.15895592

fc3.bias f4 [4]
00000000: 114e 53be f2b0 e53d a948 a33d 4368 4b3d
-0.20635249 0.1121539 0.07972843 0.04965998

exp_avg f4 [64, 24]
00000000: 3829 82bd ed17 31bf c387 df3e 332b b9bd
00000010: 992c 75bf d0e1 5c3c 1303 9c3c 621a 043f
00000020: b879 30bf 306d e03d d95d 98bd 7fc6 c83c
00000030: 710d f0be 27b4 5bbe c570 17bf 8e66 8f3d
00000040: afe3 413d ff38 853d 97fe 1ebf f4aa 8a3e
00000050: 8cf9 663d 1cc3 92be 3644 e6be c89b f0be
00000060: cc42 cdbe 75da f0bf e4ae 6b3e 7eac 3ebe
00000070: e74b 35c0 7f48 37bb 4837 06be 035f 3a3f
00000080: 8259 35c0 7f3a f4be 0bc9 b9bb 9b12 06bc
00000090: 4cb6 dfbf 0579 dfbf ee00 15c0 2874 d13c
000000a0: ae0c d93d eef2 2bbd c70c 0dc0 ebf5 e2be
000000b0: 265c 073e a866 03bf 8e05 b5bf 4b48 1bc0
000000c0: aa80 0a3e 8eb6 1940 91e6 c5bd 7c56 bc3d
000000d0: afc3 4540 499a 5d3b e50a e03d 51a5 2bbf
000000e0: 7ca8 5540 f612 2d3f 069a 743d af0b 123d
000000f0: 8965 e13f 320d e33f 3106 1740 4631 8a3e
00000100: 7f5b 07be 1bde 0e3d 9722 1040 6c33 223f
00000110: ccd6 fcbe 8009 413f 6bbb d13f b6c5 3e40
00000120: 4f0b 9cbe 0899 09be f08d 6fbf d616 70be
00000130: dc13 11bf 939c 81bd bad9 09bc b990 78bf
00000140: 4638 82bf f2ed 7bbf e52b f8bd 0549 cabb
00000150: 1bef febe 9ce7 9bbf bb2b 17bf 520f bcbd
00000160: 5781 b5bd bca1 56bf 573e 70bf 7e3a 92bf
00000170: fb76 77bc c6f5 4dbd b49a cdbe eefd a6bf
00000180: d62b 71be 2139 923f 17bd 96bc e698 9c3e
00000190: a13c d33f b5aa 11bd b337 56bd 827a bcbe
000001a0: 77c1 c83f c3a6 8fbd 9b6b 9e3d eb7f fd3b
000001b0: 1ef5 963f 433e d33e 55b0 913f 603e a73d
000001c0: 23ba f3bc d799 893b 4301 8e3f d40a e13e
000001d0: 1b62 cdba b12f a93e 8f0e da3e 8645 ae3f
000001e0: 0000 0000 0000 0000 0400 0000 0000 0000
000001f0: 0000 0000 0000 0000 0400 0000 0000 0000
00000200: 0400 0000 0000 0000 0000 0000 0000 0000
00000210: 0400 0000 0400 0000 0000 0000 0000 0000
00000220: 0000 0000 0400 0000 0400 0000 0400 0000
00000230: 0000 0000 0000 0000 0000 0000 0400 0000
00000240: 2fa3 08bd 7e85 23bf 7e8b ae3e f2e4 fabd
00000250: 0740 53bf 2a51 013c 2770 b23c 6001 af3e
00000260: a17d 28bf 3489 073e b84f 84bd a865 b5bb
00000270: 1d14 04bf 7195 7dbe f6bd 45bf c7c9 203d
00000280: 8149 a43d 6206 4c3e fd91 35bf 1153 fa3e
00000290: bfe3 7f16 2450 9bbe 08a8 23bf 67db 22bf
000002a0: 5ee9 c8be 9db5 afbf 9753 413e 6acc 81bd
000002b0: f7c6 05c0 6546 a93a 786d 1abe 089e 193f
000002c0: 1c46 12c0 2785 2fbf 27fd 4f3e 1daf 753c
000002d0: b70a 96bf 95be c8bf db50 05c0 e94c 12bd
000002e0: 1c5d 043e d418 b33e 9576 f8bf 1e16 1abe
000002f0: d19d 363e d465 1bbf 55c0 87bf 4a2d 08c0
00000300: 8ea2 b23e c5b6 cf3d 08ee d03e 5590 553d
00000310: 3b52 933e 53a5 4e3c 3874 b139 4a1e 1c3f
00000320: 39da 1a3f c39c 473f f3ca 1dbc 98c3 503d
00000330: ca32 b73d db24 6b3f 445f da3e 12d3 433c
00000340: db48 4d3d 5c09 d83e a957 1b3f aa94 3d3f
00000350: e7d1 3c3e 7598 a6bd a210 893d 6179 3f3f
00000360: 59a7 673e 8b19 a03e 2ff8 3a3e 7adb 3f3e
00000370: e5eb 12be f88b 2f3c 9cd1 883d 1e8e 793f
00000380: a20b 0b3f 66ef 763f 5dc7 023d 8a33 1e3d
00000390: 3f4e 01be fe5b dc3e 29c8 8b3f 695d 593d
000003a0: 453f 0d3c 73be 7abe 71f3 413f e0b9 883e
000003b0: 2eb6 76bd a3fe 2f3e 50ba 073f ab73 773f
000003c0: 4e8d 92bb 8d1b 7ebf a863 163d 727d ecbe
000003d0: 00ac e9bf b026 a33c d749 a3bd c01d ed3e
000003e0: 091b c7bf 5b50 05be afe7 b0bd 5d74 8c3c
000003f0: dd85 9cbf dea3 5bbf 5e13 d2bf e5bf 90bd
-0.06355518 -0.6917713 0.43658265 -0.09041443 -0.95771176 0.013481572 0.019044435 0.51602757
-0.6893573 0.10958326 -0.07439775 0.024508713 -0.46885255 -0.21455441 -0.5915645 0.07001983
0.047336277 0.06505012 -0.62107223 0.27083552 0.05639033 -0.28664482 -0.44973916 -0.46993852
-0.40090024 -1.8816668 0.23015934 -0.18620488 -2.8327577 -0.0027966795 -0.13107026 0.72801226
-2.8335881 -0.4770088 -0.005669718 -0.008183147 -1.7477508 -1.7458807 -2.3281817 0.025568083
0.105981216 -0.041979723 -2.2039049 -0.44328246 0.13218746 -0.51328516 -1.414232 -2.4262874
0.13525644 2.4017673 -0.09663118 0.09196183 3.0900686 0.0033813885 0.10939578 -0.6704913
3.3384085 0.6760706 0.0597172 0.035655674 1.7609111 1.7738402 2.359753 0.26990718
-0.13218497 0.034879785 2.2521112 0.63359714 -0.49382627 0.7540512 1.638532 2.9808173
-0.30477378 -0.13437283 -0.93575954 -0.23446211 -0.5667093 -0.06328692 -0.008413726 -0.9709583
-1.0173423 -0.9840995 -0.12117747 -0.0061732554 -0.49791798 -1.2180057 -0.590511 -0.091826096
-0.0886256 -0.8384054 -0.93845123 -1.14241 -0.015104051 -0.050283216 -0.40157092 -1.3046243
-0.23551878 1.1423684 -0.018400712 0.30585402 1.6502877 -0.03556319 -0.052299213 -0.36812216
1.5684041 -0.07014229 0.07735368 0.0077361963 1.1793554 0.4125844 1.1381937 0.08166194
-0.029751843 0.0041992473 1.1094135 0.43953574 -0.0015669496 0.33044198 0.42589232 1.3614967
0.0 0.0 6e-45 0.0 0.0 0.0 6e-45 0.0
6e-45 0.0 0.0 0.0 6e-45 6e-45 0.0 0.0
0.0 6e-45 6e-45 6e-45 0.0 0.0 0.0 6e-45
-0.03335875 -0.6387557 0.340908 -0.12250699 -0.8251957 0.007892886 0.021781994 0.34180737
-0.65816694 0.13235933 -0.06460518 -0.0055358 -0.5159319 -0.24764039 -0.7724298 0.03925493
0.08021832 0.1992431 -0.70925885 0.488915 2.06706e-25 -0.3033458 -0.6392827 -0.6361603
-0.39240545 -1.3727299 0.18879543 -0.06337817 -2.0902689 0.0012914656 -0.15080822 0.6000676
-2.2855291 -0.6856255 0.20311414 0.014995364 -1.172202 -1.5683161 -2.08306 -0.03571788
0.12926143 0.3497988 -1.9411188 -0.150475 0.1783364 -0.6070225 -1.060557 -2.1277642
0.34889644 0.101422824 0.40806603 0.0521396 0.28773674 0.012612659 0.0003384666 0.6098372
0.6048923 0.77973574 -0.009630906 0.050967783 0.08945234 0.9185311 0.42650807 0.011952179
0.05011831 0.4219464 0.60680634 0.7405497 0.18439446 -0.081345476 0.066926256 0.74794585
0.22622432 0.31269488 0.18258737 0.18736067 -0.14347799 0.0107145235 0.06680605 0.9748248
0.54314625 0.96459043 0.03192841 0.03862337 -0.12627505 0.43038934 1.0920459 0.0530676
0.008621042 -0.24486713 0.7576209 0.2670431 -0.060232334 0.1718698 0.53018665 0.9666087
-0.0044724112 -0.9926079 0.036716133 -0.46189457 -1.8255615 0.019915909 -0.07973068 0.4631176
-1.5555125 -0.13018934 -0.0863794 0.01714533 -1.2228352 -0.85796916 -1.641216 -0.07067851
