models/sess15000-max45-sm0.pth (torch, 106169 bytes, 24 tensors)

fc1.weight f4 [64, 24]
0	0xbf032f98	-0.512445
1	0xbe333a72	-0.17502764
2	0x3f80e2f7	1.0069264
3	0x3ee0f23d	0.43934813
4	0xbe9de16d	-0.3083605
5	0x3dc036a6	0.09385423
6	0x3e8814f7	0.26578495
7	0x3ece1659	0.40251425
8	0x3eda75f7	0.42668125
9	0xbdc273b7	-0.09494727
10	0x3eb8021b	0.35939106
11	0x3ec99ce3	0.39377508
12	0x3e944974	0.2896229
13	0x3ebdf5bc	0.37101543
14	0xbe0961a5	-0.13416155
15	0x3f34a910	0.7057047
16	0x3e329420	0.17439318
17	0x3e53d03a	0.20684901
18	0xbf229507	-0.6350865
19	0xbe6ef0d7	-0.2333406
20	0x3f5cb432	0.86212456
21	0xbcafa296	-0.021439832
22	0x3e885bf9	0.2663267
23	0xbf55f6d2	-0.8357974
24	0xbd91f873	-0.07127466
25	0xbd284840	-0.041084528
26	0xbd8987f9	-0.06715388
27	0x3dd58b44	0.104269534
28	0xbc8cca8f	-0.017186431
29	0x3da9bffe	0.08288573
30	0x3d71b772	0.059012838
31	0x3d4aa37f	0.04947233
32	0xbe2e8792	-0.17043903
33	0x3cb49968	0.022045806
34	0x3ddab44c	0.1067892
35	0x3be72488	0.0070539154
36	0xbd88872f	-0.06666409
37	0xbd457781	-0.04820967
38	0xbe4c9e12	-0.19982174
39	0xbda59491	-0.080849774
40	0xbe0f30a1	-0.13983394
41	0xbd4d913f	-0.050187346
42	0xbe81bec4	-0.25340855
43	0x3d047c2b	0.03234498
44	0xbdcb0dfa	-0.09914775
45	0xbdd1bde0	-0.10241294
46	0xbdb15cda	-0.08660288
47	0xbe370988	-0.1787473
48	0xbef69206	-0.48158282
49	0x3f2a761e	0.6658648
50	0xbf0848b0	-0.5323591
51	0xbe12454d	-0.14284249
52	0xbee98822	-0.45611674
53	0xbe538f01	-0.2066002
54	0xbe1df5d0	-0.15425801
55	0x3e73bd76	0.23802742
56	0x3ed15135	0.4088227
57	0x3d184f8b	0.037185233
58	0xbf4e0013	-0.80468863
59	0xbe80e42a	-0.25174075
60	0xbcbb77a8	-0.022884205
61	0x3f4d9551	0.80305964
62	0xbf21353a	-0.6297184
63	0x3f14df17	0.5815291
64	0x3e196735	0.14980777
65	0x3e0cd1e8	0.13751948
66	0x3da16575	0.078806795
67	0xbf11ce19	-0.56955105
68	0xbea292cf	-0.3175263
69	0x3e7b48be	0.24539468
70	0xbd373aed	-0.04473393
71	0xbe8a84c6	-0.27054423
72	0xbf2bfc08	-0.67181444
73	0xbe3a9b99	-0.18223418
74	0x3f23e724	0.6402457
75	0xbeef9ea9	-0.46800736
76	0xbdb3be29	-0.087765045
77	0xbef440ff	-0.47705838
78	0x3ee55bd7	0.4479663
79	0x3e387e9a	0.18017045
80	0x3eaaa790	0.33330965
81	0xbd3956d0	-0.045248806
82	0xbfdffa41	-1.7498246
83	0xbf117dd8	-0.5683265
84	0x3daddfe9	0.08489973
85	0x3f777da0	0.96676064
86	0xbf89d9a6	-1.0769546
87	0x3ef24c5b	0.4732388
88	0x3d1dd117	0.03852948
89	0x3e461b79	0.19346417
90	0xbf4ab143	-0.7917673
91	0xbd9e021c	-0.07715246
92	0x3e74d884	0.23910719
93	0x3eca622f	0.39528033
94	0xbd8f3ed0	-0.069944024
95	0xbe7246b2	-0.2365978
96	0xbe2cea33	-0.16886215
97	0x3e2416f0	0.16024375
98	0x3d6b83e6	0.057498835
99	0xbd10f300	-0.035387993
100	0xbeea21d8	-0.45728946
101	0x3faba400	1.3409424
102	0xbe61a0b8	-0.22033966
103	0xbe036907	-0.12833034
104	0x3ec7c756	0.3901927
105	0xbcdd67bf	-0.027027009
106	0x3f78bae6	0.97160184
107	0xbef4446d	-0.47708455
108	0xbe8de4f2	-0.27713734
109	0x3f21adb2	0.63155663
110	0xbe925b28	-0.28585172
111	0x3e3ac197	0.18237911
112	0x3e38b8a2	0.18039182
113	0x3d664e41	0.056226972
114	0xbddde340	-0.1083436
115	0xbeab0d7a	-0.3340872
116	0x3e211e38	0.15734184
117	0x3dbd7df5	0.0925254
118	0x3d7fdf7a	0.062468983
119	0xbef6693c	-0.48127162
120	0xbf5a0abe	-0.8517264
121	0x3c382123	0.011238369
122	0x3e4681c1	0.19385435
123	0x3dc0c67a	0.094128564
124	0x3ed9f8bb	0.4257258
125	0xbe1896c9	-0.1490127
126	0xbd8adf7b	-0.06780907
127	0x3d293cb4	0.041317657
128	0x3ef785f1	0.48344377
129	0xbe8177d3	-0.2528673
130	0x3f043e17	0.5165724
131	0x3f500df4	0.8127129
132	0x3ddd9f4c	0.10821399
133	0xbf95ca0d	-1.1702286
134	0xbc4ef5a7	-0.01263181
135	0x3c03ef14	0.008052606
136	0x3e3909ba	0.18070117
137	0x3ea61129	0.32434967
138	0x3ddb66e1	0.10712982
139	0x3e294b4a	0.16532627
140	0x3e1e816e	0.15479061
141	0x3e978b72	0.29598576
142	0x3ebf339e	0.37344068
143	0x3e2e9823	0.17050223
144	0xbec9a79e	-0.39385694
145	0xbe996d03	-0.29965982
146	0xbd4404af	-0.04785603
147	0xbeae9515	-0.34098116
148	0xbc5eaae0	-0.013590544
149	0xbf00631a	-0.50151217
150	0xbef1c121	-0.47217658
151	0xbd9b205d	-0.07574532
152	0x3ee66145	0.44996086
153	0x3d391152	0.045182534
154	0xbf17eea1	-0.59348494
155	0xbeff3402	-0.49844366
156	0xbef883dc	-0.485381
157	0x3f0958b4	0.53650975
158	0x3e5b54c7	0.21419059
159	0xbf968bbc	-1.1761394
160	0xbef783e9	-0.48342827
161	0xbf4591d2	-0.7717563
162	0x3f4aa721	0.7916127
163	0x3e0f21fc	0.13977808
164	0xbf907fc8	-1.1288996
165	0xbf00d057	-0.503179
166	0xbf3029df	-0.6881389
167	0x3e6530a9	0.22381844
168	0xbd6ca17e	-0.0577712
169	0x3d838236	0.0642132
170	0xbe2bf12b	-0.16791217
171	0x3e130d8f	0.14360641
172	0xbd7ebf5f	-0.062194224
173	0xbe383e7a	-0.17992583
174	0xbe42632f	-0.18983148
175	0xbd626dbf	-0.055280443
176	0xbe47936c	-0.1948983
177	0xbe462968	-0.19351733
178	0xbdca38dc	-0.09874126
179	0xbdb7b48f	-0.08969986
180	0xbe05b7c4	-0.13058382
181	0x3e0a35b8	0.13497055
182	0xbe37bb86	-0.17942628
183	0xbe06799f	-0.13132332
184	0xbe1fe39f	-0.15614174
185	0x3cda2f83	0.026633983
186	0xbe45d5e0	-0.19319868
187	0xbdf63b2c	-0.12023005
188	0xbdc9a053	-0.098450325
189	0x3d80a990	0.062823415
190	0xbcddbc53	-0.027067339
191	0x3df19a58	0.11797017
192	0x3f13eae7	0.5778031
193	0xbda24652	-0.07923569
194	0xbe36a9a2	-0.17838147
195	0x3eca886f	0.39557216
196	0x3dd68233	0.10474052
197	0x3daa0225	0.0830119
198	0x3e802b8d	0.25033227
199	0xbe1bc1d0	-0.15210652
200	0xbf20deee	-0.62840164
201	0xbdd83396	-0.10556714
202	0x3f2a141b	0.6643693
203	0x3e5a8113	0.213383
204	0x3d1c9681	0.03822947
205	0xbf1c4b3b	-0.6105229
206	0x3e0e6985	0.1390744
207	0x3ee4b3b0	0.4466834
208	0xbc311ab7	-0.010809592
209	0x3da8a4e2	0.08234574
210	0x3ec7ad64	0.38999474
211	0xbd7c1416	-0.061542593
212	0x3eaa22d7	0.33229706
213	0x3e33e756	0.17568716
214	0x3e16f3a6	0.14741382
215	0x3f51be60	0.81931114
216	0x3d81f33a	0.0634522
217	0xbdad732f	-0.08469235
218	0xbead6a2a	-0.3387006
219	0xbe825700	-0.25457
220	0x3c11070c	0.008851778
221	0xbf941871	-1.1569959
222	0xbf79a630	-0.97519207
223	0xbd43f138	-0.047837466
224	0x3f6c1fb3	0.9223587
225	0xbe9a87a3	-0.30181608
226	0xbf993d1d	-1.1971775
227	0xbcbac22e	-0.02279767
228	0xbe28c014	-0.16479522
229	0x3f40f722	0.75377095
230	0xbf535425	-0.8255027
231	0x3c767085	0.015041475
232	0x3b3720a5	0.0027943042
233	0x3dbac3e1	0.09119392
234	0xbd1ac0ad	-0.037781406
235	0xbe83e776	-0.25762528
236	0xbee3c90c	-0.44489324
237	0xbe0b3581	-0.13594629
238	0xbedef13d	-0.43543425
239	0x3ced3488	0.028955713
240	0xbec7584d	-0.38934556
241	0xbe621dd2	-0.22081688
242	0xbe8b000b	-0.2714847
243	0xbe979221	-0.29603675
244	0xbf02d792	-0.51110184
245	0xbd01403c	-0.0315554
246	0xbe662549	-0.2247516
247	0xbe6b231c	-0.22962612
248	0x3e93be5e	0.28856176
249	0xbef5f02b	-0.48034796
250	0xbf1518ef	-0.5824117
251	0xbe9eb3a0	-0.30996418
252	0xbedb6a28	-0.42854428
253	0x3e835931	0.25653985
254	0xbe75861b	-0.23976938
255	0xbe72258d	-0.23647137

fc1.bias f4 [64]
0	0x3ebe1db6	0.37132043
1	0xbe7c46a1	-0.24636318
2	0xbd02cf71	-0.031936113
3	0xbe04c201	-0.12964632
4	0xbdfaea6d	-0.122517444
5	0x3ed54762	0.41656023
6	0xbeb1c2fd	-0.34719077
7	0xbe0baeb3	-0.13640861
8	0x3eb72460	0.3576994
9	0xbeb8334d	-0.3597664
10	0xbea3c5fa	-0.31986982
11	0xbe363287	-0.17792712
12	0xbf02665a	-0.50937426
13	0xbe1b90eb	-0.15192
14	0xbeb185e2	-0.34672457
15	0xbdf0e996	-0.11763303
16	0xbdd9df07	-0.10638242
17	0xbe4585f7	-0.19289385
18	0xbeaba37c	-0.33523166
19	0xbe52989d	-0.2056603
20	0xbea297f4	-0.31756556
21	0xbf10cbe3	-0.56561106
22	0x3e8ac9a7	0.27106974
23	0xbe4cf6c2	-0.20016006
24	0x3e83d7d5	0.25750604
25	0xbecf36fd	-0.4047164
26	0xbeb653c9	-0.35610798
27	0xbec958a9	-0.39325455
28	0xbf0012bf	-0.50028604
29	0xbe8d412b	-0.27588782
30	0x3d46ef4c	0.048568055
31	0xbe253179	-0.16132154
32	0xbd6e6001	-0.058197025
33	0x3d21a5a2	0.0394646
34	0xbe8abfaf	-0.27099368
35	0xbf106e1b	-0.5641801
36	0xbeaed9b4	-0.3415047
37	0xbe21a53c	-0.15785688
38	0xbe4295fe	-0.1900253
39	0xbce84ce4	-0.028356977
40	0xbe2ce8b6	-0.16885647
41	0xbeacdade	-0.33760732
42	0xbdd3672b	-0.10322412
43	0xbea86df4	-0.32896388
44	0xbe5279a4	-0.20554215
45	0x3e0cd26d	0.13752146
46	0xbdede7cc	-0.11616477
47	0xbe9f23d5	-0.31082025
48	0xbe8734fb	-0.26407608
49	0xbeab88e4	-0.33502877
50	0xbe93dd8c	-0.28879964
51	0x3b433e04	0.0029791603
52	0xbde94adb	-0.11391231
53	0xbea3b4b1	-0.31973794
54	0xbee38b07	-0.44442007
55	0xbe32ad9f	-0.17449044
56	0xbdb9805c	-0.09057686
57	0xbe9e3d5e	-0.30906194
58	0xbe5b51d6	-0.21417937
59	0xbd9c4fce	-0.07632409
60	0xbe69a36a	-0.22816244
61	0xbe5c6ed5	-0.21526654
62	0xbe3bf6c2	-0.1835585
63	0x3de8c991	0.11366571

fc2.weight f4 [64, 64]
0	0x3e98ce00	0.29844666
1	0x3da0d924	0.07853916
2	0x3f547b2f	0.83000463
3	0x3eb86259	0.36012533
4	0x3dcad291	0.099034436
5	0x3ea7ce3c	0.32774532
6	0x3e50c1e1	0.20386459
7	0x3db7f630	0.089825034
8	0x3e097ee5	0.13427313
9	0x3f3bc198	0.73342276
10	0x3edae481	0.4275246
11	0x3ec9a9bf	0.39387318
12	0x3f495511	0.78645426
13	0x3f1693e6	0.58819425
14	0x3d8171e8	0.06320554
15	0x3e3a5450	0.18196225
16	0x3fd258ab	1.6433309
17	0xbddbcb48	-0.10732132
18	0x3d44a9b1	0.048013393
19	0xbe8bed18	-0.27329326
20	0x3f5d3a75	0.86417323
21	0x3e3f3b1c	0.18674892
22	0xbefb707d	-0.4910926
23	0xbde1393b	-0.10997244
24	0xbeded7fd	-0.4352416
25	0xbe9332c2	-0.28749663
26	0x3fb2422b	1.3926443
27	0x3f3cd212	0.7375804
28	0x3e5cab9f	0.21549843
29	0xbeb88b1a	-0.36043626
30	0x3e617832	0.22018507
31	0x3f1a6c1a	0.603212
32	0xbf081b1f	-0.53166384
33	0x3d324461	0.043522242
34	0x3fb4762a	1.4098561
35	0x3eb8f370	0.36123228
36	0xbdb0aa86	-0.08626275
37	0x3ed1ed1b	0.4100121
38	0xbda34fef	-0.079742305
39	0x3e2c6c8a	0.1683828
40	0x3ea5944a	0.32339698
41	0x3d93a9cf	0.07210123
42	0x3ebca981	0.3684807
43	0x3f9d048c	1.2267013
44	0xbd8c4f72	-0.068510905
45	0xbea84889	-0.3286784
46	0x3de95e3e	0.113949284
47	0x3e5a7217	0.21332584
48	0x3d4ef211	0.05052382
49	0x3fec580f	1.8464373
50	0xbe582e2f	-0.21111368
51	0xbf87ad39	-1.0599738
52	0x3f298e96	0.66233194
53	0x3e002e24	0.12517601
54	0xbe4044a2	-0.18776181
55	0x3e626d40	0.22111988
56	0xbdf0eaad	-0.11763511
57	0xbe9890b0	-0.29797888
58	0x3facad28	1.3490343
59	0xbc4de200	-0.01256609
60	0xbe9c9fb3	-0.3059059
61	0x3e59dafb	0.2127494
62	0xbf1030c3	-0.56324404
63	0xc00ecfce	-2.2314334
64	0xbdbb0448	-0.09131676
65	0x3de8a0af	0.11358773
66	0x3e2cf996	0.16892084
67	0xbbb82aa1	-0.005620316
68	0xbf2cdc5b	-0.67523736
69	0x3dd1f8a8	0.102525055
70	0x3f4fe42a	0.81207526
71	0xbda1346c	-0.07871327
72	0xbd26824d	-0.04065161
73	0x3ee756a9	0.45183304
74	0x3ee86b1f	0.45394227
75	0xbe855151	-0.26038602
76	0x3fae8295	1.36336
77	0x3cdbc761	0.02682847
78	0x3e9e926c	0.30971086
79	0x3e66b8e8	0.22531474
80	0x3f0c9563	0.54915446
81	0x3f0e58e2	0.55604374
82	0x3f8354a2	1.0260203
83	0xbd2fba0f	-0.04290205
84	0x3ea239c8	0.3168471
85	0xbc9584a2	-0.01825172
86	0xbedcf280	-0.43153763
87	0x3ee65924	0.44989884
88	0x3e89bcd3	0.26901874
89	0x3fa213e9	1.2662326
90	0xbe5ef6a4	-0.21773773
91	0x3db75568	0.08951837
92	0x3f9afcc1	1.2108384
93	0x3cb0deea	0.021590669
94	0x3e01f95f	0.12692784
95	0x3e9e8fd3	0.30969104
96	0x3f0a6e02	0.5407411
97	0x3c879c75	0.016554097
98	0x3f18c1a0	0.5967045
99	0x3d98b9c3	0.07457306
100	0x3f2665ac	0.6499889
101	0x3f365520	0.7122364
102	0x3e889781	0.26678088
103	0x3e900d1c	0.28135002
104	0x3e146307	0.14490901
105	0x3db023d8	0.08600587
106	0x3c290495	0.010316034
107	0x3ea95321	0.33071235
108	0xbdd1a05f	-0.102356665
109	0x3e8a6412	0.27029473
110	0x3ea1a92a	0.31574374
111	0x3f901967	1.1257752
112	0x3f6dd338	0.9290042
113	0x3f5760ae	0.84131896
114	0x3e5d8855	0.21634038
115	0x3de59b9c	0.11211321
116	0xbe86ad74	-0.2630421
117	0x3f26e7c4	0.65197396
118	0x3e684016	0.22680697
119	0xbdc917eb	-0.09819015
120	0x3ef1dfc1	0.47241023
121	0x3f1a6e08	0.60324144
122	0x3cc4fab5	0.024045328
123	0x3fc64156	1.5488689
124	0x3e4a15e0	0.19734907
125	0x3f3941e6	0.7236618
126	0x3dd33eac	0.10314688
127	0xbe85f053	-0.26159915
128	0x3dd9c0da	0.10632487
129	0xbd6c988a	-0.05776266
130	0x3e072e76	0.13201317
131	0x3e6e0cee	0.2324712
132	0xbf03c130	-0.51466656
133	0x3d4aafe6	0.049484156
134	0x3f084b2e	0.53239715
135	0xbd9341b0	-0.07190263
136	0x3da7df7d	0.08196924
137	0x3efb34a6	0.49063605
138	0x3ef7aa7a	0.4837225
139	0xbe29b083	-0.1657124
140	0x3f6f7878	0.93543196
141	0x3cf17bcb	0.029477974
142	0x3e5466bf	0.2074232
143	0x3e3ebc18	0.1862644
144	0x3f5aab3d	0.8541754
145	0x3df2bb07	0.11852079
146	0x3f52637c	0.8218305
147	0x3e1571c6	0.14594182
148	0x3ec8af30	0.39196157
149	0x3d268179	0.04065082
150	0xbe53e8cb	-0.20694272
151	0x3eb94312	0.36183983
152	0x3e7938e9	0.24338116
153	0x3f5dc3c9	0.8662687
154	0x3cc062d8	0.023484632
155	0x3dc88ff8	0.09793085
156	0x3f76e51c	0.96443343
157	0x3dd7f44c	0.10544643
158	0x3e7dc101	0.24780656
159	0x3f1353f2	0.57549965
160	0x3f040cf3	0.5158226
161	0xbd6819c3	-0.056665193
162	0x3f0c2cdc	0.5475595
163	0x3dc2fe25	0.095211305
164	0x3f11e88c	0.56995463
165	0x3f088d6f	0.5334081
166	0x3e34becc	0.17650908
167	0x3e9010a6	0.28137702
168	0x3eda0f9f	0.42590043
169	0xbd589f76	-0.05288645
170	0xbd2ebf5e	-0.04266297
171	0x3ef1205a	0.47094995
172	0xbc405968	-0.011740066
173	0x3ec8e29f	0.39235398
174	0x3ec7f807	0.39056417
175	0x3f73f47d	0.95294935
176	0x3f206808	0.6265874
177	0x3fc8d6b4	1.5690522
178	0x3df546ee	0.119764194
179	0xbdd4fd00	-0.103998184
180	0xbe7d112d	-0.24713583
181	0x3f1d3a8c	0.6141746
182	0xbbce1237	-0.0062887925
183	0xbe358d61	-0.17729713
184	0x3edb5dcb	0.42844996
185	0x3ea098da	0.31366616
186	0x3ed94d79	0.4244192
187	0x3fa7812e	1.3086298
188	0xbc48ef4a	-0.012264082
189	0x3f516202	0.81790173
190	0xbe5364eb	-0.20643966
191	0xbebc43e4	-0.36770546
192	0x3d9a053c	0.0752053
193	0x3d37f05d	0.044906963
194	0xbf480c60	-0.7814388
195	0xbe89bc8a	-0.26901656
196	0x3f441f5c	0.7661035
197	0x3e3f0add	0.18656488
198	0x3f127b6d	0.5721958
199	0x3dc371b0	0.095431685
200	0x3e5870b1	0.21136738
201	0xbefa8ee1	-0.48937133
202	0x3ecd5ad6	0.40108365
203	0x3e6abb7a	0.22923079
204	0x3fd173df	1.6363486
205	0x3e951c83	0.29123315
206	0xbe1d07d5	-0.15335019
207	0xbeb927ee	-0.36163276
208	0xbbdc1b28	-0.0067171045
209	0x3e83199f	0.25605485
210	0x3f9a669c	1.2062564
211	0x3e454e4b	0.19268148
212	0x3e9ee26f	0.3103213
213	0xbd5bce0e	-0.053663306
214	0x3f0cf6b1	0.5506392
215	0x3baf0bbe	0.005341976
216	0x3f0c32fd	0.547653
217	0x3f600a60	0.8751583
218	0x3ec3c351	0.38234952
219	0x3e99ed7d	0.30064002
220	0x3f7d2095	0.9887784
221	0x3ec5eed3	0.3865877
222	0x3eda6777	0.42657062
223	0xbe7e6ee6	-0.24846992
224	0xbf40717b	-0.7517316
225	0x3da3e239	0.08002133
226	0x3f40fe6e	0.7538823
227	0xbe447dc5	-0.19188602
228	0x3e683f43	0.22680382
229	0x3f65f4ee	0.8982686
230	0x3f1044eb	0.5635516
231	0x3eb2ab32	0.34896237
232	0xbf74f109	-0.9568029
233	0xbb8245e5	-0.0039756172
234	0x3e86a192	0.26295143
235	0x3e25d362	0.16193917
236	0xbd756b77	-0.05991694
237	0x3e9fc5f7	0.31205723
238	0x3ea3eca2	0.32016474
239	0x3fa2571b	1.2682832
240	0x3f8efe59	1.1171371
241	0xbf077d7a	-0.5292584
242	0xbe7e3dfb	-0.24828331
243	0x3dfc0853	0.12306275
244	0xbf01ec6a	-0.50751364
245	0xbea2bd65	-0.31785122
246	0x3f17fcf4	0.5937035
247	0xbc18bf47	-0.009322948
248	0x3f4cf388	0.800591
249	0x3e5300a1	0.20605709
250	0xbe8dc16d	-0.27686635
251	0xbfddb3d6	-1.7320507
252	0xbdfc49cd	-0.12318764
253	0x3cdb9b97	0.02680759
254	0x3d0f6a9a	0.035013773
255	0x3ee44719	0.44585493

fc2.bias f4 [64]
0	0x3ad6755d	0.0016361881
1	0xbd4ce150	-0.050019562
2	0x3d48def3	0.049040746
3	0x3df9aa60	0.121906996
4	0xbd427187	-0.04747155
5	0xbf028370	-0.5098181
6	0xbe93ea23	-0.2888957
7	0x3e4513b3	0.19245796
8	0xbeab5e44	-0.33470356
9	0xbca79ccc	-0.020460509
10	0x3c0ecd04	0.008715872
11	0xbdadd328	-0.084875405
12	0x3edaa7fc	0.42706287
13	0xbe36f217	-0.17865787
14	0xbeaf790b	-0.34272036
15	0xbe1c908f	-0.1528952
16	0x3da808e6	0.08204822
17	0x3e897fba	0.2685526
18	0xbe6d5919	-0.2317852
19	0x3ef26b27	0.47347376
20	0x3e56e4e0	0.20985746
21	0x3d45e3a0	0.048312783
22	0xbeda6b96	-0.42660207
23	0xbd9b4038	-0.07580608
24	0xbe35f49d	-0.17769094
25	0xbd6e29d4	-0.05814536
26	0xbc2768fd	-0.010217902
27	0xbd873f9e	-0.06603931
28	0x3dea96fd	0.1145458
29	0xbcc1ac7b	-0.023641815
30	0xbf0d2281	-0.55130774
31	0xbe4e96af	-0.20174669
32	0xbe718715	-0.23586686
33	0xbe8e6b40	-0.278162
34	0xbe03994f	-0.12851451
35	0x3eb757e5	0.35809246
36	0x3ee1a153	0.44068393
37	0xbd495035	-0.049148757
38	0x3de1549c	0.11002466
39	0x3f260de3	0.6486494
40	0xbe64f944	-0.22360712
41	0xbe1ebd36	-0.15501866
42	0xbd6d1362	-0.057879813
43	0xbe5ee040	-0.21765232
44	0x3c70ce7e	0.014697669
45	0xbe02e6f9	-0.12783422
46	0x3cff7d38	0.031187639
47	0xbec798a0	-0.3898363
48	0xbe36b930	-0.17844081
49	0x3ca5ace8	0.02022405
50	0xbd92cc05	-0.0716782
51	0xbe3137d6	-0.17306456
52	0x3f237a80	0.63858795
53	0xbe2d5c9a	-0.16929856
54	0x3e4a47f8	0.19754016
55	0xbd806a4f	-0.06270277
56	0xbddfbb42	-0.109243885
57	0xbcc7311a	-0.024315406
58	0x3daf7d86	0.085688636
59	0xbd470869	-0.048592005
60	0xbda6ec09	-0.08150489
61	0x3e3915fe	0.18074796
62	0xbd0dad04	-0.03458883
63	0xbf1f3314	-0.62187314

fc3.weight f4 [4, 64]
0	0x3ded4dc7	0.115871005
1	0xbed9b431	-0.42520288
2	0xbeaf7e29	-0.3427594
3	0xbf4f1899	-0.8089691
4	0xbd718aab	-0.058970135
5	0xbf020ad9	-0.507978
6	0xbe631d4a	-0.22179142
7	0x3e218efa	0.15777197
8	0xbfed01e2	-1.85162
9	0x3e562b90	0.20915055
10	0x3e128e3c	0.1431207
11	0x3d9eb0e0	0.0774858
12	0xbf1effc3	-0.6210901
13	0xbb9720d6	-0.0046120686
14	0xbd375e35	-0.044767577
15	0xbc6f3433	-0.014599848
16	0xbd2a2812	-0.04154212
17	0x3fb1bf0b	1.3886427
18	0xbe8677f9	-0.26263407
19	0x3eb8edb6	0.3611886
20	0xbebd7fee	-0.37011665
21	0x3d5b0ca4	0.053478852
22	0xbedf90bb	-0.43665108
23	0x3bcba775	0.006215031
24	0xbdba24b7	-0.09089034
25	0xbf5e300c	-0.86792064
26	0xbded9283	-0.116002105
27	0x3de86e26	0.11349134
28	0xbf0cbb4c	-0.5497329
29	0x3c6515ee	0.013982279
30	0x3e853f47	0.2602484
31	0x3d4f2817	0.050575342
32	0x3e252720	0.16128206
33	0xbf1c9362	-0.6116239
34	0x3d30f064	0.043198004
35	0xbee9433b	-0.45559105
36	0xbeab6012	-0.33471733
37	0x3d8eac07	0.06966405
38	0xbe5bbd19	-0.21458854
39	0x3f6e9e47	0.9321026
40	0x3e022c9a	0.12712327
41	0xbc388dbd	-0.011264262
42	0xbb7c9941	-0.0038543495
43	0xbd9008d2	-0.07032932
44	0xbf05ff97	-0.52343124
45	0xbc85210f	-0.016251115
46	0xbe7fc9c9	-0.24979319
47	0xbfca8244	-1.5821004
48	0xbe182bb9	-0.14860429
49	0x3c1c6d7a	0.009547586
50	0xbec1175c	-0.37713134
51	0xbe15fd1d	-0.14647336
52	0x3f926e8e	1.1439989
53	0xbe6a8f09	-0.22906126
54	0xbee99b7c	-0.45626438
55	0x3dcfb5c2	0.101420894
56	0x3d356abb	0.04429124
57	0x3e10ff51	0.14159895
58	0xbe8d8fc3	-0.27648744
59	0xbd95fd15	-0.07323662
60	0xbe681433	-0.22663955
61	0xbeb48e93	-0.35265025
62	0x3dbd1c01	0.09233857
63	0xc0394e59	-2.895407
64	0xbe0deb55	-0.13859303
65	0xbede5e90	-0.4343152
66	0xbe8f1986	-0.2794916
67	0xbed84e4e	-0.42247242
68	0x3d830467	0.06397324
69	0xc01b18d4	-2.4233904
70	0xbe07d900	-0.13266373
71	0x3e7e3132	0.24823454
72	0x3f9e0a55	1.2346903
73	0xbc4de393	-0.012566465
74	0xbdeef67a	-0.116681054
75	0xbd4e827a	-0.0504174
76	0x3f3f3606	0.7469181
77	0x3c03d740	0.008046925
78	0x3dfa9f85	0.12237457
79	0x3d91a346	0.0711122
80	0xbe0e89fa	-0.13919821
81	0x3e30b99f	0.17258309
82	0xbdba7566	-0.09104423
83	0x3f750968	0.9571748
84	0xbeb144f9	-0.34622934
85	0xbd9d33c5	-0.0767589
86	0xbfe89dc1	-1.8173143
87	0x3d819b1c	0.06328413
88	0xbd85c174	-0.06531039
89	0xbe827fb0	-0.25488043
90	0xbdc0ae23	-0.09408214
91	0x3d65aadd	0.05607115
92	0xbf431d66	-0.76216733
93	0xbe0012e7	-0.1250721
94	0xc02ee35c	-2.732627
95	0xbeab773f	-0.33489415
96	0x3d9925e1	0.07477928
97	0x3dd2f9df	0.103015654
98	0x3e0ede9e	0.13952109
99	0xbf03a577	-0.51424354
100	0x3efe708b	0.49695238
101	0x3dc3ef55	0.09567133
102	0xbea74364	-0.32668602
103	0x3e08b5df	0.13350628
104	0xbd1da31e	-0.03848564
105	0x3d20ddb0	0.039273918
106	0x3cf6b72a	0.030116636
107	0x3cd832f9	0.026391493
108	0xbef8f344	-0.48623097
109	0xbdab364a	-0.08359964
110	0xbebdf695	-0.3710219
111	0x3f451822	0.7698995
112	0xbd2ee5a0	-0.042699456
113	0xbdd7eb03	-0.10542872
114	0xbd8e217e	-0.06939982
115	0x3dfb6e72	0.12276925
116	0x3f0091df	0.5022258
117	0x3e1b15e1	0.15145065
118	0xbec047b7	-0.37554714
119	0x3edb680e	0.42852825
120	0x3de4356f	0.11143004
121	0xbe7b94dd	-0.24568506
122	0xbe20b66c	-0.15694588
123	0x3d2c40a7	0.042053845
124	0xbe1d912f	-0.15387414
125	0xbee88dcd	-0.45420685
126	0x3d2c51cd	0.0420702
127	0xbdd3c51e	-0.103403315
128	0xbfb86956	-1.4407146
129	0xbea41d4f	-0.3205361
130	0xbee6c4d9	-0.45072058
131	0x3e41c3ae	0.18922302
132	0x3d743340	0.05961919
133	0xbcac770b	-0.021052858
134	0x3cc4ecf2	0.024038766
135	0xbf89a7f4	-1.075438
136	0xbe55f487	-0.20894061
137	0x3d0e776e	0.034781866
138	0xbfb0d356	-1.3814495
139	0x3d8e502a	0.06948884
140	0x3c278e05	0.010226731
141	0x3d8a78c9	0.06761319
142	0xbf4fe3e5	-0.81207114
143	0x3d0cab19	0.03434286
144	0xbfcf7e37	-1.6210393
145	0x3e65d7ae	0.22445557
146	0xbdb3fc04	-0.087883025
147	0xbf498f2d	-0.78734094
148	0xbeedd4bf	-0.46451375
149	0x3f4fbf48	0.8115125
150	0xbf23ad5f	-0.6393642
151	0x3e873efc	0.2641524
152	0xbef20863	-0.47272024
153	0xbecdd66e	-0.4020266
154	0xbd54005e	-0.051758163
155	0x3e152fd5	0.14569028
156	0x3eff85d3	0.49906787
157	0xbf8c4ba3	-1.0960582
158	0x3e9e0e1f	0.3087015
159	0xbf63b0f8	-0.8894191
160	0xbf46d08e	-0.7766198
161	0x3eeb6430	0.45974874
162	0xbd34bf44	-0.044127718
163	0x3d5434d7	0.051808205
164	0xbebdc9c4	-0.37067997
165	0x3bd292b8	0.0064261816
166	0xbf1235fc	-0.57113624
167	0xbec56329	-0.38552216
168	0xbf2a63d8	-0.665586
169	0xbdc0f576	-0.09421818
170	0xbfa3e1fc	-1.280334
171	0x3d833006	0.06405644
172	0xbe2cb76e	-0.16866848
173	0xbee835f4	-0.45353663
174	0xbee92545	-0.45536247
175	0x3e72142e	0.2364051
176	0xbf24c4e0	-0.6436291
177	0xbfaf6dda	-1.3705399
178	0xbf0e420f	-0.5556955
179	0xbf3c517b	-0.7356183
180	0xbdfe607e	-0.12420748
181	0xbf37ceb9	-0.7179981
182	0xbf0bf6ac	-0.54673266
183	0xc00f9d28	-2.243967
184	0xbf0542d6	-0.5205511
185	0xbf8d577c	-1.1042323
186	0xbede7247	-0.43446562
187	0xbd5c622a	-0.053804554
188	0xbe55324e	-0.20819971
189	0x3fa9d1c4	1.326714
190	0xbfa38878	-1.2776022
191	0x3d840688	0.06446558
192	0x3e93744a	0.2879966
193	0xbef1647f	-0.47146985
194	0xbeb3becf	-0.35106513
195	0x3f1c44f9	0.61042744
196	0x3d78313a	0.06059382
197	0xbd944500	-0.07239723
198	0xbfcf237d	-1.6182705
199	0xbeb2fcb7	-0.3495843
200	0xbd28b1a6	-0.041185044
201	0xbfebfcd1	-1.8436528
202	0xbdecd1f8	-0.11563486
203	0x3d9bf335	0.076147474
204	0xbecbd3e3	-0.39810094
205	0x3d598861	0.053108577
206	0xbf48d478	-0.784492
207	0x3db0eefa	0.08639331
208	0x3ebb337b	0.36562714
209	0xbf1267bb	-0.5718953
210	0xbfb11280	-1.3833771
211	0xbf8f15d3	-1.1178535
212	0xbd7945e3	-0.060857665
213	0x3e30ccb9	0.17265595
214	0x3bb3dd6e	0.005489043
215	0xbff7d26a	-1.9361088
216	0xbf0c2a72	-0.54752266
217	0xbcbbf6ff	-0.022944925
218	0xbfaeb88d	-1.365007
219	0xbd253607	-0.040334728
220	0x3edfb099	0.4368942
221	0xbe8c2fc3	-0.2738019
222	0x3d76accc	0.060223386
223	0xbf77dedc	-0.9682443
224	0xbf2736da	-0.6531807
225	0xbdcaf0db	-0.09909221
226	0xbdc33390	-0.09531319
227	0x3f3e6bad	0.7438305
228	0x3f9066e5	1.1281401
229	0x3beb0ec2	0.00717339
230	0xbe6b770a	-0.22994629
231	0x3f6f0eeb	0.9338214
232	0xbf3bbe06	-0.7333683
233	0xbc8a7043	-0.016899234
234	0xbf85dc14	-1.0457788
235	0xbce4d41f	-0.027933178
236	0xbec85fde	-0.3913564
237	0xbef9c245	-0.48781028
238	0xbebb8b6d	-0.3662981
239	0x3ea79cb9	0.32736757
240	0xbf23be07	-0.63961834
241	0xbda7f1cc	-0.08200416
242	0xbe9f6f7b	-0.3113974
243	0xbf24341e	-0.64142025
244	0x3ee436ff	0.4457321
245	0xbf1ad8f6	-0.60487306
246	0xbe90ee6e	-0.28306907
247	0x3d973c94	0.07384601
248	0xbf4418a8	-0.7660012
249	0xbf64c3f5	-0.89361507
250	0xbe7dd905	-0.24789818
251	0x3a8477c4	0.0010106494
252	0xbf23c677	-0.6397471
253	0xbf608ae1	-0.8771191
254	0xbf8282b4	-1.0196137
255	0x3e6d0c1d	0.23149152

fc3.bias f4 [4]
0	0xbe5ac2de	-0.21363398
1	0xbd818068	-0.0632332
2	0x3d4d9cbd	0.050198305
3	0x3e4f8ece	0.2026932

fc1.weight f4 [64, 24]
0	0xbf0b1b51	-0.54338557
1	0xbe3802b0	-0.17969775
2	0x3f843032	1.0327208
3	0x3ed6d478	0.41958976
4	0xbea5b5c0	-0.32365227
5	0x3e0755dc	0.13216347
6	0x3e87a790	0.26495028
7	0x3ecaa4a4	0.39578736
8	0x3ecd983e	0.40155214
9	0xbdd62b31	-0.10457457
10	0x3e98ebea	0.29867488
11	0x3ec0e29d	0.37672892
12	0x3e9ae7e8	0.30255055
13	0x3eb4f441	0.353426
14	0xbe1ab025	-0.15106256
15	0x3f43348e	0.7625207
16	0x3e1ca95c	0.1529898
17	0x3e4ee1f6	0.20203385
18	0xbf227eef	-0.63474935
19	0xbe2f88d8	-0.17142045
20	0x3f3f9970	0.748435
21	0x3c6a6606	0.014306551
22	0x3e63f886	0.22262773
23	0xbf54121f	-0.8284015
24	0xbd91f873	-0.07127466
25	0xbd284840	-0.041084528
26	0xbd8987f9	-0.06715388
27	0x3dd58b44	0.104269534
28	0xbc8cca8f	-0.017186431
29	0x3da9bffe	0.08288573
30	0x3d71b772	0.059012838
31	0x3d4aa37f	0.04947233
32	0xbe2e8792	-0.17043903
33	0x3cb49968	0.022045806
34	0x3ddab44c	0.1067892
35	0x3be72488	0.0070539154
36	0xbd88872f	-0.06666409
37	0xbd457781	-0.04820967
38	0xbe4c9e12	-0.19982174
39	0xbda59491	-0.080849774
40	0xbe0f30a1	-0.13983394
41	0xbd4d913f	-0.050187346
42	0xbe81bec4	-0.25340855
43	0x3d047c2b	0.03234498
44	0xbdcb0dfa	-0.09914775
45	0xbdd1bde0	-0.10241294
46	0xbdb15cda	-0.08660288
47	0xbe370988	-0.1787473
48	0xbeeff6a6	-0.46867865
49	0x3f2370db	0.6384408
50	0xbeef2648	-0.46708894
51	0xbe6edaf6	-0.23325714
52	0xbeedbf26	-0.46434897
53	0xbe858ef4	-0.26085627
54	0xbdf5e719	-0.12006969
55	0x3e69eec2	0.22844985
56	0x3ec40d47	0.3829138
57	0x3d459f94	0.04824789
58	0xbf5ed34a	-0.8704115
59	0xbe8e0765	-0.27740017
60	0xbd752fea	-0.059860148
61	0x3f40db23	0.75334376
62	0xbf256154	-0.64601636
63	0x3f190607	0.5977482
64	0x3dbbc91d	0.09169219
65	0x3e05f427	0.13081418
66	0x3cdd4956	0.027012508
67	0xbf19e604	-0.601166
68	0xbea03fcf	-0.31298682
69	0x3e32dd8b	0.17467324
70	0xbba3e0ad	-0.0050011487
71	0xbe940b8e	-0.28915066
72	0xbf3a5a2b	-0.72793835
73	0xbe52f75c	-0.20602173
74	0x3f2b7bad	0.6698559
75	0xbeef9ea9	-0.46800736
76	0xbe1cf7ad	-0.15328856
77	0xbf02ee17	-0.51144546
78	0x3ed1e178	0.40992332
79	0x3e724cc8	0.23662102
80	0x3e9d3464	0.30704033
81	0xbc856810	-0.016284972
82	0xbfe01828	-1.7507372
83	0xbf0fc8ab	-0.5616557
84	0x3cbb637e	0.02287459
85	0x3f732de8	0.9499192
86	0xbf893af7	-1.072112
87	0x3ed967ab	0.42461905
88	0x3d389e50	0.045072854
89	0x3e44ece9	0.19230999
90	0xbf489697	-0.7835478
91	0xbdb6881c	-0.089126796
92	0x3e7c7b50	0.24656415
93	0x3e820594	0.2539488
94	0xbcd1627c	-0.025559656
95	0xbe822d1a	-0.25425035
96	0xbe59badd	-0.21262689
97	0x3e153699	0.14571609
98	0x3d93edf5	0.07223121
99	0xbd9166af	-0.070996635
100	0xbedcbad0	-0.43111277
101	0x3fa42d8a	1.2826397
102	0xbe0a29ea	-0.13492551
103	0xbe518858	-0.20462167
104	0x3ebc1d38	0.36741042
105	0xbdfc9023	-0.123321794
106	0x3f80b43a	1.0055001
107	0xbeee3854	-0.4652735
108	0xbe8a9f26	-0.27074546
109	0x3f20ff65	0.628897
110	0xbea53ee6	-0.3227455
111	0x3da55f03	0.08074763
112	0x3d823637	0.06357997
113	0x3dadc571	0.084849246
114	0xbe2d2675	-0.16909201
115	0xbea0a000	-0.3137207
116	0x3d54f532	0.05199165
117	0x3e09ccf2	0.13457087
118	0x3c4e094e	0.012575461
119	0xbef49218	-0.4776771
120	0xbf5a0abe	-0.8517264
121	0x3c5f594f	0.013632133
122	0x3e288c80	0.16459846
123	0x3db75d1b	0.08953305
124	0x3ec92608	0.39286828
125	0xbe40917e	-0.18805501
126	0xbbddb184	-0.0067655463
127	0x3d4e67b4	0.050391868
128	0x3ee7205e	0.45141882
129	0xbe83ecea	-0.2576669
130	0x3ed85814	0.42254698
131	0x3f51e078	0.8198314
132	0x3e095523	0.13411383
133	0xbfa01208	-1.2505503
134	0x3c3fb8d6	0.011701783
135	0x3d251174	0.040299848
136	0x3e5eeb2b	0.21769397
137	0x3e83d979	0.25751856
138	0x3dada38e	0.08478461
139	0x3e2831e3	0.1642528
140	0x3e0594bb	0.13045017
141	0x3e9d1045	0.30676475
142	0x3eaf87ad	0.342832
143	0x3e1401cb	0.14453809
144	0xbeb6a6b5	-0.35674062
145	0xbe91aa77	-0.28450367
146	0xbd0a449a	-0.03375683
147	0xbebb3020	-0.36560154
148	0x3cf3ed4e	0.029776242
149	0xbedac8c2	-0.4273129
150	0xbef9923a	-0.48744375
151	0xbe00f223	-0.12592368
152	0x3eee37e0	0.46527004
153	0x3d60ae1e	0.05485355
154	0xbf095c58	-0.5365653
155	0xbf04e77c	-0.5191572
156	0xbef401d0	-0.47657633
157	0x3f17d918	0.59315634
158	0x3e405fd2	0.18786553
159	0xbf9470e7	-1.1596955
160	0xbedfba39	-0.43696764
161	0xbf386161	-0.7202359
162	0x3f4f5b7b	0.80998963
163	0x3e10462b	0.14089267
164	0xbf9484ca	-1.1603024
165	0xbeeebc28	-0.46627927
166	0xbf28d194	-0.6594479
167	0x3e78244f	0.242326
168	0xbd6ca17e	-0.0577712
169	0x3d838236	0.0642132
170	0xbe2bf12b	-0.16791217
171	0x3e130d8f	0.14360641
172	0xbd7ebf5f	-0.062194224
173	0xbe383e7a	-0.17992583
174	0xbe42632f	-0.18983148
175	0xbd626dbf	-0.055280443
176	0xbe47936c	-0.1948983
177	0xbe462968	-0.19351733
178	0xbdca38dc	-0.09874126
179	0xbdb7b48f	-0.08969986
180	0xbe05b7c4	-0.13058382
181	0x3e0a35b8	0.13497055
182	0xbe37bb86	-0.17942628
183	0xbe06799f	-0.13132332
184	0xbe1fe39f	-0.15614174
185	0x3cda2f83	0.026633983
186	0xbe45d5e0	-0.19319868
187	0xbdf63b2c	-0.12023005
188	0xbdc9a053	-0.098450325
189	0x3d80a990	0.062823415
190	0xbcddbc53	-0.027067339
191	0x3df19a58	0.11797017
192	0x3f120e91	0.57053477
193	0xbd45bf63	-0.048278224
194	0xbe09c716	-0.13454852
195	0x3ec912b3	0.3927208
196	0x3dd17f9c	0.10229418
197	0x3cfb6a8b	0.030690452
198	0x3e8f36c2	0.27971464
199	0xbda834be	-0.08213185
200	0xbf196eae	-0.5993451
201	0xbd78e9c8	-0.060769826
202	0x3f19317f	0.5984115
203	0x3e837912	0.25678307
204	0x3d526c11	0.05137259
205	0xbf1bd3fa	-0.60870326
206	0x3e1fa4a4	0.15590149
207	0x3edfae67	0.43687746
208	0x3cd6d636	0.02622519
209	0x3dd52bfb	0.10408779
210	0x3ebe0b54	0.37118018
211	0xbc0ab35d	-0.008465615
212	0x3e988e8b	0.29796252
213	0x3defad59	0.11702985
214	0x3e222fb1	0.15838505
215	0x3f5789ff	0.8419494
216	0xbcd9c789	-0.026584404
217	0xbd1d75d6	-0.038442455
218	0xbe9392ab	-0.28822836
219	0xbe825700	-0.25457
220	0x3c2436cc	0.01002283
221	0xbf941871	-1.1569959
222	0xbf79a61f	-0.97519106
223	0xbd2dae6a	-0.042402662
224	0x3f691ecc	0.9106262
225	0xbe91864f	-0.28422782
226	0xbf878dcc	-1.0590148
227	0xbd78f715	-0.06078251
228	0xbe3e5a99	-0.18589248
229	0x3f34d782	0.7064134
230	0xbf4c3084	-0.7976153
231	0x3dce039b	0.100592814
232	0xbd38feb7	-0.04516479
233	0x3da79493	0.08182635
234	0xbda37904	-0.07982066
235	0xbe8eb990	-0.27875948
236	0xbece8493	-0.4033552
237	0xbdc9dc39	-0.09856457
238	0xbed0bfbe	-0.40771288
239	0x3d39d03c	0.045364603
240	0xbec7584d	-0.38934556
241	0xbe621dd2	-0.22081688
242	0xbe8b000b	-0.2714847
243	0xbe979221	-0.29603675
244	0xbf02d792	-0.51110184
245	0xbd01403c	-0.0315554
246	0xbe662549	-0.2247516
247	0xbe6b231c	-0.22962612
248	0x3e93be5e	0.28856176
249	0xbef5f02b	-0.48034796
250	0xbf1518ef	-0.5824117
251	0xbe9eb3a0	-0.30996418
252	0xbedb6a28	-0.42854428
253	0x3e835931	0.25653985
254	0xbe75861b	-0.23976938
255	0xbe72258d	-0.23647137

fc1.bias f4 [64]
0	0x3eb9c8f3	0.36286125
1	0xbe7c46a1	-0.24636318
2	0xbd5686f4	-0.052374795
3	0xbe0ec2c1	-0.1394148
4	0xbe2a8e25	-0.16655786
5	0x3ecd731d	0.40126887
6	0xbea882d4	-0.32912314
7	0xbe0baeb3	-0.13640861
8	0x3ec64959	0.38727835
9	0xbeb66c8b	-0.35629687
10	0xbea3c5fa	-0.31986982
11	0xbe21894a	-0.15775028
12	0xbf004353	-0.5010273
13	0xbe1132bf	-0.14179514
14	0xbea0190e	-0.31269115
15	0xbe163f72	-0.1467264
16	0xbdd27d0e	-0.102777585
17	0xbe4a0b51	-0.1973088
18	0xbeab97aa	-0.33514148
19	0xbe4a7f02	-0.19775012
20	0xbe9d03ca	-0.30666953
21	0xbf0bf207	-0.5466618
22	0x3e85345b	0.26016507
23	0xbe37df31	-0.17956235
24	0x3e79eaaa	0.24405923
25	0xbebad8e0	-0.36493587
26	0xbeb58917	-0.35456154
27	0xbed84b62	-0.42245013
28	0xbf001306	-0.5002903
29	0xbea5b208	-0.3236239
30	0x3d735ed1	0.059416596
31	0xbe15e958	-0.14639795
32	0xbd25cbda	-0.04047761
33	0x3d21a5a2	0.0394646
34	0xbe95488f	-0.2915692
35	0xbf051c5f	-0.51996416
36	0xbea9db55	-0.3317515
37	0xbe3315e2	-0.17488816
38	0xbe2e1752	-0.17001083
39	0xbd54605c	-0.051849708
40	0xbe53d33c	-0.20686048
41	0xbea93c63	-0.33053884
42	0xbd97a49e	-0.07404445
43	0xbeb313e4	-0.34976113
44	0xbe5279a4	-0.20554215
45	0x3e102162	0.14075235
46	0xbd66e779	-0.056373093
47	0xbe97dd9a	-0.29661256
48	0xbe8f98b5	-0.28046194
49	0xbeae158c	-0.34000814
50	0xbe940547	-0.28910276
51	0x3d420a61	0.04737318
52	0xbdc227b0	-0.09480226
53	0xbe948a86	-0.29011935
54	0xbedf4827	-0.43609735
55	0xbdf7841e	-0.12085746
56	0xbdcb21b1	-0.099185355
57	0xbe9f99df	-0.31172082
58	0xbe7aa7e2	-0.24478105
59	0xbda716f4	-0.08158675
60	0xbe3ca06b	-0.1842057
61	0xbe6451e0	-0.22296858
62	0xbe624f9c	-0.22100681
63	0x3dc4d9e9	0.096118756

fc2.weight f4 [64, 64]
0	0x3eb3873a	0.35064107
1	0x3da0d924	0.07853916
2	0x3f4d0c5b	0.8009698
3	0x3ebc7bf6	0.36813325
4	0x3d23ba9d	0.03997289
5	0x3e9306f4	0.28716242
6	0x3e771a21	0.24131061
7	0x3db7f630	0.089825034
8	0x3e2e6e6d	0.17034312
9	0x3f25dd12	0.6479045
10	0x3edae481	0.4275246
11	0x3ed7354a	0.42032844
12	0x3f552a73	0.832679
13	0x3f0d70fb	0.5525052
14	0x3e0482de	0.12940547
15	0x3e271e8b	0.16320245
16	0x3fd73386	1.6812599
17	0xbd9492fc	-0.072545975
18	0x3ba2c126	0.0049668727
19	0xbe237b1c	-0.15964931
20	0x3f5aa103	0.85401934
21	0x3e433c33	0.19065933
22	0xbf012ea0	-0.5046177
23	0xbd9335bf	-0.07187986
24	0xbeeaa65d	-0.4583005
25	0xbe89a619	-0.26884535
26	0x3fae8c7f	1.3636626
27	0x3f35a30a	0.709519
28	0x3e6d5073	0.2317522
29	0xbe77e253	-0.2420743
30	0x3e620f8d	0.22076245
31	0x3f239982	0.6390611
32	0xbeed8907	-0.46393606
33	0x3d324461	0.043522242
34	0x3fb79dd5	1.4345042
35	0x3ebc46e0	0.36772823
36	0xbd430e04	-0.04762079
37	0x3e9622fa	0.2932356
38	0xbce24122	-0.027618948
39	0x3e802bce	0.2503342
40	0x3eaad869	0.33368233
41	0x3d674f37	0.05647203
42	0x3ecca065	0.3996612
43	0x3fa28a59	1.269847
44	0xbd8c4f72	-0.068510905
45	0xbe8b8fb6	-0.2725808
46	0x3e103f7c	0.14086717
47	0x3e2c1b2d	0.16807242
48	0xbda381da	-0.079837516
49	0x3fec3f85	1.8456885
50	0xbe178b12	-0.14799145
51	0xbf8fad58	-1.1224775
52	0x3f3d45f0	0.7393484
53	0x3e19571b	0.14974634
54	0xbe4ad1aa	-0.19806543
55	0x3e81ee47	0.25377104
56	0xbe0b3b79	-0.13596906
57	0xbea4af58	-0.32165027
58	0x3fad6b91	1.3548452
59	0xbdbb5633	-0.091473006
60	0xbe87503f	-0.2642841
61	0x3e8477f5	0.2587277
62	0xbed25313	-0.41079006
63	0xc00be010	-2.1855507
64	0xbd972305	-0.07379726
65	0x3de8a0af	0.11358773
66	0x3e180522	0.14845708
67	0x3c48e6d9	0.01226207
68	0xbf3de5a6	-0.7417854
69	0x3dbdfeac	0.092770904
70	0x3f5a3b2a	0.8524653
71	0xbda1346c	-0.07871327
72	0xbd32b5e6	-0.043630503
73	0x3ec9bb90	0.3940091
74	0x3ee86b1f	0.45394227
75	0xbe8f6159	-0.28003958
76	0x3fb079d0	1.3787174
77	0x3cc7659a	0.02434044
78	0x3e990d35	0.2989289
79	0x3e39e250	0.18152738
80	0x3f111b03	0.5668184
81	0x3f07ac90	0.52997684
82	0x3f854846	1.0412681
83	0xbd2535f5	-0.04033466
84	0x3eaa7539	0.3329256
85	0xbd6b8f96	-0.05750998
86	0xbeac9193	-0.33704814
87	0x3edd9fe9	0.43286064
88	0x3e8f7f44	0.28026783
89	0x3f9cb7c5	1.2243582
90	0xbe18eeae	-0.14934799
91	0x3cb8719c	0.02251511
92	0x3f9dfc3f	1.2342604
93	0xbcb5729e	-0.02214938
94	0x3e21a6b2	0.15786245
95	0x3e9bdc13	0.3044134
96	0x3f0f14b3	0.5589096
97	0x3c879c75	0.016554097
98	0x3f273eaf	0.6533002
99	0x3d7ad7a7	0.06124082
100	0x3f2957ff	0.66149896
101	0x3f301269	0.6877809
102	0x3e740c0f	0.23832725
103	0x3e906b03	0.28206643
104	0x3e278bc3	0.16361909
105	0x3da36d4f	0.07979833
106	0xbb94756b	-0.004530599
107	0x3eaced30	0.3377471
108	0xbdd1a05f	-0.102356665
109	0x3e9a3ae8	0.30123067
110	0x3eab18a6	0.33417243
111	0x3f93d0f4	1.1548142
112	0x3f6818ce	0.9066285
113	0x3f50c5cc	0.81551814
114	0x3e3aa152	0.18225601
115	0x3dc44b51	0.09584678
116	0xbe4b739e	-0.19868323
117	0x3f22cf2f	0.6359739
118	0x3e5170f7	0.20453249
119	0xbdc660db	-0.096864425
120	0x3efac2cb	0.4897674
121	0x3f1b8ee7	0.60764927
122	0x3dc07e95	0.093991436
123	0x3fba2977	1.4543904
124	0x3e292782	0.16518977
125	0x3f205054	0.6262257
126	0x3dd89e75	0.10577098
127	0xbe84c9f3	-0.25935325
128	0x3deb1140	0.114778996
129	0xbd6c988a	-0.05776266
130	0x3dea3eae	0.114377365
131	0x3e786228	0.24256194
132	0xbf157962	-0.5838834
133	0x3d2f5a82	0.042810924
134	0x3f153201	0.58279425
135	0xbd9341b0	-0.07190263
136	0x3d95b4c4	0.07309869
137	0x3ed944af	0.42435214
138	0x3ef7aa7a	0.4837225
139	0xbe420c26	-0.18949947
140	0x3f77de46	0.9682354
141	0x3c8d7dd1	0.017271908
142	0x3e5b71e2	0.21430162
143	0x3df95853	0.1217505
144	0x3f5f9527	0.87336963
145	0x3dc95821	0.098312624
146	0x3f56653d	0.8374823
147	0x3e2720cf	0.16321109
148	0x3ecef701	0.40422824
149	0x3c4e0aa5	0.01257578
150	0xbde54648	-0.11195046
151	0x3eb1e45c	0.34744537
152	0x3e828a33	0.25496063
153	0x3f50f699	0.8162628
154	0x3dae527c	0.085118264
155	0x3d3e3fec	0.04644768
156	0x3f7df24b	0.99197835
157	0x3d99a0a2	0.075013414
158	0x3e8e3add	0.27779284
159	0x3f10bff9	0.5654293
160	0x3f083d7a	0.53218806
161	0xbd6819c3	-0.056665193
162	0x3f19d80a	0.60095274
163	0x3da767bf	0.08174085
164	0x3f16591e	0.5872973
165	0x3f002b5b	0.50066155
166	0x3e17be34	0.1481865
167	0x3e94824c	0.2900566
168	0x3edf92e7	0.43666765
169	0xbd82f70b	-0.06394776
170	0xbd6f166f	-0.058371004
171	0x3ef66fa0	0.48132038
172	0xbc405968	-0.011740066
173	0x3edd0561	0.43168166
174	0x3ecc08f1	0.39850572
175	0x3f7bb19f	0.98317903
176	0x3f1541ba	0.58303416
177	0x3fc4e913	1.5383629
178	0x3db25386	0.08707337
179	0xbddb53e7	-0.107093625
180	0xbe4a258d	-0.19740887
181	0x3f1a4fca	0.60278
182	0xbcdc4845	-0.02688993
183	0xbe32a9f7	-0.17447649
184	0x3ee33636	0.44377297
185	0x3e9ff154	0.31238806
186	0x3eee8cbb	0.46591744
187	0x3f9a553a	1.2057259
188	0xbd1b4709	-0.03790954
189	0x3f374437	0.7158846
190	0xbe3589a0	-0.17728281
191	0xbec3d9ef	-0.38252208
192	0x3de37688	0.111065924
193	0x3d37f05d	0.044906963
194	0xbf50f448	-0.81622744
195	0xbe96ae6f	-0.29429957
196	0x3f4ab112	0.7917644
197	0x3e712850	0.23550534
198	0x3f053684	0.5203631
199	0x3dc371b0	0.095431685
200	0x3e65e778	0.2245158
201	0xbee89d03	-0.4543229
202	0x3ecd5ad6	0.40108365
203	0x3e884d06	0.26621264
204	0x3fc4e0d4	1.5381112
205	0x3ea2988d	0.31757012
206	0xbe09e926	-0.13467845
207	0xbea433d3	-0.3207079
208	0xbb1099dc	-0.0022064364
209	0x3e93e247	0.28883573
210	0x3f9dd39b	1.2330202
211	0x3e595534	0.21223909
212	0x3e9d22f2	0.30690724
213	0xbda782f0	-0.08179271
214	0x3f0fb0d8	0.5612922
215	0x3b0e1fae	0.0021686363
216	0x3f0ced36	0.55049455
217	0x3f80b8bd	1.0056378
218	0x3eb702bb	0.3574427
219	0x3e70dd83	0.23522
220	0x3f744418	0.954164
221	0x3ebdd21d	0.37074366
222	0x3ed6b83c	0.41937435
223	0xbe7d4bed	-0.24735995
224	0xbf42c014	-0.7607434
225	0x3da3e239	0.08002133
226	0x3f4d6895	0.80237705
227	0xbe5760f8	-0.21033084
228	0x3e5bc740	0.21462727
229	0x3f6c9e3c	0.92428946
230	0x3f1200c9	0.5703245
231	0x3eb90ce4	0.36142647
232	0xbf6dca8a	-0.92887175
233	0x3d5845a5	0.052800793
234	0x3e951278	0.29115653
235	0x3e433dab	0.19066493
236	0xbd756b77	-0.05991694
237	0x3ea88b3d	0.3291873
238	0x3e9a5017	0.3013923
239	0x3fa425a3	1.2823986
240	0x3f929239	1.1450874
241	0xbf0a6231	-0.5405608
242	0xbe412a4b	-0.1886379
243	0x3e0d45ea	0.13796201
244	0xbef9d0e6	-0.4879219
245	0xbe9b7f29	-0.30370453
246	0x3f1effdf	0.6210918
247	0x3bbf9b14	0.005847344
248	0x3f54b4d0	0.830884
249	0x3e489118	0.19586599
250	0xbe464c1d	-0.19364972
251	0xbfdef4e6	-1.7418487
252	0xbdc78bc6	-0.097434565
253	0xbce0b94f	-0.027432112
254	0xbd157086	-0.036484264
255	0x3ef0574c	0.46941602

fc2.bias f4 [64]
0	0x3c20985c	0.00980195
1	0xbd44c0ff	-0.048035618
2	0x3d383883	0.04497577
3	0x3e0d1c24	0.13780266
4	0xbd427187	-0.04747155
5	0xbee9bf7f	-0.45653912
6	0xbe792ec2	-0.24334243
7	0x3e31bc71	0.17357041
8	0xbeb3fb13	-0.35152492
9	0x3cae7bb0	0.021299213
10	0x3ccd0fb2	0.025031898
11	0xbdadd328	-0.084875405
12	0x3ecd7e90	0.40135622
13	0xbe36f217	-0.17865787
14	0xbea94d82	-0.33066946
15	0xbe1c908f	-0.1528952
16	0x3df9709a	0.1217968
17	0x3e873150	0.2640481
18	0xbe42325a	-0.1896452
19	0x3eee6f62	0.46569353
20	0x3e65f454	0.22456485
21	0x3d277d06	0.040890716
22	0xbec30f29	-0.38097504
23	0xbd71b17e	-0.05900716
24	0xbe238ff6	-0.15972885
25	0xbd758fe0	-0.059951663
26	0xbce7e2c5	-0.028306374
27	0xbd873f9e	-0.06603931
28	0x3de39930	0.111132026
29	0xbcb393cd	-0.021921063
30	0xbf07d962	-0.53066075
31	0xbe80c870	-0.25152922
32	0xbe8544c6	-0.26029032
33	0xbe9414a3	-0.28921995
34	0xbe03994f	-0.12851451
35	0x3ec3e4dd	0.38260546
36	0x3eca87ef	0.39556834
37	0xbd495035	-0.049148757
38	0x3ddd7339	0.108129926
39	0x3f266c8e	0.6500939
40	0xbe6853a2	-0.22688153
41	0xbe1ebd36	-0.15501866
42	0xbdb6f4b7	-0.089333944
43	0xbe5ee040	-0.21765232
44	0x3cc086a9	0.023501711
45	0xbdd2976f	-0.1028279
46	0x3cdc9cf1	0.026930304
47	0xbec70158	-0.38868213
48	0xbe2377d8	-0.15963686
49	0x3cc854fc	0.024454586
50	0xbdd3f1a6	-0.10348825
51	0xbe2cdbdb	-0.16880743
52	0x3f25491d	0.64564687
53	0xbe349eb0	-0.1763866
54	0x3e4785f7	0.19484697
55	0xbbf94165	-0.0076066726
56	0xbdcf8bbd	-0.10134075
57	0xbdd6b8a7	-0.104844384
58	0x3da23bdb	0.07921573
59	0x3c59464b	0.013261388
60	0xbd78cfa9	-0.060744915
61	0x3e2f8852	0.17141846
62	0xbd04a6e9	-0.03238574
63	0xbf246e60	-0.6423092

fc3.weight f4 [4, 64]
0	0x3e02b392	0.12763813
1	0xbed84436	-0.4223954
2	0xbeae6191	-0.34058812
3	0xbf58eee4	-0.8473952
4	0xbd718aab	-0.058970135
5	0xbeee9498	-0.46597743
6	0xbe64bcfb	-0.22337715
7	0x3e228fa3	0.15875106
8	0xbfed1243	-1.8521198
9	0x3e4f1011	0.20220973
10	0x3e161c67	0.14659272
11	0x3d9eb0e0	0.0774858
12	0xbf25733d	-0.64628965
13	0xbb9720d6	-0.0046120686
14	0xbd4dfa1c	-0.05028735
15	0xbc6f3433	-0.014599848
16	0xbcdc8b68	-0.026921943
17	0x3fb6c86f	1.4279917
18	0xbe876632	-0.26445156
19	0x3eb59fa0	0.35473347
20	0xbebe1753	-0.3712717
21	0x3d8e392f	0.06944501
22	0xbecb9a1b	-0.3976601
23	0x3bbc85d3	0.005753258
24	0xbdc449b9	-0.09584374
25	0xbf5ba7aa	-0.8580271
26	0xbde1c4e8	-0.11023885
27	0x3de86e26	0.11349134
28	0xbf0f1acc	-0.55900264
29	0x3c78c532	0.015183734
30	0x3e9bada6	0.3040592
31	0x3ced5bfe	0.02897453
32	0x3e2135ba	0.15743151
33	0xbf1212e8	-0.570601
34	0x3d30f064	0.043198004
35	0xbef343c2	-0.47512633
36	0xbea7b752	-0.3275705
37	0x3d8eac07	0.06966405
38	0xbe550273	-0.20801716
39	0x3f727f9e	0.9472598
40	0x3df2e0a5	0.11859254
41	0xbc388dbd	-0.011264262
42	0xbbb02872	-0.005375915
43	0xbd9008d2	-0.07032932
44	0xbf05fa8f	-0.5233545
45	0xbce5c0e1	-0.028046073
46	0xbe78517a	-0.24249831
47	0xbfcc42d4	-1.5957894
48	0xbe1e5359	-0.15461482
49	0x3c5a5409	0.0133257
50	0xbebfa546	-0.3743078
51	0xbe14e6ee	-0.14541218
52	0x3f93c74f	1.1545199
53	0xbe6f062f	-0.23342203
54	0xbeea4cf4	-0.45761836
55	0x3dcfc76b	0.10145458
56	0x3d0d99c2	0.034570463
57	0x3e0a5bc8	0.13511574
58	0xbe8cdfb8	-0.27514434
59	0xbd95fd15	-0.07323662
60	0xbe69f5ac	-0.22847623
61	0xbeb29699	-0.34880522
62	0x3dbdede6	0.09273891
63	0xc0379a6a	-2.8687997
64	0xbe247c64	-0.16063076
65	0xbeddf2f3	-0.43349418
66	0xbe91d2f0	-0.28481245
67	0xbee61fdf	-0.4494619
68	0x3d830467	0.06397324
69	0xc01844fe	-2.379211
70	0xbe01c125	-0.12671335
71	0x3e743d5f	0.23851536
72	0x3f9ef6d5	1.2419077
73	0xbc88f4e9	-0.016718345
74	0xbe028832	-0.12747267
75	0xbd4e827a	-0.0504174
76	0x3f3b3939	0.7313419
77	0x3c03d740	0.008046925
78	0x3e1bb501	0.15205766
79	0x3d91a346	0.0711122
80	0xbe192ceb	-0.14958541
81	0x3e231a2b	0.15927951
82	0xbd9be9da	-0.07612963
83	0x3f6d2d47	0.9264721
84	0xbeb92d85	-0.3616754
85	0xbe124f0f	-0.14287971
86	0xbfe26868	-1.7688112
87	0x3d6e9c7e	0.05825471
88	0xbd18ce12	-0.0373059
89	0xbe72c717	-0.23708759
90	0xbdaa20b7	-0.08307021
91	0x3d65aadd	0.05607115
92	0xbf4d9453	-0.8030445
93	0xbe049cf9	-0.12950505
94	0xc02b1705	-2.67328
95	0xbe8ac56a	-0.2710374
96	0x3db5ba8b	0.08873471
97	0x3d90eb39	0.07076115
98	0x3e0ede9e	0.13952109
99	0xbf0f3272	-0.5593635
100	0x3ef17555	0.4715983
101	0x3dc3ef55	0.09567133
102	0xbead52ba	-0.33852178
103	0x3d4a9f66	0.04946842
104	0xbcbddb19	-0.023175763
105	0x3d20ddb0	0.039273918
106	0x3d9ba056	0.07598941
107	0x3cd832f9	0.026391493
108	0xbef62d34	-0.48081362
109	0xbd72d09f	-0.059280988
110	0xbec0da9d	-0.3766679
111	0x3f46b8ab	0.7762553
112	0xbcbbe869	-0.02293797
113	0xbdf38b05	-0.1189175
114	0xbd159470	-0.036518514
115	0x3e1a0264	0.15039974
116	0x3edfcaeb	0.43709502
117	0x3e2e03d7	0.16993652
118	0xbec2f083	-0.3807412
119	0x3ec010b0	0.37512732
120	0x3e0a1393	0.1348403
121	0xbe45db69	-0.1932198
122	0xbe251aeb	-0.1612355
123	0x3d2c40a7	0.042053845
124	0xbe04744f	-0.12934993
125	0xbeee2c39	-0.46518114
126	0x3db4f50e	0.08835803
127	0xbdba2180	-0.09088421
128	0xbfbb34fa	-1.4625542
129	0xbea4edc6	-0.32212657
130	0xbee8a708	-0.45439935
131	0x3e2c5b6b	0.16831748
132	0x3d743340	0.05961919
133	0xbd02e1d1	-0.031953637
134	0x3c9a79eb	0.018856963
135	0xbf8c2db3	-1.0951446
136	0xbe532243	-0.20618539
137	0x3d04ba59	0.032404277
138	0xbfb34829	-1.4006397
139	0x3d8e502a	0.06948884
140	0x3b575ac0	0.0032860488
141	0x3d8a78c9	0.06761319
142	0xbf50e9de	-0.81606853
143	0x3d0cab19	0.03434286
144	0xbfd484a3	-1.6602978
145	0x3e85dba6	0.2614414
146	0xbdac4ba7	-0.08412867
147	0xbf478e8c	-0.77951884
148	0xbef58dbf	-0.47959706
149	0x3f39ff65	0.72655326
150	0xbf267ab7	-0.65031
151	0x3e9677a4	0.29388154
152	0xbefa2cc1	-0.4886227
153	0xbede887e	-0.4346351
154	0xbd28f335	-0.041247565
155	0x3e152fd5	0.14569028
156	0x3ef84365	0.48488918
157	0xbf8ee271	-1.1162854
158	0x3e9e712b	0.30945715
159	0xbf44e50b	-0.7691199
160	0xbf441f2d	-0.7661007
161	0x3ec13960	0.37739086
162	0xbd34bf44	-0.044127718
163	0x3cee70cc	0.02910652
164	0xbee14f26	-0.44005698
165	0x3bd292b8	0.0064261816
166	0xbf141ef3	-0.57859725
167	0xbee40efb	-0.4454268
168	0xbf2a1a97	-0.6644682
169	0xbdc0f576	-0.09421818
170	0xbf986b78	-1.1907797
171	0x3d833006	0.06405644
172	0xbe2d0ee6	-0.16900215
173	0xbee92616	-0.4553687
174	0xbeea00df	-0.4570379
175	0x3e762029	0.24035706
176	0xbf2701cf	-0.65237135
177	0xbfb1db62	-1.3895075
178	0xbf14bf62	-0.58104527
179	0xbf3ed66b	-0.74545926
180	0xbe106680	-0.141016
181	0xbf3b864b	-0.7325179
182	0xbf0d2dbd	-0.55147916
183	0xc00de9d0	-2.2173958
184	0xbf07cfea	-0.53051627
185	0xbf7b3613	-0.98129386
186	0xbee1787c	-0.44037235
187	0x3c0de772	0.008661138
188	0xbe65432e	-0.22388908
189	0x3faabd0a	1.333894
190	0xbf94c442	-1.1622393
191	0x3d3b9975	0.045800645
192	0x3e850b0e	0.25984997
193	0xbef172f6	-0.4715802
194	0xbeb4cbd2	-0.35311753
195	0x3f1b4a58	0.60660315
196	0x3d78313a	0.06059382
197	0xbd954ebe	-0.072904095
198	0xbfd1cad9	-1.6390029
199	0xbeb3c47a	-0.35110837
200	0xbd23bfe9	-0.03997794
201	0xbfee2102	-1.8603823
202	0xbe045453	-0.12922792
203	0x3d9bf335	0.076147474
204	0xbed0104f	-0.40637442
205	0x3d598861	0.053108577
206	0xbf43b7b5	-0.7645219
207	0x3db0eefa	0.08639331
208	0x3ea73361	0.32656386
209	0xbf0dfe9e	-0.5546664
210	0xbfb47262	-1.4097407
211	0xbf9066ee	-1.1281412
212	0xbd7d1560	-0.061787963
213	0x3e413c98	0.18870771
214	0x3b6e114b	0.0036326225
215	0xbff6ffac	-1.9296775
216	0xbf0c0474	-0.54694295
217	0xbd21f777	-0.03954264
218	0xbfb0b5bc	-1.3805461
219	0xbd253607	-0.040334728
220	0x3ee5a1ff	0.44850156
221	0xbe8fec76	-0.28110093
222	0x3d89a325	0.067205705
223	0xbf6488ea	-0.89271414
224	0xbf21e4c8	-0.6323972
225	0xbe32be03	-0.17455296
226	0xbdc33390	-0.09531319
227	0x3f40f169	0.7536836
228	0x3f8c97f1	1.0983869
229	0x3beb0ec2	0.00717339
230	0xbe68ed97	-0.22746883
231	0x3f7a2942	0.97719204
232	0xbf3910bc	-0.7229116
233	0xbc8a7043	-0.016899234
234	0xbf83baa4	-1.0291333
235	0xbce4d41f	-0.027933178
236	0xbecb5ab8	-0.3971765
237	0xbeffa2ca	-0.49928886
238	0xbebc1cd3	-0.3674074
239	0x3e9d554d	0.30729142
240	0xbf2dffe8	-0.67968607
241	0xbdbe0ad9	-0.09279413
242	0xbeb6a889	-0.35675457
243	0xbf22efa7	-0.6364693
244	0x3efd6ea7	0.49498484
245	0xbf2397bd	-0.6390341
246	0xbe9186e3	-0.28423223
247	0x3de9aa35	0.114094175
248	0xbf3dc48c	-0.7412803
249	0xbf50db0a	-0.8158423
250	0xbe80b4f0	-0.25138044
251	0x3a8477c4	0.0010106494
252	0xbf2ce71a	-0.67540133
253	0xbf5fd006	-0.87426794
254	0xbf81557a	-1.010421
255	0x3e5a623e	0.21326539

fc3.bias f4 [4]
0	0xbe562fe9	-0.20916714
1	0xbddbeee3	-0.107389234
2	0x3d262a05	0.040567417
3	0x3e591cb6	0.21202359
