models/sess100-max5-sm0.pth (torch, 105997 bytes, 24 tensors)

fc1.weight f4 [64, 24]
-0.17883402 -0.045523312 0.01759104 -0.011922239 0.1446817 -0.044002667 0.02465915 -0.1622002
0.1179037 -0.08843129 -0.09841253 0.06329423 -0.14763854 0.20438579 -0.09767019 -0.12375501
-0.1658269 -0.06670274 0.11724504 -0.13891742 -0.19455999 -0.11960808 0.12043542 -0.13327435
-0.12001172 0.19330455 -0.09577161 -0.06654746 0.15361364 0.07453209 -0.08191789 0.12885831
0.17819157 0.08117602 0.0047524837 -0.061790995 -0.027692663 -0.1046705 0.086318016 -0.19194144
0.11724568 -0.07219501 0.1610007 0.1747563 -0.1527764 0.00091727613 0.046952445 -0.12456897
0.16559051 -0.13514827 0.13397622 -0.1539936 -0.059113774 -0.097095534 -0.1810968 -0.15509623
0.09373562 -0.022440014 -0.1373255 0.124391295 0.15649128 -0.006661138 -0.18876159 0.17866458
0.06651011 -0.0012708766 0.005603555 -0.023191134 -0.046070386 -0.080788545 0.06316338 -0.00828358
0.0018076126 0.12983042 -0.076627806 0.1079831 0.014282371 -0.000864239 0.033653453 -0.07001076
-0.20062171 -0.1884625 0.13230558 -0.04380462 -0.06655811 0.17975669 0.05702112 0.068710275
-0.093111776 -0.065264784 -0.20422263 -0.092036724 -0.14955989 -0.088192135 0.02370744 -0.13766772
-0.07817185 -0.15150219 -0.058539994 -0.18051556 0.1981514 -0.0005720042 0.12651731 0.13983297
0.08243893 -0.20626463 0.09986983 -0.09860109 -0.010105335 0.110656254 0.072966486 -0.029878918
0.007859606 0.15573467 -0.15997246 0.20577829 0.16492471 -0.025419945 0.0006869268 -0.08009024
0.11696492 -0.16858806 -0.12269914 -0.01562786 0.1700618 -0.067685485 0.19178462 0.14163098
0.20946497 0.12103268 0.08594541 -0.17503937 -0.002002946 -0.061539512 0.12237549 0.16187336
-0.14545979 0.18092124 -0.12063525 0.07015153 0.0406698 -0.09943453 0.055775017 -0.1112936
0.031613354 0.14135669 0.103141606 -0.022403546 0.15423596 -0.11702082 -0.0689838 0.0283345
-0.034322176 -0.048834965 -0.18666327 -0.09138154 -0.14028333 0.20009913 0.136712 0.03534781
-0.10105291 -0.076676786 -0.06473419 0.046162 0.1404524 -0.11416639 -0.14838247 -0.07867143
-0.024344137 -0.16466662 -0.13890535 0.039836396 -0.026718546 -0.1228164 -0.009491484 0.096278146
0.134487 0.036656417 0.042534404 -0.19063069 0.062623 -0.010067191 0.19845542 -0.06559709
0.079831816 0.1443493 0.0061749704 0.17610864 -0.16539873 -0.16164733 -0.0034794572 0.05707829
0.14111963 0.05953036 0.14594954 -0.05717876 0.1485298 -0.012392071 -0.090883896 0.027560966
-0.039893713 0.08205296 -0.1630151 -0.16162577 0.056227643 0.0055487463 0.038161878 0.026020598
0.08267959 0.0025271652 0.18299687 0.1320879 -0.11744423 -0.0027521872 -0.027658382 -0.02474896
0.044674106 0.117053024 -0.070953526 -0.14146142 -0.17603762 0.15592971 -0.10683548 -0.07744324
0.025423713 0.09704524 -0.12974055 -0.13464324 -0.17560495 -0.20325851 0.1245198 -0.14082052
0.056384828 -0.17007093 -0.04072373 -0.08383276 0.030075694 -0.09366629 -0.1902505 -0.1782075
-0.16260843 0.057279058 0.17139249 -0.061185423 0.045206275 0.17993733 -0.090260856 0.09934624
-0.111699104 0.13632672 -0.038190886 0.024938006 -0.11633957 -0.048709217 -0.11741313 0.031233368
00000000: 4420 37be a776 3abd 161b 903c 7f55 43bc
00000010: 7127 143e 243c 34bd fc01 ca3c cf17 26be
00000020: 7f77 f13d 771b b5bd 828c c9bd 68a0 813d
00000030: 8f2e 17be 824a 513e 4f07 c8bd 4473 fdbd
00000040: 87ce 29be 729b 88bd 2b1e f03d 5e40 0ebe
00000050: bc3a 47be 15f5 f4bd d8a6 f63d 1279 08be
00000060: b4c8 f5bd a1f1 453e e823 c4bd 094a 88bd
00000070: e54c 1d3e 48a4 983d 91c4 a7bd 6ff3 033e
00000080: da77 363e 9d3f a63d b9ba 9b3b 8e18 7dbd
00000090: b9db e2bc 7d5d d6bd 80c7 b03d 4c8c 44be
000000a0: 811e f03d fada 93bd 5edd 243e 51f3 323e
000000b0: 6b71 1cbe 5c75 703a 3551 403d 041e ffbd
000000c0: 8f90 293e 4f64 0abe 1031 093e 80b0 1dbe
000000d0: 4921 72bd 06da c6bd 7171 39be 8cd1 1ebe
000000e0: 76f8 bf3d 1fd4 b7bc 0e9f 0cbe ddc0 fe3d
000000f0: 403f 203e ad45 dabb b84a 41be d9f3 363e
00000100: 7436 883d 8b93 a6ba 079e b73b 55fb bdbc
00000110: 4db4 3cbd 7774 a5bd cd5b 813d dab7 07bc
00000120: 6aed ec3a 44f2 043e 0aef 9cbd 3e26 dd3d
00000130: 9b00 6a3c 198e 62ba 34d8 093d cd61 8fbd
00000140: c76f 4dbe 50fc 40be 1d7b 073e 796c 33bd
00000150: 9e4f 88bd 2312 383e fa8e 693d f9b7 8c3d
00000160: 63b1 bebd 8ba9 85bd bd1f 51be c07d bcbd
00000170: 3a26 19be 149e b4bd 1b36 c23c c4f8 0cbe
00000180: 9018 a0bd 6423 1bbe a2c7 6fbd 12d9 38be
00000190: 33e8 4a3e 8df2 15ba c18d 013e 6030 0f3e
000001a0: bed5 a83d 0937 53be 8e88 cc3d 5eef c9bd
000001b0: d990 25bc bf9f e23d 746f 953d a2c4 f4bc
000001c0: 94c5 003c e978 1f3e d2cf 23be 8bb7 523e
000001d0: 06e2 283e 7d3d d0bc e112 343a 5a06 a4bd
000001e0: 4e8b ef3d 59a2 2cbe b049 fbbd ff05 80bc
000001f0: ae24 2e3e b09e 8abd 3063 443e b607 113e
00000200: fc7d 563e fbdf f73d 2604 b03d 853d 33be
00000210: dc43 03bb db10 7cbd 00a0 fa3d 21c2 253e
00000220: 69f3 14be 6b43 393e 9d0f f7bd 9bab 8f3d
00000230: 6095 263d 55a4 cbbd 5874 643d e6ed e3bd
00000240: 017d 013d cfbf 103e e83b d33d a487 b7bc
00000250: 08f0 1d3e 9da8 efbd 6147 8dbd c11d e83c
00000260: 6995 0cbd 2c07 48bd a824 3fbe 3f26 bbbd
00000270: 6fa6 0fbe c9e6 4c3e 3bfe 0b3e ddc8 103d
00000280: d4f4 cebd b808 9dbd 5c93 84bd 5e14 3d3d
00000290: c1d2 0f3e 11d0 e9bd 93f1 17be 7d1e a1bd
000002a0: 5b6d c7bc 5e9e 28be 343d 0ebe 7d2b 233d
000002b0: dae0 dabc 2a87 fbbd 2b82 1bbc 7a2d c53d
000002c0: f6b6 093e 0a25 163d 8e38 2e3d b134 43be
000002d0: 7d40 803d dcf0 24bc e637 4b3e c457 86bd
000002e0: dd7e a33d 4ed0 133e 6857 ca3b d355 343e
000002f0: 495e 29be e186 25be 9b07 64bb edca 693d
00000300: aa81 103e 1bd6 733d cc73 153e 4734 6abd
00000310: 3218 183e 1d08 4bbc 5621 babd 89c7 e13c
00000320: 9767 23bd 620b a83d 6eed 26be 3a81 25be
00000330: f54e 663d 42d2 b53b a14f 1c3d 2629 d53c
00000340: eb53 a93d cc9e 253b 8863 3b3e 0d42 073e
00000350: 9a86 f0bd 0a5e 34bb d593 e2bc 55be cabc
00000360: 32fc 363d 7fb9 ef3d 1550 91bd 43db 10be
00000370: 3543 34be 0aac 1f3e 8fcc dabd 909a 9ebd
00000380: 6445 d03c a8bf c63d b5da 04be ebdf 09be
00000390: c9d1 33be 0023 50be 3d04 ff3d 4133 10be
000003a0: c7f3 663d 1327 2ebe edcd 26bd 83b0 abbd
000003b0: 4d61 f63c 1dd4 bfbd 07d1 42be 077c 36be
000003c0: d382 26be 729d 6a3d 8381 2f3e 919d 7abd
000003d0: 372a 393d 7e41 383e afda b8bd 0b76 cb3d
000003e0: 80c2 e4bd 3b99 0b3e 0c6e 1cbd ca4a cc3c
000003f0: 7143 eebd 5183 47bd 4c76 f0bd 1fdd ff3c

fc1.bias f4 [64]
0.15817575 0.15403284 -0.18422447 0.16667697 -0.022612521 -0.015058424 -0.1863012 -0.1921982
0.063153 0.021737237 0.09155418 -0.17494537 0.086008064 -0.01749003 -0.124692306 -0.076502495
0.055579733 -0.18366289 -0.06988868 -0.05087623 0.1897024 -0.023197714 0.12879813 0.16698985
0.19133937 -0.020318236 -0.019809492 -0.06533575 0.13622847 -0.072649 0.14535782 -0.17319034
-0.013379915 0.10513088 -0.0012234753 -0.06489843 -0.20523964 -0.014873242 -0.19522612 -0.026113283
0.18015042 -0.048419055 -0.1521624 -0.09875827 0.11831481 0.08421653 0.1417323 -0.12912017
-0.21194477 0.121867694 0.14672206 0.10024168 0.0072761215 -0.19180098 -0.19018967 0.057464063
0.1899986 -0.012153134 0.18589233 -0.019644842 -0.07092535 0.114137426 -0.05152105 0.009494569
00000000: d3f8 213e c9ba 1d3e 57a5 3cbe 5ead 2a3e
00000010: e53d b9bc 9cb7 76bc bec5 3ebe 9bcf 44be
00000020: 5c56 813d 4a12 b23c c280 bb3d e124 33be
00000030: ff24 b03d 4047 8fbc ae5e ffbd 57ad 9cbd
00000040: 93a7 633d 2012 3cbe cc21 8fbd 9863 50bd
00000050: 5941 423e 2209 bebc a8e3 033e 63ff 2a3e
00000060: 78ee 433e 6e72 a6bc 8447 a2bc c0ce 85bd
00000070: 7a7f 0b3e 00c9 94bd aed8 143e cf58 31be
00000080: 6e37 5bbc dc4e d73d 055d a0ba 78e9 84bd
00000090: 572a 52be e6ae 73bc 5be9 47be 86eb d5bc
000000a0: 5a79 383e 0f53 46bd 76d0 1bbe c741 cabd
000000b0: 094f f23d b779 ac3d 4622 113e 1438 04be
000000c0: 0d08 59be c595 f93d 4f3e 163e 834b cd3d
000000d0: 886c ee3b 7a67 44be 15c1 42be 705f 6b3d
000000e0: fe8e 423e f01d 47bc 8f5a 3e3e 38ee a0bc
000000f0: 4f41 91bd e2c0 e93d bd07 53bd 1c8f 1b3c

fc2.weight f4 [64, 64]
0.031360943 -0.03917951 0.07562643 0.084980056 -0.07745978 -0.050749943 -0.11402936 0.11099281
-0.067785285 0.07896606 0.100900725 0.055400956 0.030054417 -0.07818191 0.029005079 -0.11941968
-0.03906363 -0.1146532 0.10596806 -0.023932487 0.10719122 0.024274811 -0.046228323 0.03787396
0.08408126 0.1110015 -0.070776716 0.09502103 0.11270106 -0.061919905 0.042279914 0.07274368
-0.1258106 -0.09335685 0.05001985 0.11122663 0.114226565 -0.11898743 -0.035356075 0.09349179
-0.075683616 0.05804061 0.07936816 -0.03421978 0.10550494 0.0055442047 -0.021336846 -0.1062682
-0.07793291 0.103845075 0.11050862 -0.12820365 -0.12096173 0.085209 0.0016432571 0.052182555
0.0705809 -0.04673156 -0.025483456 -0.014760939 -0.011810368 -0.09221342 -0.08817026 -0.045006596
-0.11811447 0.011336119 0.11138054 0.059135724 0.07336018 -0.010431035 -0.10335794 0.098024614
0.03189779 -0.04351288 0.00074258837 0.120225236 0.08676404 -0.0043966225 -0.024308324 -0.10020518
-0.001701442 -0.025019605 0.10508495 0.05782771 -0.0037301704 0.08892635 0.09875344 -0.06531998
0.0026247024 0.077298224 0.003590514 0.09590387 -0.0005232647 -0.017878046 -0.081659004 -0.04201419
0.03330841 0.08305208 0.070190415 0.11255577 0.025521537 -0.11263542 -0.12016632 -0.02471609
-0.018918654 -0.111298755 0.036423936 0.079823054 -0.099203825 -0.12824425 0.081611164 -0.095760465
0.12902477 -0.0036625757 0.027429653 0.012152503 -0.093216226 0.077031 -0.12270016 0.078865945
-0.013835752 0.10862425 -0.072047815 -0.0020246506 -0.09738859 0.12715863 -0.10664861 0.030422112
-0.020017004 0.04988697 -0.033088297 -0.08182344 0.09128903 -0.06897144 -0.10317597 0.011049307
0.11248617 -0.047030598 -0.051865734 0.0049619228 -0.056050427 -0.06593421 -0.04167348 0.027448744
-0.027815117 0.11229947 -0.040038228 -0.08437653 -0.094080485 0.08160949 0.09545179 0.06562075
0.039941587 0.054696392 -0.014076263 0.081556596 -0.088034496 -0.04526152 0.0068212748 -0.11222403
-0.029652148 -0.059049927 -0.03493838 -0.07131542 0.0832441 -0.008746918 -0.12206429 0.09610664
-0.030487664 -0.054545693 -0.060527444 -0.054390505 0.04358766 -0.020507788 -0.08123207 -0.12142387
-0.07257288 -0.025001537 0.024872709 0.04443502 -0.114293374 0.10044889 -0.028086348 -0.11197427
0.09619226 -0.11552889 -0.048514992 0.1071863 0.062024914 0.107100554 -0.029277239 0.06606716
0.0019561162 -0.10758631 0.0488246 0.0029121395 -0.03372406 -0.019365225 0.023111233 0.075670436
-0.12227158 0.112143636 0.07645034 -0.022433737 -0.10863832 0.0054323897 0.021437906 0.042222816
-0.040175203 0.015032271 0.041683376 0.08261073 -0.039397627 -0.056277417 -0.07888018 -0.060519755
0.020392781 -0.054280497 -0.029144986 -0.016464645 -0.06406176 0.078421615 0.05652323 -0.0615069
0.038396876 0.06259679 -0.08596799 0.03989276 -0.008176443 0.11606726 -0.11538242 -0.101351164
0.078915134 -0.041362774 0.0542546 -0.11625492 0.036226057 0.10931286 -0.040129896 0.09429793
-0.03214404 0.011064367 -0.09749318 0.07789422 0.058616355 0.04310309 -0.08308854 0.04522479
-0.025481518 0.012241595 -0.0759674 0.11707188 0.0077172937 0.031470314 0.03023599 0.068683386
00000000: 5574 003d b27a 20bd 08e2 9a3d 060a ae3d
00000010: 3ca3 9ebd 2cdf 4fbd 3a88 e9bd 3350 e33d
00000020: 03d3 8abd f5b8 a13d 0aa5 ce3d 1dec 623d
00000030: ae34 f63c d61d a0bd 0f9c ed3c 4e92 f4bd
00000040: 2f01 20bd 4ccf eabd c805 d93d 100e c4bc
00000050: 1287 db3d f8db c63c e959 3dbd ba21 1b3d
00000060: cc32 ac3d c154 e33d 62f3 90bd 639a c23d
00000070: d0cf e63d ba9f 7dbd b42d 2d3d a3fa 943d
00000080: 7ed4 00be e031 bfbd 9de1 4c3d caca e33d
00000090: 9eef e93d afaf f3bd 88d1 10bd a078 bf3d
000000a0: 0300 9bbd febb 6d3d c68b a23d 0a2a 0cbd
000000b0: f912 d83d 29ac b53b 9cca aebc 24a3 d9bd
000000c0: 4a9b 9fbd baac d43d 5852 e23d d147 03be
000000d0: c9ba f7bd 0e82 ae3d 8f62 d73a 60bd 553d
000000e0: b88c 903d 9869 3fbd aec2 d0bc ded7 71bc
000000f0: 4680 41bc 64da bcbd 9c92 b4bd d658 38bd
00000100: 00e6 f1bd 21bb 393c 7b1b e43d 4d38 723d
00000110: dd3d 963d efe6 2abc 54ad d3bd 21c1 c83d
00000120: 42a7 023d 903a 32bd 43aa 423a a638 f63d
00000130: 58b1 b13d 8b11 90bb 4022 c7bc 6038 cdbd
00000140: eb02 dfba eaf5 ccbc c736 d73d c0dc 6c3d
00000150: e075 74bb 051f b63d 3e3f ca3d 7bc6 85bd
00000160: 3303 2c3b 884e 9e3d d44e 6b3b 4069 c43d
00000170: b32b 09ba fb74 92bc d63c a7bd 1217 2cbd
00000180: 666e 083d 3517 aa3d febf 8f3d a483 e63d
00000190: 8b12 d13c 66ad e6bd c219 f6bd 6679 cabc
000001a0: 4bfb 9abc 9af0 e3bd 4431 153d 457a a33d
000001b0: 602b cbbd 7652 03be c123 a73d 101e c4bd
000001c0: 121f 043e d307 70bb 27b4 e03c 4b1b 473c
000001d0: 26e8 bebd 6ec2 9d3d 394a fbbd 7884 a13d
000001e0: 5aaf 62bc 6476 de3d ce8d 93bd 00b0 04bb
000001f0: ab73 c7bd df35 023e 966a dabd cb37 f93c
00000200: b3fa a3bc 4856 4c3d 9887 07bd 0c93 a7bd
00000210: bef5 ba3d e640 8dbd ec4d d3bd 2708 353c
00000220: 265f e63d 28a3 40bd 2a71 54bd a097 a23b
00000230: 2295 65bd 8408 87bd d0b1 2abd 30dc e03c
00000240: 87dc e3bc 44fd e53d 20ff 23bd 9acd acbd
00000250: 45ad c0bd e022 a73d 3a7c c33d 2c64 863d
00000260: ca99 233d 5309 603d 20a0 66bc 2507 a73d
00000270: 6e4b b4bd 2564 39bd 0085 df3b b6d5 e5bd
00000280: 10e9 f2bc 56de 71bd 8c1b 0fbd d20d 92bd
00000290: e27b aa3d 3c4f 0fbc d8fc f9bd 8fd3 c43d
000002a0: 44c1 f9bc 4e6b 5fbd a0eb 77bd 94c8 5ebd
000002b0: f988 323d f3ff a7bc 005d a6bd 14ad f8bd
000002c0: 17a1 94bd 06d0 ccbc dac1 cb3c 7f01 363d
000002d0: a512 eabd 26b8 cd3d 5715 e6bc c452 e5bd
000002e0: 7300 c53d 699a ecbd a8b7 46bd 7e84 db3d
000002f0: d60d 7e3d 8957 db3d d2d6 efbc 384e 873d
00000300: 2f32 003b 3656 dcbd 4efc 473d 98d9 3e3b
00000310: 3d22 0abd d2a3 9ebc c553 bd3c 1af9 9a3d
00000320: 8669 fabd 90ab e53d ff91 9c3d f5c6 b7bc
00000330: c47d debd 3002 b23b 8c9e af3c d5f1 2c3d
00000340: c18e 24bd ea49 763c 30bc 2a3d d02f a93d
00000350: 685f 21bd 2683 66bd ef8b a1bd 90e3 77bd
00000360: c30e a73c 3a55 5ebd 77c1 eebc dde0 86bc
00000370: d032 83bd 839b a03d e784 673d a9ee 7bbd
00000380: 0b46 1d3d bf32 803d fc0f b0bd 9766 233d
00000390: 7df6 05bc acb4 ed3d 9e4d ecbd 3391 cfbd
000003a0: 429e a13d 036c 29bd 123a 5e3d 0f17 eebd
000003b0: c661 143d 6cdf df3d 3f5f 24bd 461f c13d
000003c0: 78a9 03bd 5247 353c 81aa c7bd 0187 9f3d
000003d0: b417 703d de8c 303d 532a aabd a13d 393d
000003e0: 9ebe d0bc f990 483c cc94 9bbd 62c3 ef3d
000003f0: 5ae1 fc3b 04e7 003d 78b1 f73c e0a9 8c3d

fc2.bias f4 [64]
-0.06012832 -0.08142542 -0.04654223 0.056360975 0.099391736 -0.046536766 0.08472973 -0.070517965
-0.0307838 0.008242046 -0.07049903 -0.060039375 -0.044374708 -0.09778292 -0.010806948 -0.021963961
0.07545299 0.08802055 0.082614005 0.06364452 -0.09368034 0.029311411 -0.06271923 0.0056703435
-0.09433823 0.051452365 -0.061784565 0.089362316 -0.05665875 0.101743996 -0.1302932 -0.019373797
-0.057546645 -0.033875335 0.09503323 -0.082246676 0.10023699 -0.08277028 -0.11555732 0.07683212
0.029035602 -0.07841106 0.023269504 0.05627483 0.090288416 0.123683386 0.09493105 0.0628005
0.020054953 0.029022703 -0.05717369 0.07360632 0.05261473 0.110355295 -0.017250255 0.056691937
-0.018621955 0.09591934 -0.11316399 -0.005045725 -0.12730283 -0.03543958 -0.12111192 0.09896902
00000000: 1d49 76bd 5fc2 a6bd 11a3 3ebd c4da 663d
00000010: e58d cb3d 569d 3ebd c886 ad3d b96b 90bd
00000020: 4f2e fcbc a609 073c cc61 90bd d9eb 75bd
00000030: 41c2 35bd 6942 c8bd a00f 31bc c4ed b3bc
00000040: 1987 9a3d 1e44 b43d 8831 a93d 0f58 823d
00000050: 7adb bfbd 7c1e f03c f172 80bd 4ace b93b
00000060: 6734 c1bd b7bf 523d d011 7dbd 9703 b73d
00000070: 0113 68bd 285f d03d 956b 05be ccb5 9ebc
00000080: 08b6 6bbd ddc0 0abd c8a0 c23d f270 a8bd
00000090: 0d49 cd3d 7783 a9bd 51a9 ecbd 295a 9d3d
000000a0: 12dc ed3c fa95 a0bd b09f be3c 7080 663d
000000b0: 22e9 b83d b74d fd3d 366b c23d 8c9d 803d
000000c0: 494a a43c 05c1 ed3c f62e 6abd e9be 963d
000000d0: 8b82 573d f501 e23d 6850 8dbc ce35 683d
000000e0: 128d 98bc 5c71 c43d 86c2 e7bd 9c56 a5bb
000000f0: ac5b 02be 1829 11bd 8709 f8bd 45b0 ca3d

fc3.weight f4 [4, 64]
0.06400984 0.07667447 0.004363364 -0.012002314 0.10587056 -0.11624748 0.05348256 0.11929094
0.035671063 -0.0052965395 0.085782014 -0.0017827828 0.006280169 -0.10740634 -0.03662917 -0.023408564
-0.08691595 -0.11425794 0.0052448134 -0.032378398 -0.08675193 -0.04206659 -0.025976965 -0.0936918
0.10997413 -0.12406683 -0.09594737 -0.10023046 -0.09942981 -0.006880354 -0.10584502 0.030128857
0.059003785 -0.04322273 -0.05376051 0.04494991 0.060604434 -0.04175271 0.040991455 -0.0013660573
-0.07646478 0.0884866 0.082768425 -0.118166976 0.111303695 -0.089146785 -0.06029603 -0.036697417
0.039724812 0.10110241 -0.038705777 0.07373582 0.015347843 0.055161025 -0.06656253 0.01794983
-0.07406139 -0.061986234 0.07243904 0.017364709 0.11338508 0.0633969 -0.096372515 0.03752255
0.047528815 0.040080912 0.01713643 -0.0830894 0.02888901 -0.06196806 -0.036096483 -0.0025157616
-0.027861293 -0.039930217 0.06791791 0.09432928 0.0021129288 0.12586203 -0.11291753 -0.00247797
0.015558809 0.058909185 -0.017142242 -0.00524642 0.0192419 -0.025057599 0.12177162 0.02395144
-0.03128737 0.043172814 0.10459234 0.017673174 -0.0105609065 0.06830692 -0.09783925 0.122672446
-0.06974469 -0.11011304 0.10007855 -0.0052986736 0.022094782 0.041850816 -0.07227908 -0.07278977
-0.10123399 0.07204728 0.111208335 -0.0043054167 0.05153662 -0.09495509 -0.032303743 0.0345507
-0.12020333 0.04291897 -0.005945896 -0.09735303 0.12084269 0.045513164 0.10055331 -0.12195833
-0.062241405 0.12328267 0.03252829 -0.104903154 -0.05339786 -0.064046964 -0.011603666 0.04193974
0.016421717 0.052464664 -0.025539923 0.072046734 -0.035154756 0.0059579257 -0.010885844 -0.09656612
-0.12669024 0.033169 0.07882228 -0.10478776 -0.033998653 0.007913874 -0.063969105 0.025299259
-0.049898215 -0.09868042 0.06444545 0.07966382 0.04866436 -0.0319787 -0.11200524 0.02016287
0.0010598584 -0.03058894 -0.07294139 0.058989216 0.08966574 -0.036435165 -0.06464316 0.013241699
0.0887675 0.041561462 0.08211545 -0.124384895 -0.04636799 -0.1077678 0.045312833 0.0030463971
-0.017558888 0.088667706 0.11750059 -0.01918313 0.11542791 -0.1128144 -0.05321505 -0.07389683
0.021407349 0.11300552 -0.04262367 -0.11149462 0.035890944 -0.03422379 -0.04120218 0.009718358
0.08081834 0.10277207 -0.064124525 0.060732827 0.098902114 0.10605 0.07017181 0.08113128
0.029159315 -0.09258826 -0.06823774 -0.10481996 -0.07275348 0.049622186 -0.04907104 -0.045873307
-0.016438462 -0.12076223 -0.09033955 0.09957363 0.11183755 0.012047253 -0.04473351 0.08431355
-0.02705234 0.014582586 0.070354536 -0.03524679 0.045488283 0.07512611 0.087833844 -0.09451792
-0.0266352 0.0073952116 -0.07123619 0.109079726 -0.055538453 -0.085020274 0.02991587 -0.11611657
-0.11970946 0.0336443 0.042084124 -0.033194378 0.027843982 0.09170549 -0.022984924 0.11012622
-0.116539314 -0.11349702 -0.03721963 -3.114657e-05 0.060016036 0.051924575 -0.01741788 0.05765983
0.0053053144 -0.110050485 0.10752922 -0.0028631985 0.0029173768 0.006003819 -0.10268752 0.02779318
0.10643024 0.0034345733 -0.023591189 0.10151914 -0.09469755 -0.020488888 0.05707356 -0.07100074
00000000: 9717 833d 8107 9d3d 8dfa 8e3b 5ba5 44bc
00000010: aad2 d83d 2913 eebd 8710 5b3d cf4e f43d
00000020: d21b 123d 988e adbb 7bae af3d 44ac e9ba
00000030: e0c9 cd3b dbf7 dbbd 7808 16bd 51c3 bfbc
00000040: fd00 b2bd 1100 eabd afdc ab3b 369f 04bd
00000050: ffaa b1bd 044e 2cbd a5cd d4bc 7de1 bfbd
00000060: 1e3a e13d c016 febd 0e80 c4bd a145 cdbd
00000070: dba1 cbbd 9874 e1bb 46c5 d8bd cbd0 f63c
00000080: f4ad 713d 510a 31bd fb33 5cbd 661d 383d
00000090: 5b3c 783d e404 2bbd a8e6 273d 470d b3ba
000000a0: 9199 9cbd 7638 b53d 7e82 a93d 8701 f2bd
000000b0: 31f3 e33d 9792 b6bd f8f8 76bd 0850 16bd
000000c0: 7cb6 223d c80e cf3d f389 1ebd ce02 973d
000000d0: 8575 7b3c 87f0 613d f051 88bd 860b 933c
000000e0: 7fad 97bd 47e5 7dbd eb5a 943d 6f40 8e3c
000000f0: 7036 e83d 3cd6 813d f45e c5bd 3fb1 193d
00000100: 93ad 423d e22b 243d b361 8c3c c62a aabd
00000110: a5a8 ec3c 38d2 7dbd e8d9 13bd 7adf 24bb
00000120: 5e3d e4bc de8d 23bd 8c18 8b3d b62f c13d
00000130: 1079 0a3b fae1 003e 4e41 e7bd 7065 22bb
00000140: 60ea 7e3c c24a 713d e36d 8cbc 29ea abbb
00000150: 30a1 9d3c 9845 cdbc 6663 f93d cf35 c43c
00000160: 2f27 00bd fad5 303d 8234 d63d 55c7 903c
00000170: a707 2dbc 80e4 8b3d f25f c8bd b13b fb3d
00000180: 4ed6 8ebd f282 e1bd fcf5 cc3d 7fa0 adbb
00000190: 1e00 b53c c36b 2b3d 0e07 94bd ce12 95bd
000001a0: c453 cfbd 868d 933d 32c1 e33d 7414 8dbb
000001b0: 1018 533d d077 c2bd ee50 04bd 0985 0d3d
000001c0: 2a2d f6bd cdcb 2f3d cad5 c2bb 0761 c7bd
000001d0: 5f7c f73d 036c 3a3d e5ee cd3d 4ac5 f9bd
000001e0: d8f0 7ebd a07b fc3d 623c 053d 77d7 d6bd
000001f0: b7b7 5abd 0e2b 83bd 4d1d 3ebc 01c9 2b3d
00000200: d686 863c 30e5 563d 1a39 d1bc 3d8d 933d
00000210: 6ffe 0fbd b43a c33b 8a5a 32bc 75c4 c5bd
00000220: 16bb 01be 38dc 073d 936d a13d f79a d6bd
00000230: 2c42 0bbd 32a9 013c 3c02 83bd 6440 cf3c
00000240: 1262 4cbd f618 cabd fafb 833d c926 a33d
00000250: 4854 473d 19fc 02bd 0163 e5bd 9a2c a53c
00000260: f2ea 8a3a a895 fabc 4c62 95bd ad9e 713d
00000270: aca2 b73d 0a3d 15bd a263 84bd b6f3 583c
00000280: bccb b53d 5a3c 2a3d 252c a83d 82bd febd
00000290: 5dec 3dbd 5db5 dcbd f399 393d 10a6 473b
000002a0: a8d7 8fbc 6a97 b53d 26a4 f03d f025 9dbc
000002b0: 7865 ec3d 3c0b e7bd 06f8 59bd 3957 97bd
000002c0: 775e af3c 706f e73d 2896 2ebd 4b57 e4bd
000002d0: 6202 133d 3f2e 0cbd 9ec3 28bd bf39 1f3c
000002e0: 1684 a53d 2a7a d23d b853 83bd fcc2 783d
000002f0: 318d ca3d be30 d93d 3db6 8f3d 2828 a63d
00000300: 84df ee3c ea9e bdbd 3ac0 8bbd d9ab d6bd
00000310: c7ff 94bd a240 4b3d b7fe 48bd a6e5 3bbd
00000320: f4a9 86bc 3052 f7bd f103 b9bd 42ed cb3d
00000330: 160b e53d d761 453c 7c3a 37bd 95ac ac3d
00000340: de9c ddbc cceb 6e3c 0a16 903d f05e 10bd
00000350: ec51 3a3d b8db 993d 3be2 b33d 9c92 c1bd
00000360: 1032 dabc 8853 f23b 48e4 91bd 3165 df3d
00000370: 4a7c 63bd 1c1f aebd 2012 f53c 86ce edbd
00000380: 3c2a f5bd 9bce 093d 6760 2c3d d4f6 07bd
00000390: 1019 e43c 17d0 bb3d e14a bcbc db89 e13d
000003a0: 2aac eebd 2071 e8bd 9c73 18bd 60a3 02b8
000003b0: 60d3 753d ddae 543d f1af 8ebc b72c 6c3d
000003c0: 34d8 ad3b 2662 e1bd 4838 dc3d 80a4 3bbb
000003d0: 7631 3f3b afbb c43b d64d d2bd 86ae e33c
000003e0: 19f8 d93d 9416 613b 4f42 c1bc 44e9 cf3d
000003f0: caf0 c1bd 50d8 a7bc f7c5 693d d668 91bd

fc3.bias f4 [4]
0.087360114 -0.103061534 0.05679352 -0.038406786
00000000: dce9 b23d ed11 d3bd 52a0 683d 6f50 1dbd

fc1.weight f4 [64, 24]
-0.18190667 -0.046203468 0.022288775 -0.01857074 0.13838206 -0.038499508 0.017591147 -0.16523032
0.109672695 -0.08924013 -0.09064587 0.062203422 -0.15322125 0.20327531 -0.10431962 -0.116081774
-0.16944773 -0.069293305 0.10887772 -0.13421969 -0.20356373 -0.11960808 0.11173063 -0.13933994
-0.11558661 0.19357446 -0.09720991 -0.07359719 0.16002953 0.08147163 -0.08169501 0.12091287
0.17120405 0.08163491 -0.0030292768 -0.06288189 -0.032585155 -0.105229594 0.07927028 -0.19648796
0.11667784 -0.06542269 0.15231101 0.17331678 -0.15422739 0.0038226703 0.041295547 -0.12384688
0.15908921 -0.14117758 0.13375354 -0.1539936 -0.06506572 -0.098340295 -0.1810968 -0.15570998
0.09073177 -0.028941311 -0.1373255 0.124391295 0.15593943 -0.0069139977 -0.18876159 0.17835987
0.07104334 -0.007678848 0.0034480076 -0.02341381 -0.046070386 -0.080788545 0.056649763 -0.008682459
-0.00033653225 0.1382694 -0.076627806 0.10004072 0.01042846 0.0050981594 0.034006108 -0.06290053
-0.19388114 -0.18046871 0.124524176 -0.042715188 -0.070454836 0.18798499 0.049078736 0.060711876
-0.093111776 -0.056414265 -0.19796944 -0.092036724 -0.14955989 -0.09391033 0.032146763 -0.12943485
-0.07619739 -0.15511166 -0.06377899 -0.17388755 0.19273819 -0.0018616584 0.12760787 0.14419469
0.07856906 -0.19900437 0.09719484 -0.09751035 -0.0156148765 0.114518195 0.0795945 -0.022015195
0.011406155 0.15057696 -0.16552787 0.2005414 0.16990483 -0.025964132 -0.002355385 -0.085802875
0.112986624 -0.17861739 -0.1237803 -0.022496974 0.164762 -0.07338055 0.19143277 0.1316535
0.19953603 0.110996634 0.094364345 -0.17394896 -0.0088390205 -0.07152164 0.11550753 0.16001149
-0.14436895 0.1709504 -0.1298246 0.06903853 0.045304757 -0.09682011 0.04579951 -0.1206535
0.03350316 0.13953009 0.103141606 -0.016462194 0.16097417 -0.11702082 -0.0689838 0.026508788
-0.031772584 -0.05066696 -0.18666327 -0.09138154 -0.13372095 0.1982811 0.14265336 0.03534781
-0.09890828 -0.07895871 -0.06903948 0.046162 0.13863456 -0.11416639 -0.14838247 -0.080571026
-0.02540541 -0.16358243 -0.14593369 0.031126799 -0.022857254 -0.11855946 -0.012698313 0.08887415
0.12836483 0.035618566 0.03481534 -0.19063069 0.055219248 -0.01624122 0.18974778 -0.062118936
0.08208498 0.13703553 -0.0022863508 0.16908255 -0.1666805 -0.16738106 -0.0065027615 0.049392276
0.14394589 0.049785797 0.14545985 -0.06373147 0.14151086 -0.005757816 -0.09067071 0.017947072
-0.048172265 0.07265006 -0.16877955 -0.1627166 0.050457083 -0.0038124018 0.03161072 0.021737112
0.08188732 -0.0062554358 0.17430328 0.13159814 -0.120387726 -0.0012516663 -0.036336478 -0.029748453
0.044674106 0.11919765 -0.070953526 -0.14146142 -0.17603762 0.15592971 -0.10683548 -0.075298615
0.027568342 0.09918987 -0.12974055 -0.13464324 -0.17560495 -0.20111388 0.1245198 -0.14082052
0.058529455 -0.17007093 -0.038579103 -0.08383276 0.032220323 -0.09366629 -0.1902505 -0.17606287
-0.16060622 0.06571525 0.17891397 -0.06529429 0.039301805 0.18751077 -0.08988747 0.10807505
-0.10406482 0.14498655 -0.03959062 0.023848576 -0.10881521 -0.03963892 -0.12152201 0.031600647
00000000: be45 3abe d93f 3dbd f396 b63c aa21 98bc
00000010: 07b4 0d3e a9b1 1dbd 4f1b 903c 2332 29be
00000020: 149c e03d 87c3 b6bd 8ba4 b9bd 04c9 7e3d
00000030: 08e6 1cbe 6727 503e 86a5 d5bd 48bc edbd
00000040: b583 2dbe a6e9 8dbd 48fb de3d e370 09be
00000050: 0373 50be 15f5 f4bd 07d3 e43d 21af 0ebe
00000060: acb8 ecbd 6238 463e fd15 c7bd 20ba 96bd
00000070: c8de 233e 99da a63d b74f a7bd 2ba1 f73d
00000080: 1d50 2f3e 3430 a73d d586 46bb 38c8 80bd
00000090: 0378 05bd 9d82 d7bd 7558 a23d 2434 49be
000000a0: cbf4 ee3d 55fc 85bd 6bf7 1b3e f479 313e
000000b0: c9ed 1dbe c485 7a3b 8525 293d 6fa3 fdbd
000000c0: 48e8 223e db90 10be b0f6 083e 80b0 1dbe
000000d0: 2d41 85bd a366 c9bd 7171 39be 7072 1fbe
000000e0: 94d1 b93d 5416 edbc 0e9f 0cbe ddc0 fe3d
000000f0: 96ae 1f3e d18e e2bb b84a 41be f8a3 363e
00000100: 2c7f 913d d99e fbbb f8f7 613b 52ce bfbc
00000110: 4db4 3cbd 7774 a5bd 9509 683d df40 0ebc
00000120: 9870 b0b9 7e96 0d3e 0aef 9cbd 26e2 cc3d
00000130: 22dc 2a3c 760e a73b fd49 0b3d fed1 80bd
00000140: c788 46be cacc 38be 8806 ff3d 1ff6 2ebd
00000150: a04a 90bd 237f 403e c906 493d 04ad 783d
00000160: 63b1 bebd a512 67bd 80b8 4abe c07d bcbd
00000170: 3a26 19be 0f54 c0bd 53ac 033d 928a 04be
00000180: 610d 9cbd 97d5 1ebe 8f9e 82bd 940f 32be
00000190: 295d 453e e402 f4ba a3ab 023e c6a7 133e
000001a0: d1e8 a03d cdc7 4bbe 170e c73d 82b3 c7bd
000001b0: 8ad5 7fbc 8488 ea3d 7102 a33d 3659 b4bc
000001c0: e2e0 3a3c d930 1a3e 2380 29be ba5a 4d3e
000001d0: 88fb 2d3e bbb2 d4bc ce5c 1abb 6bb9 afbd
000001e0: 8865 e73d 7ae7 36be 8780 fdbd 934b b8bc
000001f0: 5fb7 283e 8b48 96bd f406 443e 2dd0 063e
00000200: 2c53 4c3e 3452 e33d 1842 c13d ad1f 32be
00000210: 8ad1 10bc f079 92bd 368f ec3d 0dda 233e
00000220: 74d5 13be 9f0d 2f3e bdf0 04be 1364 8d3d
00000230: 7b91 393d 9f49 c6bd 4498 3b3d 2f19 f7bd
00000240: 9c3a 093d fae0 0e3e e83b d33d b9db 86bc
00000250: 6ad6 243e 9da8 efbd 6147 8dbd f528 d93c
00000260: f823 02bd 2988 4fbd a824 3fbe 3f26 bbbd
00000270: 25ee 08be 330a 4b3e b913 123e ddc8 103d
00000280: 6d90 cabd 1bb5 a1bd 9264 8dbd 5e14 3d3d
00000290: 38f6 0d3e 11d0 e9bd 93f1 17be 6c02 a5bd
000002a0: 021f d0bc 2782 27be a46f 15be a1fd fe3c
000002b0: 233f bbbc 4dcf f2bd 960c 50bc a603 b63d
000002c0: 1272 033e c6e4 113d 889a 0e3d b134 43be
000002d0: 942d 623d 4f0c 85bc 3e4d 423e 6d70 7ebd
000002e0: 2c1c a83d 0b53 0c3e 9ad6 15bb fa23 2d3e
000002f0: 4bae 2abe f165 2bbe 1e15 d5bb 8e4f 4a3d
00000300: 8d66 133e 31ec 4b3d 6df3 143e a585 82bd
00000310: 39e8 103e 10ac bcbb 91b1 b9bd bd05 933c
00000320: 4850 45bd 8ec9 943d 8cd4 2cbe 2e9f 26be
00000330: 16ac 4e3d 7dd9 79bb 3e7a 013d 0712 b23c
00000340: 8ab4 a73d 66fa ccbb 8f7c 323e aac1 063e
00000350: d78d f6bd f40e a4ba 8fd5 14bd 07b3 f3bc
00000360: 32fc 363d e61d f43d 1550 91bd 43db 10be
00000370: 3543 34be 0aac 1f3e 8fcc dabd 2936 9abd
00000380: 01d7 e13c 0f24 cb3d b5da 04be ebdf 09be
00000390: c9d1 33be ccf0 4dbe 3d04 ff3d 4133 10be
000003a0: 95bc 6f3d 1327 2ebe 1f05 1ebd 83b0 abbd
000003b0: 75f9 033d 1dd4 bfbd 07d1 42be d349 34be
000003c0: f575 24be b895 863d 3935 373e 03b9 85bd
000003d0: eefa 203d d302 403e ec16 b8bd 7456 dd3d
000003e0: f01f d5bd 5b77 143e c629 22bd 175e c33c
000003f0: 82da debd 6c5c 22bd 88e0 f8bd ae6f 013d

fc1.bias f4 [64]
0.14942914 0.14642596 -0.18527733 0.17492683 -0.02633838 -0.025046125 -0.18811904 -0.19971217
0.053854626 0.023881866 0.1005332 -0.16764462 0.081249565 -0.015495959 -0.12618637 -0.080237605
0.060408484 -0.18318908 -0.06882647 -0.05087623 0.18982151 -0.0229231 0.12103055 0.17637351
0.20108502 -0.015603562 -0.013304509 -0.05703046 0.12656449 -0.07470619 0.1546494 -0.18251374
-0.023136264 0.10344271 0.0022773475 -0.060242508 -0.2031375 -0.024673069 -0.19522612 -0.034612257
0.17067847 -0.047077794 -0.14617234 -0.09530467 0.10851863 0.07449076 0.15103321 -0.12325548
-0.20345014 0.12914696 0.15624924 0.109286524 0.0010180405 -0.18581851 -0.18664199 0.06392774
0.19756216 -0.002691966 0.191052 -0.020192785 -0.077791944 0.10428959 -0.045072593 0.01890732
00000000: f403 193e b0f0 153e 57b9 3dbe 0520 333e
00000010: 96c3 d7bc 882d cdbc 47a2 40be 5981 4cbe
00000020: ab96 5c3d e7a3 c33c 5ae4 cd3d 08ab 2bbe
00000030: 2c66 a63d c3e2 7dbc 0037 01be 9d53 a4bd
00000040: e36e 773d eb95 3bbe e4f4 8cbd 9863 50bd
00000050: 9260 423e 3ac9 bbbc ddde f73d 429b 343e
00000060: 3be9 4d3e 15a6 7fbc 28fb 59bc c698 69bd
00000070: 1f9a 013e 8fff 98bd 6a5c 1e3e e2e4 3abe
00000080: 4388 bdbc c6d9 d33d 8d3f 153b d9c0 76bd
00000090: 4703 50be 2d1f cabc 5be9 47be 95c5 0dbd
000000a0: 56c6 2e3e a5d4 40bd 34ae 15be 182f c3bd
000000b0: 043f de3d 9d8e 983d 73a8 1a3e 5e6d fcbd
000000c0: 3c55 50be 1a3f 043e cdff 1f3e 9dd1 df3d
000000d0: c56f 853a 3547 3ebe 141f 3fbe 8cec 823d
000000e0: bc4d 4a3e b26b 30bb 23a3 433e 576b a5bc
000000f0: 6251 9fbd c895 d53d 0a9e 38bd 86e3 9a3c

fc2.weight f4 [64, 64]
0.04077606 -0.029530048 0.07574126 0.09472504 -0.067487344 -0.04085061 -0.10543974 0.11961928
-0.05833611 0.081110656 0.11064574 0.05934623 0.03976226 -0.06837535 0.030667469 -0.11502622
-0.02936168 -0.11434314 0.11538458 -0.023932487 0.1169727 0.03309296 -0.036499217 0.047360778
0.093586236 0.11949432 -0.061640576 0.10461496 0.12262377 -0.053141102 0.052049622 0.082600236
-0.11622821 -0.0848193 0.058388412 0.12104328 0.11145903 -0.10996702 -0.035356075 0.103126034
-0.06592965 0.06727356 0.08527981 -0.025912821 0.11517352 0.015362412 -0.012713671 -0.096374646
-0.07009576 0.11242552 0.12010446 -0.11858021 -0.11241603 0.091086954 0.011315465 0.0620922
0.080471426 -0.03712158 -0.021938741 -0.014429167 -0.0022260249 -0.08255175 -0.079338536 -0.03669566
-0.124676675 0.01726672 0.10542177 0.05312884 0.06500341 -0.0044989586 -0.10939756 0.103966415
0.037822425 -0.04351288 -0.0053111017 0.11613664 0.08314739 -0.0121907 -0.024308324 -0.10020518
-0.009233072 -0.02936253 0.11102675 0.05782771 0.0022075027 0.09486815 0.09875344 -0.059378177
-0.003317088 0.0832334 0.009528831 0.10183847 0.0053628683 -0.023344666 -0.07571761 -0.036077768
0.039250225 0.08899388 0.076121524 0.106601834 0.019582376 -0.106691495 -0.12016632 -0.01879163
-0.024857596 -0.10535708 0.036423936 0.08575687 -0.09327026 -0.1223121 0.087443024 -0.08987251
0.123083636 0.002279237 0.021423325 0.018094316 -0.0872723 0.077031 -0.11675836 0.08479124
-0.021003932 0.114557266 -0.07529439 -0.0020246506 -0.103426084 0.12121908 -0.10070698 0.024396822
-0.02101183 0.055802703 -0.033088297 -0.08182344 0.09716934 -0.06979747 -0.10317597 0.016966239
0.11842106 -0.047030598 -0.045954555 0.0049619228 -0.05015008 -0.064486116 -0.04167348 0.027448744
-0.029966414 0.10737209 -0.040038228 -0.08437653 -0.08821261 0.08160949 0.09545179 0.07154739
0.04589756 0.06062694 -0.008146554 0.087478265 -0.08209543 -0.039324805 0.0068212748 -0.10633828
-0.029652148 -0.05311957 -0.03493838 -0.07131542 0.0832441 -0.0028191656 -0.12206429 0.102013215
-0.02457264 -0.048603937 -0.054585993 -0.054390505 0.049503297 -0.014585987 -0.07530126 -0.11553857
-0.06667687 -0.019070506 0.028377801 0.050364867 -0.108357206 0.10044889 -0.022144556 -0.10604675
0.10208827 -0.10959117 -0.054011792 0.10617183 0.067940384 0.11294262 -0.023335442 0.0720153
0.0040011853 -0.101762965 0.0416867 -0.00046880543 -0.037131503 -0.017435431 0.02384922 0.07747421
-0.12173933 0.114288256 0.06982076 -0.0137373805 -0.10840678 0.0032502562 0.021938622 0.04594654
-0.046563372 0.0077899396 0.048401713 0.08261073 -0.033113435 -0.052923635 -0.08498114 -0.059311226
0.016183347 -0.05959615 -0.029936478 -0.01325421 -0.07001421 0.073521525 0.06508954 -0.06160395
0.043629676 0.069474295 -0.07996625 0.0398532 -0.0004235655 0.12150623 -0.11538242 -0.09991285
0.069998205 -0.04108487 0.04810804 -0.107473955 0.032606333 0.11063127 -0.040453166 0.08572236
-0.03321351 0.0153974295 -0.10279925 0.0808692 0.05970478 0.037163645 -0.07829872 0.044082686
-0.033724904 0.019117266 -0.07946433 0.11658017 0.005739391 0.02806054 0.034730926 0.067517
00000000: cc04 273d 00e9 f1bc 3c1e 9b3d 34ff c13d
00000010: ce36 8abd f852 27bd caf0 d7bd f4fa f43d
00000020: d8f1 6ebd 581d a63d 3c9a e23d 0815 733d
00000030: c0dd 223d 6008 8cbd 583a fb3c de92 ebbd
00000040: e887 f0bc bc2c eabd c04e ec3d 100e c4bc
00000050: 628f ef3d 7c8c 073d 3480 15bd 60fd 413d
00000060: 24aa bf3d 70b9 f43d d47a 7cbd 5e40 d63d
00000070: 2c22 fb3d 7caa 59bd fc31 553d 502a a93d
00000080: 0e09 eebd beb5 adbd b028 6f3d 8ae5 f73d
00000090: a244 e43d 6436 e1bd 88d1 10bd be33 d33d
000000a0: 2006 87bd b8c6 893d 2ea7 ae3d 2047 d4bc
000000b0: 18e0 eb3d a0b2 7b3c 004d 50bc 1260 c5bd
000000c0: 5e8e 8fbd 5a3f e63d 54f9 f53d 2eda f2bd
000000d0: 603a e6bd cc8b ba3d 8064 393c 6454 7e3d
000000e0: 34ce a43d cc0c 18bd e0b8 b3bc 5068 6cbc
000000f0: 80e2 11bb e410 a9bd 3e7c a2bd 304e 16bd
00000100: 7c56 ffbd f072 8d3c 5ee7 d73d a09d 593d
00000110: 8220 853d 006c 93bb d40b e0bd 58ec d43d
00000120: b0eb 1a3d 903a 32bd c008 aebb 0cd9 ed3d
00000130: 2e49 aa3d 80bb 47bc 4022 c7bc 6038 cdbd
00000140: 5046 17bc b089 f0bc fe61 e33d c0dc 6c3d
00000150: c0ab 103b 3c4a c23d 3e3f ca3d 8836 73bd
00000160: 8063 59bb 4676 aa3d d01e 1c3c b090 d03d
00000170: 00bb af3b 503d bfbc d611 9bbd 48c6 13bd
00000180: d8c4 203d 6c42 b63d 9ae5 9b3d 1052 da3d
00000190: 386b a03c 1281 dabd c219 f6bd e8f0 99bc
000001a0: 28a2 cbbc 74c5 d7bd 4431 153d 4ca1 af3d
000001b0: 7a04 bfbd c47e fabd 5415 b33d 140f b8bd
000001c0: 4613 fc3d 405f 153b f87f af3c 883a 943c
000001d0: d2bb b2bd 6ec2 9d3d 021f efbd 08a7 ad3d
000001e0: 7010 acbc 009d ea3d f233 9abd 00b0 04bb
000001f0: 0ed1 d3bd b641 f83d 763f cebd d8db c73c
00000200: 0021 acbc 6091 643d 9887 07bd 0c93 a7bd
00000210: b800 c73d faf1 8ebd ec4d d3bd c8fc 8a3c
00000220: be86 f23d 28a3 40bd d83a 3cbd a097 a23b
00000230: 2c6a 4dbd 4c11 84bd d0b1 2abd 30dc e03c
00000240: 207c f5bc e6e5 db3d 20ff 23bd 9acd acbd
00000250: d0a8 b4bd e022 a73d 3a7c c33d 7087 923d
00000260: 14ff 3b3d f453 783d 2079 05bc ce27 b33d
00000270: a621 a8bd 0c13 21bd 0085 df3b e2c7 d9bd
00000280: 10e9 f2bc e893 59bd 8c1b 0fbd d20d 92bd
00000290: e27b aa3d c0c1 38bb d8fc f9bd 4eec d03d
000002a0: 904c c9bc ec14 47bd 9095 5fbd 94c8 5ebd
000002b0: f8c3 4a3d 10fa 6ebc 8c37 9abd 7c9f ecbd
000002c0: e28d 88bd c039 9cbc 9078 e83c 644b 4e3d
000002d0: 62ea ddbd 26b8 cd3d 8068 b5bc 0a2f d9bd
000002e0: a813 d13d 5671 e0bd 783b 5dbd 9e70 d93d
000002f0: 5424 8b3d 764e e73d f829 bfbc c27c 933d
00000300: 601c 833b 1a69 d0bd acbf 2a3d 00ca f5b9
00000310: 3417 18bd c0d4 8ebc 705f c33c ccaa 9e3d
00000320: 7852 f9bd f60f ea3d 30fe 8e3d c012 61bc
00000330: 6004 debd 4002 553b a0b8 b33c 7032 3c3d
00000340: 3cb9 3ebd c042 ff3b e040 463d d02f a93d
00000350: f4a1 07bd 74c6 58bd 980a aebd 54f0 72bd
00000360: f092 843c 181b 74bd 583d f5bc 3028 59bc
00000370: 9c63 8fbd 7492 963d aa4d 853d 6c54 7cbd
00000380: 08b5 323d 8a48 8e3d 58c5 a3bd 1c3d 233d
00000390: 0012 deb9 42d8 f83d 9e4d ecbd 1c9f ccbd
000003a0: 385b 8f3d 9c48 28bd f00c 453d 4e1b dcbd
000003b0: 388e 053d a692 e23d 38b2 25bd 348f af3d
000003c0: e40a 08bd 8045 7c3c 6a88 d2bd c09e a53d
000003d0: 008d 743d e838 183d 145b a0bd 0c90 343d
000003e0: 2023 0abd d09b 9c3c 32be a2bd 96c1 ee3d
000003f0: 8011 bc3b 38df e53c 0442 0e3d 5a46 8a3d

fc2.bias f4 [64]
-0.050371736 -0.075493366 -0.040623114 0.057912335 0.09063259 -0.038361773 0.0886669 -0.07210457
-0.04051611 -0.0015734136 -0.06187357 -0.06223327 -0.040977627 -0.104808256 -0.010806948 -0.013046429
0.06564754 0.078229964 0.09223902 0.07225408 -0.0968886 0.037611246 -0.071682885 -0.0030913204
-0.08728291 0.042615682 -0.061784565 0.090987235 -0.058283895 0.092449814 -0.12342769 -0.012552619
-0.057546645 -0.025738448 0.10485323 -0.09204894 0.10297401 -0.080625266 -0.1080139 0.08661696
0.029277503 -0.06934947 0.023269504 0.06044282 0.10019992 0.11373472 0.084987685 0.053122237
0.02871129 0.03879243 -0.04729162 0.07962614 0.061441407 0.112492725 -0.027175829 0.065294564
-0.026061669 0.10128459 -0.1224502 0.0046320707 -0.11867049 -0.03543958 -0.11517438 0.10688977
00000000: 9852 4ebd 449c 9abd 6c64 26bd 7c35 6d3d
00000010: 949d b93d 3c21 1dbd fe96 b53d 90ab 93bd
00000020: 38f4 25bd 003b ceba 246f 7dbd 50e8 7ebd
00000030: 28d8 27bd b6a5 d6bd a00f 31bc b0c0 55bc
00000040: 3872 863d 0837 a03d d0e7 bc3d f2f9 933d
00000050: 886d c6bd 400e 1a3d 7ace 92bd c097 4abb
00000060: 62c1 b2bd c88d 2e3d d011 7dbd 8457 ba3d
00000070: 18bb 6ebd 5456 bd3d a8c7 fcbd 80a9 4dbc
00000080: 08b6 6bbd 70d9 d2bc 4abd d63d 2884 bcbd
00000090: 0ae4 d23d dc1e a5bd 6436 ddbd 3c64 b13d
000000a0: 60d7 ef3c 1807 8ebd b09f be3c e492 773d
000000b0: 9e35 cd3d c0ed e83d 060e ae3d b496 593d
000000c0: f033 eb3c d0e4 1e3d dcb4 41bd 0813 a33d
000000d0: fca9 7b3d 9662 e63d d89f debc 28b9 853d
000000e0: 487f d5bc 4c6e cf3d 2cc7 fabd a0c8 973b
000000f0: 8409 f3bd 1829 11bd 8ce0 ebbd 06e9 da3d

fc3.weight f4 [4, 64]
0.072141245 0.070283145 0.010305047 -0.0041452646 0.113555804 -0.114699215 0.05940965 0.12038192
0.0435282 -0.003979847 0.09190725 0.0059503615 0.006280169 -0.09955226 -0.03662917 -0.017542675
-0.07885285 -0.1061575 0.012529328 -0.032282382 -0.08354516 -0.05070664 -0.025345057 -0.08584881
0.11798237 -0.11589305 -0.09594737 -0.09303881 -0.09302789 0.0014597028 -0.10584502 0.036066845
0.059003785 -0.03556946 -0.04573679 0.0530262 0.06882094 -0.04175271 0.046934083 0.0065466315
-0.0775508 0.09569354 0.082768425 -0.11049403 0.11910027 -0.081061766 -0.05241652 -0.028530985
0.047810778 0.10940169 -0.03093122 0.07373582 0.02128379 0.062989295 -0.058151662 0.02597493
-0.070334435 -0.06271 0.07365282 0.024872392 0.11233696 0.0633969 -0.1023985 0.046115518
0.05095817 0.03260441 0.012298539 -0.07939854 0.03247671 -0.06537026 -0.04387611 -0.0046578497
-0.025656909 -0.03685257 0.059114575 0.09349145 -0.0010811985 0.124894515 -0.11291753 -0.011088103
0.018976942 0.06249693 -0.018032506 -0.0026826859 0.0192419 -0.022803843 0.12459402 0.02292806
-0.027597144 0.04683526 0.10459234 0.016704023 -0.01919368 0.071934536 -0.103940725 0.12248969
-0.06974469 -0.10686618 0.103661895 -0.0015687048 0.025813162 0.039220676 -0.078681275 -0.069282934
-0.10337539 0.07555807 0.111208335 -0.010245815 0.05508381 -0.09134741 -0.028960228 0.038239166
-0.11650792 0.04653418 -0.0025917292 -0.09844388 0.12273009 0.049258783 0.10344924 -0.11820234
-0.062241405 0.11534998 0.035932884 -0.101174876 -0.06073506 -0.064046964 -0.020174101 0.03320934
0.025935158 0.05841039 -0.031308085 0.08191869 -0.025165245 0.013797745 -0.008383185 -0.09918523
-0.11708404 0.04281211 0.0874227 -0.096232146 -0.035088956 0.015456334 -0.063969105 0.027649581
-0.039975464 -0.08876908 0.07292785 0.08838241 0.04866436 -0.024757713 -0.10392186 0.028002024
0.010932073 -0.020675272 -0.07294139 0.062158465 0.0918549 -0.026744217 -0.06464316 0.0052511245
0.0887675 0.050240636 0.091681674 -0.114400715 -0.03636752 -0.103392094 0.052631274 0.012715042
-0.017558888 0.098265305 0.11750059 -0.02549322 0.12482168 -0.10292272 -0.043258607 -0.06405263
0.030814543 0.12248589 -0.033786267 -0.11862765 0.04459904 -0.024452522 -0.03184831 0.019374669
0.07501386 0.10936801 -0.055246383 0.07049444 0.10536349 0.10605 0.07611151 0.08812587
0.03888397 -0.09852508 -0.062975734 -0.09510434 -0.0627974 0.056383103 -0.05176878 -0.040691674
-0.0071439 -0.11102228 -0.092692435 0.10854572 0.11183755 0.015623957 -0.04473351 0.09194887
-0.017487243 0.024521396 0.07525645 -0.026478454 0.045488283 0.08247234 0.08227301 -0.0911051
-0.016640991 0.017269969 -0.07123619 0.11651744 -0.054693848 -0.07579327 0.02991587 -0.109076634
-0.11970946 0.043435365 0.051593304 -0.023223296 0.037640944 0.098118946 -0.024021149 0.11980009
-0.11333671 -0.104909614 -0.03721963 0.005910665 0.06970523 0.061874345 -0.007805109 0.06761873
0.015139282 -0.1005774 0.117154896 -0.0028631985 0.011000052 0.01570341 -0.09330504 0.037623614
0.10615857 -0.0035977513 -0.014898345 0.11140804 -0.10137741 -0.020488888 0.049970865 -0.063436955
00000000: cabe 933d 9cf0 8f3d 80d6 283c 00d5 87bb
00000010: f28f e83d 6ce7 eabd 8857 733d cc8a f63d
00000020: a04a 323d 6069 82bb de39 bc3d 40fb c23b
00000030: e0c9 cd3b 0ee2 cbbd 7808 16bd a8b5 8fbc
00000040: 9a7d a1bd 1a69 d9bd d047 4d3c 883a 04bd
00000050: ba19 abbd c4b1 4fbd 70a0 cfbc 80d1 afbd
00000060: bea0 f13d 5659 edbd 0e80 c4bd 228b bebd
00000070: 6885 bebd 8053 bf3a 46c5 d8bd d4ba 133d
00000080: f4ad 713d 48b1 11bd 8056 3bbd 0032 593d
00000090: fef1 8c3d e404 2bbd f43d 403d 2085 d63b
000000a0: f4d2 9ebd fafa c33d 7e82 a93d b24a e2bd
000000b0: d8ea f33d b603 a6bd b4b2 56bd d0b9 e9bc
000000c0: 3cd5 433d fe0d e03d 7863 fdbc ce02 973d
000000d0: 585b ae3c 8800 813d 7030 6ebd 60c9 d43c
000000e0: 800b 90bd 1a6e 80bd 4ad7 963d 30c1 cb3c
000000f0: ec10 e63d 3cd6 813d 4eb6 d1bd a0e3 3c3d
00000100: 84b9 503d 348c 053d d07f 493c b49b a2bd
00000110: 4c06 053d d8e0 85bd 70b7 33bd e0a0 98bb
00000120: 702e d2bc b8f2 16bd 2022 723d 7278 bf3d
00000130: 00b7 8dba b2c8 ff3d 4e41 e7bd e0aa 35bc
00000140: 8875 9b3c c8fc 7f3d e8b8 93bc 00d0 2fbb
00000150: 30a1 9d3c 20cf babc 262b ff3d a0d3 bb3c
00000160: 6813 e2bc 54d6 3f3d 8234 d63d e0d6 883c
00000170: 103c 9dbc 6a52 933d e0de d4bd e0db fa3d
00000180: 4ed6 8ebd a8dc dabd b04c d43d 009d cdba
00000190: 2076 d33c dca5 203d a623 a1bd 36e4 8dbd
000001a0: 7ab6 d3bd 30be 9a3d 32c1 e33d 10de 27bc
000001b0: 909f 613d 5a14 bbbd 003e edbc aca0 1c3d
000001c0: b49b eebd a09a 3e3d 00da 29bb f29c c9bd
000001d0: ea59 fb3d 94c3 493d 32dd d33d 1214 f2bd
000001e0: d8f0 7ebd 9c3c ec3d 5c2e 133d c634 cfbd
000001f0: 54c5 78bd 0e2b 83bd 2844 a5bc 8406 083d
00000200: f875 d43c bc3f 6f3d e83c 00bd fcc4 a73d
00000210: 5827 cebc f00f 623c a059 09bc a021 cbbd
00000220: c2c9 efbd c05b 2f3d ac0a b33d 5c15 c5bd
00000230: 70b9 0fbd 903c 7d3c 3c02 83bd 6081 e23c
00000240: 50bd 23bd 90cc b5bd 325b 953d d601 b53d
00000250: 4854 473d b0d0 cabc fcd4 d4bd 8064 e53c
00000260: 701c 333c 305f a9bc 4c62 95bd e099 7e3d
00000270: 6c1e bc3d b016 dbbc a263 84bd a011 ac3b
00000280: bccb b53d 20c9 4d3d 9ac3 bb3d ec4a eabd
00000290: 1cf6 14bd 3cbf d3bd e493 573d c052 503c
000002a0: a8d7 8fbc 523f c93d 26a4 f03d 28d7 d0bc
000002b0: 82a2 ff3d 26c9 d2bd f02f 31bd 062e 83bd
000002c0: c86e fc3c e2d9 fa3d 7863 0abd 0ef3 f2bd
000002d0: 7cad 363d a850 c8bc 6073 02bd a0b7 9e3c
000002e0: dea0 993d 56fc df3d 084a 62bd 645f 903d
000002f0: d0c8 d73d be30 d93d 5ae0 9b3d 567b b43d
00000300: cc44 1f3d 84c7 c9bd 6cf9 80bd 10c6 c2bd
00000310: ec9b 80bd f8f1 663d 800b 54bd 50ac 26bd
00000320: 6017 eabb a65f e3bd 88d5 bdbd 384d de3d
00000330: 160b e53d a0fb 7f3c 7c3a 37bd b04f bc3d
00000340: 6841 8fbc 18e1 c83c 0e20 9a3d 58e9 d8bc
00000350: ec51 3a3d 42e7 a83d c07e a83d 5095 babd
00000360: b052 88bc c079 8d3c 48e4 91bd b2a0 ee3d
00000370: a806 60bd 8039 9bbd 2012 f53c 9263 dfbd
00000380: 3c2a f5bd 48e9 313d 8053 533d c83e bebc
00000390: 642d 1a3d 96f2 c83d 00c8 c4bc c059 f53d
000003a0: 141d e8bd dada d6bd 9c73 18bd 40ae c13b
000003b0: 9ec1 8e3d f46f 7d3d 00c2 ffbb b07b 8a3d
000003c0: c00a 783c 86fb cdbd e8ee ef3d 80a4 3bbb
000003d0: 9039 343c 70a4 803c b616 bfbd 381b 1a3d
000003e0: aa69 d93d 40c8 6bbb 3018 74bc e629 e43d
000003f0: f69e cfbd 50d8 a7bc 40ae 4c3d 3ceb 81bd

fc3.bias f4 [4]
0.09543392 -0.09942101 0.066617 -0.028483614
00000000: dc72 c33d 3e9d cbbd 7e6e 883d 7856 e9bc
