models/sess30000-max62-sm0.pth (torch, 333497 bytes, 24 tensors)

fc1.weight f4 [128, 24]
00000000: 1318 bdbe 715f 1f3e a58e b6be f81b 6d3e
00000010: b0cc d0be f548 e53d e625 813e 04c6 df3c
00000020: 60f3 38be 9ff2 a1be 534a 5a3e b135 083e
00000030: d9d9 b3be f5c8 5b3d c182 103e fa4d 12bf
00000040: 7f5f 73bd deab a1be 319a 0d3f 1d33 71be
00000050: 7533 25bd 6cd1 903d 0511 ac3d c209 a1be
00000060: 59b1 54be 721d 3dbe 4ad4 43be f627 e2bd
00000070: c5fd c3bd c698 c9be 198d 363d 63af f1bd
00000080: f23e c13e 7dc5 eabd 45ef 2e3e 55d0 d3be
00000090: c87c 0ebe 3936 a93e 636c 8abe dfce 16be
000000a0: 71ce adbd aa99 ecbd a033 bb3e 3cbc 8dbe
000000b0: 0321 b53d 5617 2ebf 8e91 a6be f181 793f
000000c0: 7291 323e 3e02 673d 7fea 79bd d7bb 38bd
000000d0: 35ef 983d bdc0 c2bf 414b 9abe b145 df3b
000000e0: 3e65 b03f f203 20ba 0c6e 09be 0bc2 b4bc
000000f0: 15b6 183d ab36 05bf 59a9 76bc ed47 573d
00000100: 9f3a 9abe b5e3 82be 32fd 4e3e 0608 da3d
00000110: 5ebd 4dbe d25d 46be 223b 4fbe 7aa3 d63c
00000120: 8d9a 913e 8c3a b63d 5022 2bbe 6405 43bd
00000130: 7661 cbbe e0df 723e 877e 713c 5ec2 09be
00000140: dfd8 04bf 1f97 993e b66d cabe 454f 89be
00000150: 6083 08bf 5881 6b3d 91c4 72be 0d16 053d
00000160: fe06 adba cbca c13c e2d3 353c 91e5 673e
00000170: a03c 323e 3c58 b9bd d63e 81be afab 82be
00000180: d98b 033e e3ae 883e a72c f1be 5a26 bdbe
00000190: 518b b6be 7f5f 713e e273 30be 2f84 73bd
000001a0: b6f8 78be 204c 273e 6e3e ecbe 0f70 583e
000001b0: 196a dfbd 01d9 a73e ee2c d53c 2b3d 8d3e
000001c0: 1d21 873e e2d2 10be c12f 12bf 7021 52be
000001d0: 33fb e33d 494d f33c c287 5b3d d769 7cbe
000001e0: 19af c2be 8498 cf3e 6706 97be c2a7 d1bc
000001f0: 37fb 53be 259f 433e 61c2 abbe 09e1 84be
00000200: d464 85bd 2e28 34bd 3b3e 70bf 9c6e 623d
00000210: b4ab 8c3d 9a05 9b3f baeb d1bd fecd a8bd
00000220: 805b f2bd 42dd 2bbc f197 67bd dfc4 abbd
00000230: c341 013e fbc2 4ebe 9c9c 9cbb 7dcc 843e
00000240: b23c 8ebe 96d0 6cbe 85aa 863e 9636 033e
00000250: 9136 f23d ac3e c1be caec 7cbd 37e9 3cbe
00000260: 658e b53e b95c 57be 3ec7 5a3f 3ec0 7abe
00000270: 7736 70be 76d8 d03e 158f e13b a6ce 9f3d
00000280: d6bb 243d 90e8 3dbe 7ac3 c2be f808 ab3e
00000290: dc52 7cbf 97f5 353d a29a 86bd b261 563f
000002a0: 01be 5cbe 34c1 1a3d 7435 4b3e 534b 263e
000002b0: cade 05bd 1742 1d3e e8a6 adbe 9102 5bbe
000002c0: aacc 113e 3623 d23d b9a9 0bbf 8d29 22be
000002d0: d4d1 83bd 3369 d83d 9e01 aebd 92f9 983d
000002e0: c96d b63d cae1 a2bd 4b68 d1be 3a66 1c3e
000002f0: da98 95bf 4269 79be d016 edbc 7d13 9e3f
00000300: 54d8 5fbe 24f2 16be f02d 1bbe 968e a0be
00000310: efa2 d33b 58dc 1abf 41ea 2abe 4e6c 04be
00000320: 6373 223f 66d3 b03c 041f 93be 27d5 0abe
00000330: ac0f 11be e18a 9f3e a72e 6fbc eb78 e13d
00000340: e05e c7be c338 ecbe a9e0 b6bd 7ed2 fc3d
00000350: f7ca e0be 0d22 1abe d677 45be d988 cd3e
00000360: e2df 74be 77cd e6bd 09e1 493e 4f7b 113e
00000370: 9e3c 4b3d d463 dd3e b7b8 21be 078e 993e
00000380: 2624 47be c5eb 97bd a061 6c3e b07a cebd
00000390: 0ca3 11bc 53c1 273e bfcf eabd 2ce8 253e
000003a0: ccc8 ca3d 0056 0d36 fa94 a8be 85a6 8f3e
000003b0: 4bce 72bf fbd8 0ebd 3570 15bd 2737 b03f
000003c0: 1ac2 13be 5c1e bd3c 70e3 fabd dec5 5dbe
000003d0: 861f b9bd cb2a d63d 385b 06be c231 53be
000003e0: 0823 673e ee5e a6bc da12 c53e d4c8 c0be
000003f0: 4af4 43be 54cc 163f 1bcb 853c 2b3c fabc
-0.3693243 0.15563752 -0.35655704 0.231552 -0.40781164 0.11195556 0.25224227 0.0273161
-0.1806159 -0.31630418 0.21317415 0.13301732 -0.35127142 0.053658444 0.14112379 -0.5715023
-0.059417244 -0.31576437 0.553134 -0.23554654 -0.040332276 0.07071194 0.08401684 -0.31452757
-0.20770778 -0.18468264 -0.1912395 -0.11042778 -0.09569887 -0.3937437 0.044568155 -0.118010305
0.37743336 -0.11463449 0.17083462 -0.41369882 -0.13914788 0.3304918 -0.27035818 -0.14727353
-0.08486641 -0.115527466 0.36562824 -0.27682674 0.08844187 -0.6800436 -0.32532924 0.974639
0.17438295 0.056398623 -0.06101465 -0.045101013 0.074675 -1.5215069 -0.3013554 0.006813728
1.3780897 -0.00061041035 -0.13420886 -0.022065183 0.037283022 -0.5203654 -0.015055024 0.05255883
-0.3012285 -0.25564352 0.20213774 0.106460616 -0.20091769 -0.19371727 -0.20237401 0.026200999
0.28438225 0.08897886 -0.16712308 -0.047612563 -0.39722794 0.23718214 0.014739639 -0.13453051
-0.5189342 0.2999811 -0.39536828 -0.2681829 -0.5332546 0.0574964 -0.23707797 0.032491732
-0.0013200936 0.02365627 0.01109788 0.22646166 0.17405939 -0.090500325 -0.25243253 -0.2552161
0.12846316 0.26695928 -0.4710438 -0.36943322 -0.35653165 0.23571585 -0.17231706 -0.059452232
-0.24313626 0.16337633 -0.4614138 0.21136497 -0.109089084 0.32782748 0.0260224 0.2758573
0.2639245 -0.14142945 -0.57104117 -0.20520568 0.11131897 0.029699938 0.053596266 -0.2464975
-0.38024214 0.40546048 -0.29497072 -0.025592688 -0.207013 0.19103678 -0.33546737 -0.25952938
-0.06513372 -0.04398363 -0.93844956 0.055281267 0.06868687 1.2111084 -0.102500394 -0.08242415
-0.118338585 -0.010489764 -0.056541387 -0.083871596 0.12622742 -0.20191567 -0.0047794115 0.25937262
-0.27780682 -0.23126444 0.2630197 0.12813792 0.11826814 -0.37743127 -0.061749257 -0.1844834
0.354602 -0.21031465 0.8546027 -0.24487397 -0.23458277 0.40790147 0.006883512 0.07803087
0.040218197 -0.18545747 -0.38039762 0.3340528 -0.98563933 0.044423666 -0.065724626 0.8374282
-0.21556856 0.03778191 0.1984461 0.16239671 -0.03268317 0.15357243 -0.33916402 -0.21387698
0.1423823 0.10260622 -0.5455585 -0.15836163 -0.06436506 0.1056694 -0.08496402 0.07469477
0.089076586 -0.07953222 -0.40899882 0.15273371 -1.1687272 -0.24356559 -0.028941542 1.2349697
-0.21859866 -0.14740807 -0.15154243 -0.31358784 0.006458632 -0.6049247 -0.16690923 -0.1293194
0.63457316 0.021585178 -0.287346 -0.13557874 -0.14166135 0.31160644 -0.014598525 0.110093914
-0.3893957 -0.46137056 -0.08929569 0.12344836 -0.4390485 -0.15052052 -0.19283995 0.4014347
-0.2391353 -0.11269658 0.1971475 0.14207195 0.049618356 0.43240225 -0.1579312 0.2999117
-0.19447383 -0.07418016 0.23084116 -0.100819945 -0.008888971 0.16382341 -0.11465406 0.16201848
0.0990158 2.1060696e-06 -0.3292616 0.28056732 -0.9484603 -0.034874897 -0.036483962 1.3766831
-0.14429513 0.023085766 -0.122504115 -0.21657512 -0.09039216 0.10457381 -0.13120735 -0.2062445
0.22571957 -0.020308938 0.38490945 -0.3765322 -0.19136158 0.5890553 0.0163322 -0.030546268

fc1.bias f4 [128]
00000000: 262d 1abe d11c fcbd 1747 173e 3aa0 09bd
00000010: a8a9 3fbe ef1c 163d 8f12 393d 3c7b 173d
00000020: 2c44 6bbd 0b04 653e e9cf acbe 63b0 33be
00000030: e25d f7bd 95ee 36be a6f7 6abe ff27 813e
00000040: 4be4 6bbe dc36 a7bd c28b d03d 386c 903e
00000050: 629d 903e 2b79 483d 616f 3fbd f717 f83d
00000060: dc40 7ebd 1d03 083d b4ee d43d e409 2f3e
00000070: 2062 7d3e 9891 df3d c70a 06be 7cd9 93be
00000080: 0b88 54be 7c87 903d bc7e 30be 4f49 fc3c
00000090: e8ec e8bd 4127 10be 6a66 2a3c e490 20be
000000a0: 26b1 09be 1253 05be 75ce 00bd e99a e93d
000000b0: f8c9 683e 9541 68be 1081 2dbe f4b1 e3bd
000000c0: 718a 9dbe 761f 82bd b72f 93be b163 c73c
000000d0: 9e97 6a3e c67d dbbe 76e5 ff3d 2664 45be
000000e0: 3427 87be 7b83 8bbd 6a83 adbd be30 83bd
000000f0: 3c7b 82be 8122 413e f171 babe 1a92 c1be
00000100: c005 09be ed55 edbd 3cdd 2f3e 8a96 463e
00000110: 681f d2bd a940 963d 01f0 90bd 19aa 23bd
00000120: c607 b2bd 0195 77bd f588 933d e0e8 fdbd
00000130: 908c 313d 3fd8 4ebd cf15 e6bd e044 bbbe
00000140: 6de7 80bd 1179 17bd 06f4 d6bd 4df2 08bd
00000150: a9bf a6bd f891 47be cff3 7dbd 78a7 8bbe
00000160: 93a9 093e ee42 8bbd a1b7 2bbd 89d0 16be
00000170: c7fd b2bd 1379 7b3e 2b03 41be e5e5 a9bc
00000180: 55a2 4a3e 143a 04be 5316 95be 3644 f6bd
00000190: 86b4 c6be a57b a53c 55aa eebe a421 5ebd
000001a0: 0595 4bbe eb58 a0be dd76 c3bd 6683 30bd
000001b0: 464d 5abd 3c7f 97bd 66bb 05be 7333 cebe
000001c0: 3fcc 553e fcca 41be fe76 08be bdbb d9be
000001d0: 6d59 97be e285 103d 8ca6 c13d 5a03 ecbc
000001e0: f229 0b3c 9db2 c73d 6cda 98bd 4ba0 07be
000001f0: 6992 b0bd a593 82bd 4b1e 0f3d 686a fa3d
-0.15056285 -0.12310184 0.14773212 -0.03360007 -0.18717062 0.036648687 0.045183714 0.03698276
-0.05743806 0.22364824 -0.33752373 -0.17547755 -0.120784536 -0.1786445 -0.22946033 0.25225827
-0.23036306 -0.081647605 0.10182907 0.28207564 0.28245074 0.04894368 -0.04673708 0.12113946
-0.062073573 0.033206094 0.103970915 0.17093617 0.24744463 0.10916442 -0.13090049 -0.28876865
-0.20755021 0.070570916 -0.17235845 0.030796675 -0.11373311 -0.14077474 0.010400394 -0.15680271
-0.13446483 -0.1301997 -0.031446893 0.114065 0.22733295 -0.22681268 -0.16943765 -0.11117926
-0.30769685 -0.06353657 -0.2874734 0.024339529 0.229094 -0.42869395 0.12494938 -0.19276485
-0.26397097 -0.06812187 -0.08472331 -0.06405781 -0.25484645 0.18860818 -0.36415055 -0.3780678
-0.133811 -0.11588655 0.17174238 0.19393364 -0.102598965 0.07336552 -0.07077027 -0.03995714
-0.08692889 -0.060444836 0.07203857 -0.12397933 0.04334694 -0.050499197 -0.112346284 -0.36575985
-0.06294141 -0.036980692 -0.104957625 -0.0334342 -0.08142025 -0.19489276 -0.062000092 -0.27276206
0.13443594 -0.06799875 -0.04192317 -0.14727987 -0.087398104 0.24557905 -0.18848865 -0.020739505
0.19788487 -0.1291278 -0.29118595 -0.12024729 -0.38809603 0.02020056 -0.46614328 -0.0542313
-0.19881065 -0.3131784 -0.09544156 -0.04309406 -0.05329635 -0.07397315 -0.13059768 -0.40273628
0.20878695 -0.18925089 -0.13326642 -0.42526045 -0.29560414 0.03528393 0.094555944 -0.028810192
0.008493887 0.09750865 -0.07463536 -0.1324474 -0.086216755 -0.06375817 0.034941 0.12227327

fc2.weight f4 [128, 128]
00000000: 0b6f a0bb feb2 823c fda4 42bf 24f6 9c3b
00000010: 385e 853e c648 c63e b401 c43d fafe a03e
00000020: 4d03 ab3d 65e1 843c 6826 923c 9bdd 413e
00000030: f5b8 a63e ba7e 5b3e d39b 83be 7d1d 3a3e
00000040: 4096 4a3e 9aa0 1ebe 3d11 86be 0d9f 003d
00000050: 61a9 703e 735f 373e 83a9 9c3e 763b 93bc
00000060: 80c7 63be 1740 97bd 5e36 993b 857c c23e
00000070: 2deb aa3d 320b 063d f27f 1a3f 6fbb c83d
00000080: 709f 3f3d 70bf 033e 5e0c c23e fbb4 043c
00000090: e3d4 eebe e783 ea3d 5d2b db3e ee61 ba3e
000000a0: f06b 3ebe 3435 373e 6919 8bbd 1a99 8f3e
000000b0: 01b1 11be c4fb a73b def3 8c3e d26e 023e
000000c0: 85b2 553e a497 673e 4ad8 893e 7d3d d13d
000000d0: 4726 5d3e e2e7 fe3d 4d24 1a3f 108a 9b3e
000000e0: 3456 c23e f964 04be 9da8 4e3e 855a 2f3e
000000f0: 7705 a53d a25b bbbd 7554 db3e 59a4 823e
00000100: a0d8 9e3d ac73 ca3e f6a7 15be d8a1 9bbe
00000110: 232d d43d 9849 2abf e94c ec3c 8106 e63e
00000120: 7d48 81bd 8be2 28bf d87d 41be 3320 c53d
00000130: ca6e b43e d334 673e f8b9 f7be 7b0f 7a3a
00000140: e3ba 76be 67cc 643e 808e cc3c a569 69be
00000150: b5bf 093e c0fe 943e e94b 073e 84f6 4c3d
00000160: 4207 b33d fdeb a93e fb08 063e aa7a 5dba
00000170: eecb 8abe f200 26bd 6ceb f9bb b6d3 c63e
00000180: ec79 033e 5566 22be 0b8c 443e 3bc5 c7bd
00000190: 079f 26bd 5b78 023e 171a 553e 6222 0e3f
000001a0: e53b cf3e 356b 603d 90cd 96bc d4ec c93e
000001b0: 4fad 3c3d ccb7 f33d 8561 db3d 2dfa 6a3e
000001c0: f830 c43e 00c7 1dbd 1b63 cc3d 2a1f 5bbe
000001d0: 938a d4bb 0109 d83d 5e9b 4abf 5613 3fbf
000001e0: 5df6 713e a5ab 843e 0c05 383e a7c1 29be
000001f0: c32f 2f3e 05e8 da3c 00b6 1f3d 7b6f 39be
00000200: 75c7 89bd c690 efbb 072a 15be 4996 333d
00000210: 9409 96bd c073 af3c 57c1 173d 497d ab3d
00000220: d3f9 4bbc d527 5ebc e290 93bb 1b2c 19bd
00000230: 18db 70bd fd38 f83c 61a2 aabd f0b4 c9bd
00000240: 4d3d 15bd d06b 13bd f143 5a3d e837 2dbd
00000250: cb5b 99bd 613c 62bd 3a51 82bb 771a ea3c
00000260: bf24 1dbc 12a1 aabd f32d 003d 9bc2 3fbc
00000270: cb98 bf3c a4e4 9dbd 970b c9bd ccd4 073c
00000280: 71cc b83c fe6f 033c 983f 80bd af8c b7bd
00000290: beed 66bc 797f cbbd 96f6 4a3d c6f1 153d
000002a0: 5db1 59bd 195e d73c d695 0f3d 7f7c 09be
000002b0: 8843 133d ee7a 8a3c 317d 79bd 1030 e6bc
000002c0: 0a75 d4bd 0192 f9bc bf66 8cbd 0e03 c93c
000002d0: fc53 4f3d e98b 353c 4664 69bc a3d0 76bd
000002e0: 923f bebd 5494 05be 3a87 1cbc 139f 39bd
000002f0: 7ac2 61bd 716a 6abd b91a babb c238 5abc
00000300: 7196 5d3c ebc7 7a3b 2863 bfbc 38ea 1e3d
00000310: 2dc2 dcbd 3c15 62bc 5999 7cbd a311 0a3d
00000320: 3ca4 70bc 5c68 75bd f1be 86bd 03a5 803d
00000330: 0837 123c bc15 f4bd 4554 92bd 4f45 80bd
00000340: 96a3 77bd 9170 d1bd 6e15 403d 8ca8 84b9
00000350: b462 49bb ce52 2e3d 5225 9dbd a5b2 f23c
00000360: 1353 4abd da85 77bd eba5 55bd 305b bdbd
00000370: 4a6b babd baab 21bc 2d37 4fbd cf9c 7e3a
00000380: c0c0 c23c e1f9 18be 9298 883a 2fc3 a0bd
00000390: 608e ce3c 1f00 4dbc 609e 023d f61a 383c
000003a0: be13 d03b 2efb ebbc c43f a9bb 9fe7 9cbc
000003b0: 2ab5 d7bd 9e25 193d 872b 85bd 9c2b 473d
000003c0: 669c e83c d236 523b 20c3 adbd 6683 51ba
000003d0: aef2 cdbd 1b01 973c 12b8 7ebc d6dc 93ba
000003e0: 582c 56bd 5869 05be 15a2 e23c d1c0 d83b
000003f0: ac18 dbbd 268b 2fbd 735b 0abb 0fdf 343d
-0.00489605 0.01595449 -0.76033 0.0047900844 0.26048446 0.38727397 0.09570637 0.31444532
0.08350239 0.016220758 0.01784058 0.18932192 0.32562986 0.21435061 -0.25704822 0.18175311
0.19783878 -0.15490952 -0.26185027 0.031401683 0.23502113 0.17907505 0.30598077 -0.01797269
-0.22244072 -0.07385271 0.0046756705 0.37985626 0.083456375 0.03272552 0.6035148 0.09801375
0.04678291 0.12865996 0.3790006 0.00809979 -0.46646795 0.114509396 0.4280652 0.3640284
-0.18595862 0.17891389 -0.06791956 0.28046495 -0.14227678 0.0051264483 0.27529806 0.12737587
0.20868881 0.2261644 0.26922828 0.10216806 0.21596633 0.12446572 0.6021164 0.3037877
0.37956393 -0.12929143 0.20181508 0.17124374 0.08057683 -0.09148337 0.42837873 0.25516012
0.07756162 0.39541376 -0.14614853 -0.30396914 0.10360172 -0.66518545 0.028845267 0.44926837
-0.06312654 -0.6597068 -0.18895662 0.09625282 0.35240775 0.22578745 -0.4838407 0.000953905
-0.24094729 0.22343598 0.024970293 -0.22794206 0.13452037 0.2910061 0.13212551 0.050039783
0.08741619 0.33187857 0.13089363 -0.00084487593 -0.2710871 -0.040528245 -0.0076269414 0.38833398
0.12839478 -0.15859349 0.19194047 -0.097544156 -0.040679004 0.12741224 0.20810734 0.55521214
0.40475383 0.05478974 -0.018408567 0.39438498 0.046063717 0.11900291 0.1071196 0.22946997
0.3831861 -0.03851986 0.0997984 -0.21398607 -0.006486246 0.10548592 -0.7914332 -0.7463888
0.23629136 0.25912204 0.17970675 -0.16577779 0.17108063 0.026721964 0.038991928 -0.18108933
-0.067274965 -0.0073109595 -0.14566813 0.043844495 -0.07326046 0.021417499 0.037049618 0.083735056
-0.012449699 -0.013559301 -0.0045033554 -0.037395578 -0.058802694 0.030300612 -0.083317526 -0.09848964
-0.036435414 -0.03599149 0.05328745 -0.042289644 -0.07488211 -0.055233363 -0.003976968 0.028577073
-0.0095912805 -0.08331503 0.03129382 -0.011704112 0.023388287 -0.07709625 -0.09816664 0.008290481
0.022558423 0.0080223065 -0.062621295 -0.0896238 -0.014094768 -0.09936423 0.04955157 0.036607526
-0.053147662 0.026289986 0.035055004 -0.13426398 0.035953075 0.01690432 -0.060910407 -0.02809909
-0.10373886 -0.030465128 -0.06855535 0.02453759 0.050617203 0.01108072 -0.014245098 -0.060257565
-0.09289469 -0.13044864 -0.009553725 -0.04531772 -0.055117108 -0.057230417 -0.005679455 -0.013319196
0.013524638 0.0038266133 -0.023362711 0.038797587 -0.107792236 -0.013799008 -0.06166968 0.033708226
-0.014687594 -0.059913978 -0.06579388 0.062814735 0.008924253 -0.11918208 -0.071449794 -0.062632196
-0.060458742 -0.102265485 0.046895437 -0.0002530258 -0.0030728998 0.042559437 -0.07673134 0.0296262
-0.049395632 -0.060430385 -0.052160185 -0.09245908 -0.09102495 -0.009867603 -0.05058973 0.00097126974
0.023773551 -0.14939071 0.0010421446 -0.07849728 0.025214374 -0.012512236 0.03188932 0.011236897
0.0063500097 -0.028806295 -0.005165072 -0.019153414 -0.10532601 0.03738939 -0.06502443 0.048625574
0.02839489 0.0032076132 -0.08484483 -0.0007992297 -0.10056053 0.018433144 -0.0155468155 -0.0011281024
-0.052288383 -0.13028467 0.027665177 0.0066147824 -0.10698065 -0.04285731 -0.0021111637 0.044158038

fc2.bias f4 [128]
00000000: 9671 4fbc 7fcb 49bd f76c bdbd adb9 81bd
00000010: 45f8 37bb d8c8 59be 4740 77bd b502 b3ba
00000020: 14a1 b3bc 2f31 683d 55ab 6b3d 6058 7cbe
00000030: 20c2 50bd 54a1 c03d f293 6abd 412d 5c3d
00000040: 80a0 f0bd 8313 3dbe 4e78 a03c e1b0 64bd
00000050: b92d 40bd f900 41bc ec55 48bd 7ba7 0fbd
00000060: 4d5d 2a3a 795a c43c 0c32 6b3e 0fc1 1a3d
00000070: 745c 39bc b9e3 973c 4e61 a2bd 17b5 25bd
00000080: 6378 bebd 85a1 88bc 812d 523c 660c cabd
00000090: 7318 e53b 0181 013c e785 2f3d 6df7 033e
000000a0: 7b8a f9bd bdbe 2fbd dc37 51bd a0fa b9bd
000000b0: 62c8 3abe 6459 abbc bb0e 843d bb1d 003d
000000c0: 5930 be3c a27f 80bd 487b 91bd fb24 6c3d
000000d0: 200f 25bd f264 8dbd 4563 15be aca4 b8bd
000000e0: 970b dcbd 7e35 0c3e 329a 59bb 50fb f83c
000000f0: c7d6 813c 6b43 ddbc 2345 cbbd e16b bcbd
00000100: 5a3b 053e 0dc0 e3bd 7213 133e eab4 4abc
00000110: e142 103e 0453 e3bd f424 21bd f94c b8bc
00000120: 14de 97bd 6a2d eebd d209 0a3d 8bf9 443d
00000130: b16b 34bd 8c31 10be 3047 c33c f0a7 f13b
00000140: 0725 683d 875b 40bd e0dd ffbd c42d a3bc
00000150: eb1d 62be 0e50 1b3d c2ef 4abd 18dd d83d
00000160: 4031 96bc 8db9 28be 8b7e 263e cbdc 22be
00000170: 2236 2d3e f922 efbc 6842 adbd ce64 c6bd
00000180: af58 04be 4674 b5bc f4e3 c23c d512 e7bd
00000190: 2b4f 97bd 93c7 593e 116a c6bd 0abb f9bd
000001a0: 6b39 73bc 2d1e cbbd 8cd8 9dbe 06f3 04bd
000001b0: 175d 07be db5a d4bd d3e5 083e 74f1 4abd
000001c0: 5a5e 05be 80a4 67b7 fb1d d8bb 960b b0be
000001d0: 1e56 663d 9fae 32be cf78 aabc 1fee fcbd
000001e0: 8715 bc3d 82bc 41be 9021 1d3e 2ec0 21be
000001f0: bdc6 24bd d258 adbc 838a 4dbc 0134 7bbd
-0.012661358 -0.049266335 -0.09249299 -0.06334243 -0.0028071564 -0.21268022 -0.060364034 -0.0013657423
-0.021927394 0.05668753 0.05753644 -0.24643087 -0.050966382 0.09405771 -0.057269998 0.053754095
-0.11749363 -0.18464474 0.019588616 -0.055832747 -0.046918605 -0.011780017 -0.048910066 -0.03507183
0.0006498888 0.023968922 0.2296831 0.03778177 -0.011313546 0.018541204 -0.07928716 -0.040455904
-0.09300306 -0.016678581 0.012828232 -0.09865646 0.00699144 0.007904292 0.04285231 0.12887354
-0.12184616 -0.04290651 -0.051078662 -0.09081006 -0.18240502 -0.020916648 0.06448122 0.031278353
0.023216413 -0.06274344 -0.07103592 0.057652455 -0.040297627 -0.069040194 -0.1458865 -0.09015784
-0.10744398 0.1369228 -0.003320348 0.030393273 0.015849484 -0.027009686 -0.09925296 -0.09200264
0.13010922 -0.11120615 0.14362887 -0.012372235 0.14088012 -0.11099818 -0.039341882 -0.02249764
-0.07415405 -0.11629756 0.03370077 0.048089545 -0.044048015 -0.140814 0.023837656 0.007374756
0.056675937 -0.046962287 -0.12493491 -0.019919284 -0.22081725 0.037918143 -0.049545057 0.10589045
-0.018334031 -0.16477032 0.1625921 -0.15904538 0.16915181 -0.029191481 -0.084599316 -0.09687196
-0.12924455 -0.02215017 0.023790337 -0.11282889 -0.07388147 0.21267538 -0.09688199 -0.12193878
-0.0148452325 -0.09917865 -0.30829275 -0.032458328 -0.13219105 -0.10368892 0.13368921 -0.049546674
-0.13024274 -1.3806974e-05 -0.006595371 -0.3438384 0.05623447 -0.17449425 -0.02080956 -0.123501055
0.091837935 -0.18919566 0.15344834 -0.15795967 -0.040228594 -0.021160517 -0.012545231 -0.06132889

fc3.weight f4 [4, 128]
00000000: f27a 84be e0db e33c 5024 88bb 6e89 323d
00000010: 3956 4abe 500a 8abe 202b 57be 6a30 99bd
00000020: 2fb5 37bd 5171 173d 777a ccbe 43a7 773d
00000030: ce9b 6fbe 4f67 2e3f 0dc5 e1bd 09aa 673e
00000040: 0033 523e 0af5 06be bb72 783d 7417 f6be
00000050: facd 523d 81a5 f1bc ae37 3abe 56f9 6a3e
00000060: 2bbc 923e e983 a4bb 9544 88bd cd90 983e
00000070: a8d3 39bd b8cf 49bf 986d 7b3e 92e6 98bd
00000080: 10af 2a3b 535a a2bb f0ee cd3c 81fb 36bf
00000090: bd0e 3a3d eb02 5fbf 4e86 ab3c f05f 57be
000000a0: 420f 84bd 434e 6dbf 95ea 583c 66b4 02bc
000000b0: a786 9bbe d4f2 fdbc ebdc fc3e 6298 e3be
000000c0: 558a 693e d84b 33be 8245 1fbf 765b 69bf
000000d0: 46df 893c f088 92bc 62ba c0be 8691 edbd
000000e0: 280c b9bd d483 6bbe 0fac ab3d d08e 0bbf
000000f0: 07b2 afbd 5055 de3d 071b 05bc b587 2c3d
00000100: 2064 923e 5e5c 61be 7fa7 31bf 191d eabd
00000110: c146 833e 6c9e 38bd 7457 193d d8c3 8d3e
00000120: fe83 b83c 95f9 49bd 3156 0cbe 444f fcbe
00000130: 67b7 2dbd fa2b 093d 5d49 143d b40f 00bf
00000140: 7332 d13c c7ac 58bd d4fe 113c 1e4a b2be
00000150: b8fb f4bd 6262 153d 336f 6fbd dc9c 013f
00000160: 3610 9ebd 3a54 8dbe 0052 dd3e b7f9 a8bd
00000170: 98e3 b83e dd0e 813e 654c 29bd ee27 7c3d
00000180: 98f4 003d 67e1 023e ba14 cd3e 411b 45bd
00000190: f231 19bf dd91 963e 5bd5 a9bd 465c 813d
000001a0: c381 fcbc d922 883d 1662 9bbd c7dc 633d
000001b0: f38f 16be 74e4 95bd 8576 b13d e421 363d
000001c0: 8599 873c 63a9 8abf 92aa a0be 307f a0bd
000001d0: f7e3 183e f8ca 56be 93af 343e 3067 e7be
000001e0: acd4 4d3e 9546 9ebd 35e6 0bbf cce0 7fbe
000001f0: b448 2a3e d122 79be c4db b2be 77eb 92bd
00000200: b7a9 2abd 2885 113c 2fa7 a13d 803c 11be
00000210: e103 6a3e f9ce bdbd 5fba a0bd c989 9abd
00000220: 50a2 72bd a2b2 603c 142b 29be cbe5 adbe
00000230: d474 b43d 3a47 063f 4d13 40bd 0ff5 27be
00000240: 8d6a 323e a766 3dbe e750 7e3c 3b24 ea3b
00000250: 78aa 663d 01dc 463c 8eb1 84bd b1bc 46be
00000260: 45a1 bdbe 84e0 be3a 2e9a 693e 2595 323e
00000270: 5871 90bd 4673 0b3e f95d 4a3e 26c1 183d
00000280: 636b 943b 0dc6 9b3d 527f 973d 8b4b 113b
00000290: 3906 473e dea8 7f3e a047 8c3c 7a27 01bf
000002a0: 972a 373e 12ca e83d e9f3 5cbb 31db 8b3d
000002b0: 723b f0bd 49ef e1bb 05de 253d 4263 44bb
000002c0: cab3 343e 7344 333e 66a1 c2bd be44 c5bd
000002d0: b113 16bd 9af0 b2bd ed8c 1a3e 0e8a 69bd
000002e0: d1cf a53d 60cd e43d 17c2 c63f df24 aa3d
000002f0: 939d 84bd 6c62 cbbe bde7 5e3d bf9d 173e
00000300: 420e 37bf 380d 4abd eeac 1e3e 60d7 3abf
00000310: 80d8 783e 7c1e 7d3b 603c e23c 22d0 d8be
00000320: fb6e 40bd 43d9 52bc 609d 573e 416f 9b3d
00000330: f5ab adbb e8fa 2b3e f906 96be c51a 7fbc
00000340: 0e8a 4b3d e36e 453c ff80 213a adfa 393e
00000350: 7e10 7cbd ecbf 603c 965d d73c 3628 d03e
00000360: cb49 7cba 83da 4bbe 6f71 aabf df92 6bbd
00000370: ef83 5cbf 4e9f abbc 647c d13d 75ff 9d3d
00000380: d4da e33b 9b52 d2bc cb0b 9d3e 6871 af3d
00000390: d944 c2bc d6cd 903e 5da0 66bf 3351 dabd
000003a0: 8d77 873d 5198 593c 3c2a c6bd ca9e f33a
000003b0: 2ebd 84bf ef00 d8bc d245 c5bf 5bf5 debb
000003c0: 70a7 f9be 7728 ca3c 8bc1 29be 23b0 15bf
000003d0: 8502 0d3e 30bc f5bc a968 00be 68a2 40bb
000003e0: 752d f2be 26e6 8cbb 08f4 f9bd 75ba a8bc
000003f0: 03d7 8a3e d835 40be a49b 5c3d af17 283d
-0.2587505 0.027814806 -0.0041547194 0.043588094 -0.19759454 -0.26960993 -0.21012545 -0.074799374
-0.044850525 0.0369733 -0.39937183 0.060462248 -0.23399279 0.68126386 -0.110239126 0.22623457
0.20527267 -0.13179412 0.06065629 -0.48064768 0.051465966 -0.029497864 -0.18185303 0.22946677
0.28659186 -0.0050206077 -0.06653706 0.29797974 -0.045367867 -0.7883258 0.24553525 -0.07465853
0.0026044287 -0.004954615 0.025138348 -0.71477515 0.04542421 -0.8711383 0.020938065 -0.21032691
-0.06448223 -0.9269754 0.013239522 -0.007977581 -0.3037617 -0.030999579 0.49387297 -0.44452196
0.22806676 -0.17509401 -0.62215436 -0.91155183 0.016830098 -0.017887563 -0.376422 -0.11600022
-0.09035522 -0.22999507 0.08382427 -0.5451479 -0.08578878 0.10856116 -0.00812412 0.042121608
0.28592014 -0.22007892 -0.69396204 -0.11431331 0.25639918 -0.045072958 0.037436917 0.2768848
0.022523876 -0.049310286 -0.13704754 -0.49279225 -0.042411234 0.033489205 0.036202777 -0.5002396
0.025536751 -0.05289915 0.008910853 -0.34822172 -0.11962074 0.03647078 -0.058455657 0.50629973
-0.07717936 -0.27603322 0.43226624 -0.08250754 0.3611114 0.25206652 -0.04133262 0.061561517
0.031483263 0.12781297 0.40054876 -0.048121694 -0.59841835 0.2940816 -0.082926475 0.06316428
-0.030823594 0.06647272 -0.07587068 0.05563047 -0.1470335 -0.073189646 0.08665184 0.044465914
0.016552696 -1.0832943 -0.31380135 -0.07836759 0.14930712 -0.20975864 0.17645101 -0.45195913
0.20100659 -0.07728306 -0.54648143 -0.24988097 0.16629297 -0.24329688 -0.34933293 -0.071738176
-0.04166576 0.008881845 0.07893216 -0.14183235 0.22853042 -0.092679925 -0.078480475 -0.07545812
-0.059236825 0.013714464 -0.16520339 -0.3396438 0.08811346 0.52452433 -0.046893407 -0.16402076
0.17423458 -0.1849619 0.015522218 0.0071454323 0.056314915 0.012137414 -0.06479178 -0.19407918
-0.370371 0.001456276 0.22812721 0.17439707 -0.070528686 0.13618192 0.1976241 0.037293576
0.004529403 0.076061346 0.07397331 0.0022170271 0.19435968 0.24966761 0.017123997 -0.5045086
0.1788734 0.11366667 -0.0033714718 0.06828917 -0.11730088 -0.00689498 0.040494937 -0.0029966389
0.17646709 0.1750658 -0.095034406 -0.09632252 -0.036639873 -0.08737297 0.15092821 -0.057016425
0.080962785 0.11171985 1.5527982 0.08307814 -0.064753674 -0.39723527 0.05442022 0.14806269
-0.7150613 -0.049329013 0.15495655 -0.72984886 0.24301338 0.0038622906 0.02761668 -0.42346293
-0.04698084 -0.012869182 0.21056128 0.075895794 -0.00530004 0.16794932 -0.29302195 -0.015570347
0.049692206 0.012050363 0.00061608845 0.18162031 -0.061539166 0.013717633 0.026289742 0.4065568
-0.0009624033 -0.19907574 -1.3315867 -0.057513114 -0.86138815 -0.020949986 0.10228804 0.0771474
0.0069535766 -0.025674155 0.3067306 0.085665524 -0.02371447 0.2828204 -0.90088445 -0.10660019
0.066145994 0.013280944 -0.09676024 0.0018586752 -1.0370233 -0.026367633 -1.5411932 -0.006804151
-0.48760557 0.024677498 -0.16577737 -0.5847189 0.13770492 -0.029996961 -0.12539925 -0.0029393677
-0.47300306 -0.004299897 -0.122047484 -0.020596722 0.27117166 -0.1877054 0.053859368 0.04103821

fc3.bias f4 [4]
00000000: decd 7b3d b3c4 0e3d 46b8 143e 9de8 b43c
0.061475627 0.034855556 0.1452342 0.022083575

fc1.weight f4 [128, 24]
00000000: 7835 b3be f532 123e fab0 b8be 1338 8b3e
00000010: 979f b8be 0d1d 233e 81f6 fe3d 5112 353d
00000020: 3738 18be 63ff 87be e947 d93d 7a35 0d3e
00000030: a292 a9be 4ba6 ea3d 4c07 373e 324e 12bf
00000040: 6d7d 1cbe f9b0 9abe 076f 173f 96a8 5cbe
00000050: 29b5 913c b06c d33d f0e1 b13d af59 86be
00000060: dbd5 60be 7a08 5cbe 021a 23be a451 b9bd
00000070: 7453 90bd 3320 b4be f7f4 98bd e70e f3bd
00000080: af48 c43e 36dd c4bd 3b9a ed3d e905 b5be
00000090: 99c4 15be 7d02 a83e ba88 83be f037 1cbe
000000a0: 9ecd a1bd c0b0 f4bd 7017 b43e 5837 88be
000000b0: a840 5d3d 75d8 1ebf aeb3 a0be 21ea 6e3f
000000c0: cbcb 233e 0f33 e23d 565c 9fbd 5d56 27bd
000000d0: 0e78 c23d 10e5 c1bf 6a6a f4be 6067 fc3c
000000e0: ab2c ad3f 33b2 b0bc 203b efbd 9bab 7abd
000000f0: 6eb4 a73d 38b3 fabe 4be5 cabc 44e4 bd3b
00000100: f3ea a2be f257 52be 99b2 343e 95e3 ea3d
00000110: f517 9abe 929a 0bbe 6ab4 62be 28d7 413b
00000120: a10d ac3e bd07 e13d 154e 2fbe e4b0 a6bc
00000130: fc55 c6be 0dee 883e 3842 c73d 45eb f1bd
00000140: 8a39 e9be b331 b23e b66d cabe 454f 89be
00000150: 6083 08bf 1a2c e63d 6d05 81be 87be 293d
00000160: 8148 863c 01c7 bd3d 8c7f 0e3d bff4 6f3e
00000170: a236 863e 0a7c 7ebd d8d0 63be a8e9 5ebe
00000180: 5a1e b73d b232 993e a72c f1be 5a26 bdbe
00000190: ed6b b7be 5914 803e b6b7 53be 0a53 c2bd
000001a0: 3084 79be 576c 103e 6e3e ecbe 0f70 583e
000001b0: 196a dfbd e265 9d3e 0b15 5dbb 09a0 593e
000001c0: 2157 143e ade5 aabd db67 01bf 0fbd 61be
000001d0: 13cd 453c e685 e23d d59b 2e3d 7117 85be
000001e0: 6d78 9abe 3fde b13e 4b3d 81be a199 79bd
000001f0: 0033 81be 7366 5c3e c53c d4be c5f8 44be
00000200: c29d d6bd 7038 3cbd 1d31 91bf 0d59 a63d
00000210: 1635 363d 47d2 8e3f bc62 e2bd fca9 85bd
00000220: a421 7abd dee5 c9bd e191 a8bd 1c62 66bd
00000230: aef2 223e 4ab2 7cbe 9761 b9bd 9633 593e
00000240: 3afe 9abe be5d 5cbe 0f67 993e 36fc 013e
00000250: 8549 013e f1f5 c0be 9ce1 6cbd c661 3cbe
00000260: 8052 b63e 59ed 53be 716b 543f d185 68be
00000270: 72ab 5cbe 9866 c03e aabe ad3c ac1f ab3d
00000280: b9ab 123c f2c9 3ebe ca8d b6be 2edc 9b3e
00000290: 9d1c 6abf 1f77 e63d 3c67 7dbd e107 5d3f
000002a0: 631b 49be ca5b f83c 96b8 793e 56d8 053e
000002b0: 0952 86bd d1ef 103e 58cb 96be d413 46be
000002c0: a642 f53d d361 cb3d a056 11bf 5eec 33be
000002d0: 6eb2 85bd 8926 823d b380 95bd a48b 813d
000002e0: 5d21 af3d 4a66 06be 4853 c2be 78cd d43d
000002f0: d439 a3bf 4a11 37be 6095 d0bb dded 9d3f
00000300: fddf 50be 5f29 0fbe 49be bcbd 9dd5 a7be
00000310: 1e0c 373d 0feb 0dbf e1d9 80be a94a 09be
00000320: 9b2e 263f 60b9 0e3d 6a10 c3be 97be ecbd
00000330: ed32 c8bd 42e6 993e b354 cebb df05 cf3d
00000340: 3ee3 c2be 6884 d2be 2c40 b3bd 12e0 083e
00000350: 9d0d e0be 3589 cbbd b734 3bbe 7b7b c33e
00000360: 2987 52be 6d52 8cbd 16f4 5a3e 7255 ca3d
00000370: 3275 b63d 455f c43e d432 c9bd a201 843e
00000380: d780 4ebe b716 71bd e56b 703e ed08 08be
00000390: e5bb 10bc 6b0f 1a3e 1eaf c6bd edd2 303e
000003a0: 369b a53d 62d4 b7bc 2649 96be 4b24 6c3e
000003b0: 9130 70bf d97e bb3c 8e14 1eba 004c ad3f
000003c0: be40 40be 6aa3 a53b c928 b9bd fb21 72be
000003d0: 76cc acbd d7d6 c23d 071c 83be 5082 67be
000003e0: 9a12 4a3e 621c 0abd f423 af3e e000 abbe
000003f0: eb6e 60be f291 103f 20af 60bd 576c dabc
-0.3500173 0.14277251 -0.36072522 0.2719122 -0.36059257 0.1592905 0.12449361 0.04420692
-0.14865194 -0.26562032 0.10609419 0.13789931 -0.33119684 0.11457499 0.17873877 -0.57150567
-0.15282221 -0.30213144 0.5915379 -0.21548685 0.01778658 0.10323465 0.08685672 -0.26240298
-0.2195658 -0.21487609 -0.1592789 -0.09048775 -0.070471674 -0.35180816 -0.07468598 -0.11868077
0.38336703 -0.09612505 0.11601683 -0.35356072 -0.14625777 0.32814398 -0.25690252 -0.15255713
-0.079005465 -0.11947775 0.3517413 -0.26604724 0.05401674 -0.6204904 -0.31387085 0.93326
0.1599571 0.11044895 -0.077812836 -0.040853847 0.09495555 -1.5148029 -0.47737437 0.030811012
1.3529257 -0.021569347 -0.11681199 -0.061198812 0.08188711 -0.48964858 -0.024767539 0.0057950336
-0.31819877 -0.20541361 0.17646255 0.11469189 -0.30096403 -0.13633183 -0.22139135 0.0029577706
0.33604148 0.10987804 -0.1711963 -0.02034802 -0.38737476 0.26744118 0.09729427 -0.11812452
-0.4555171 0.34803542 -0.39536828 -0.2681829 -0.5332546 0.112388805 -0.25199452 0.041441467
0.016391994 0.092664726 0.034789607 0.23433207 0.26213557 -0.06213001 -0.22247636 -0.2176882
0.08941336 0.2992149 -0.4710438 -0.36943322 -0.35824528 0.25015524 -0.20675549 -0.09488495
-0.24366832 0.14103828 -0.4614138 0.21136497 -0.109089084 0.30741793 -0.0033734466 0.21252455
0.14486362 -0.083445884 -0.50549096 -0.22044776 0.012072819 0.11060695 0.04262908 -0.25994447
-0.30170003 0.34739873 -0.25242075 -0.060937528 -0.25234222 0.21523456 -0.41452613 -0.19235523
-0.10479309 -0.04595226 -1.1343113 0.08122454 0.04448422 1.1157922 -0.11053988 -0.065265626
-0.06106724 -0.09858297 -0.08230949 -0.05624591 0.15912887 -0.24677387 -0.09051817 0.21211085
-0.30272084 -0.21520135 0.2996144 0.12693867 0.12625702 -0.37687638 -0.057832345 -0.18396673
0.35609818 -0.2069601 0.8297644 -0.22707297 -0.21549776 0.37578273 0.02120908 0.0835565
0.008952075 -0.18631724 -0.3565505 0.3044142 -0.9144991 0.11253189 -0.06186603 0.8634015
-0.19639353 0.030317206 0.2438682 0.13070807 -0.06558616 0.14153983 -0.29452014 -0.19343501
0.11975603 0.09930768 -0.56772804 -0.17570636 -0.065281734 0.06355006 -0.07299938 0.063254625
0.085512854 -0.13124958 -0.37954164 0.103907526 -1.2752023 -0.17877689 -0.006365463 1.2338215
-0.20397945 -0.13980626 -0.092159815 -0.32780161 0.04468929 -0.55436796 -0.25166228 -0.13407387
0.64914864 0.034844756 -0.3809846 -0.1155979 -0.09775338 0.30058485 -0.006296718 0.10108542
-0.38063997 -0.41116643 -0.08752474 0.13366726 -0.43760386 -0.099382795 -0.18281828 0.38180146
-0.20559372 -0.06851659 0.21382174 0.09879579 0.08909072 0.38353935 -0.09824148 0.25782496
-0.20166336 -0.058859553 0.23478658 -0.13284655 -0.00883386 0.15044944 -0.0970137 0.17267962
0.08086245 -0.02244014 -0.29352683 0.2306072 -0.93824106 0.022887634 -0.00060302846 1.3538818
-0.18774697 0.005054881 -0.09040982 -0.23645775 -0.08437435 0.09513634 -0.2560732 -0.22608304
0.19733658 -0.033718474 0.34207118 -0.33399105 -0.21917312 0.56472695 -0.054854512 -0.026662989

fc1.bias f4 [128]
00000000: 31cf e8bd 97c5 eabd 3ca5 163e 60f8 683c
00000010: 4b40 54be c9be 933a 8ad0 5d3d 17c9 f73c
00000020: d012 04bd b363 6d3e 8de9 bbbe 99a2 3fbe
00000030: 7a31 10be b6cb 22be 4ecf 5abe 2f87 663e
00000040: 82e0 75be 1d3b b9bd 3410 a23d d204 7e3e
00000050: 0c09 8c3e 6cba 563d d34c 8ebd 3a0f e23d
00000060: 3154 8bbd d3c4 053d ca61 de3d a182 413e
00000070: 042a 653e f70d c63d ec5f 19be 2334 8cbe
00000080: 91e8 55be 6a4c 993d ceab 4bbe 8646 3b3d
00000090: 4bd2 06be f717 cebd ef3d 31bc 5832 30be
000000a0: 257e f6bd 8a20 fbbd 1b8d 87bd 858a 053e
000000b0: 6d6a 573e 4d7f 7ebe c905 2dbe f14f e6bd
000000c0: 77e2 9fbe 297f 9fbd 81ce 96be ecbe 4e3b
000000d0: cc9b 683e be63 ccbe 388a fa3d c026 3ebe
000000e0: 22d6 70be 676f a9bd 82e4 a1bd ae5b bebd
000000f0: 3f13 6cbe 0374 473e 4592 c8be 985b bdbe
00000100: 2740 07be df79 dfbd 3da5 3c3e 95ac 333e
00000110: ff00 c9bd 33dd 4f3d 53ea cbbd ad98 75bd
00000120: d929 9ebd 95e4 8abd fc54 873d 9701 ddbd
00000130: 4430 913d fccd 51bd f856 e1bd 137b b3be
00000140: fdd5 bcbd cb8b fdbc 25e1 e2bd 902f 2bbd
00000150: 3d7f b7bd 5b95 3bbe afb3 4fbd a5b5 8dbe
00000160: aee8 e43d 8af2 b1bd d986 40bd 9644 1ebe
00000170: 7046 a9bd ddae 653e 2b91 5dbe abe3 46bd
00000180: 2e7e 373e 237f 13be fb2c 96be b5bb 06be
00000190: c3f2 b9be 156e a33d e00a e5be 9c88 57bd
000001a0: 493a 44be 8a33 98be b641 c0bd b54c 02bd
000001b0: 64da 74bd b859 98bd 67b0 10be 2700 d6be
000001c0: 1d51 5a3e 6e7b 1abe b263 13be f300 d5be
000001d0: b0cd 8bbe c27e 1b3d 00e2 ca3d 336c 2dbd
000001e0: 70ee bcbb 6c80 a53d 9fff a1bd 48e7 ebbd
000001f0: 7ddc bbbd 560e 02bc 2979 213d 7b7f 903d
-0.113676436 -0.114634685 0.1471147 0.014219373 -0.20727651 0.0011272068 0.054153956 0.030247254
-0.032244503 0.23182563 -0.36701623 -0.1871437 -0.14081374 -0.15898022 -0.21368143 0.22512506
-0.24011424 -0.09044478 0.07913247 0.24806526 0.27350652 0.05242388 -0.06948247 0.110380605
-0.068031676 0.03265841 0.108584955 0.18897487 0.22379309 0.09670632 -0.14977998 -0.27383527
-0.20889498 0.07485278 -0.19889757 0.045721553 -0.13166158 -0.10063165 -0.010817989 -0.17206705
-0.12035779 -0.12262066 -0.066187106 0.13041122 0.21036692 -0.24853249 -0.16896738 -0.11245716
-0.31227466 -0.07787926 -0.29454425 0.0031546904 0.22715682 -0.39919847 0.122333944 -0.1856947
-0.23519185 -0.082732014 -0.079049125 -0.0929483 -0.23054217 0.19477849 -0.39174095 -0.36983943
-0.13208066 -0.10911917 0.18422408 0.17546304 -0.09814643 0.05074806 -0.09956803 -0.059960056
-0.077228256 -0.0678188 0.06608006 -0.10791319 0.07089284 -0.051221833 -0.11002916 -0.35054836
-0.092205025 -0.030950448 -0.11078099 -0.041793406 -0.08959816 -0.18318693 -0.05070847 -0.27677646
0.11177193 -0.08688839 -0.0470036 -0.15455851 -0.08265388 0.22429986 -0.21637408 -0.048556965
0.17919227 -0.14403968 -0.29331192 -0.13157542 -0.36318025 0.07979981 -0.4473486 -0.052620515
-0.19162859 -0.2972682 -0.09387533 -0.031811435 -0.059778586 -0.074389875 -0.14129792 -0.4179699
0.21320005 -0.15086147 -0.143935 -0.41602287 -0.27305365 0.037962683 0.09906387 -0.042339515
-0.0057657287 0.08081135 -0.07910084 -0.11518723 -0.09172914 -0.007937988 0.039422188 0.07055565

fc2.weight f4 [128, 128]
00000000: 195d 993c 099d 7b3c 1057 45bf 4a9b 8b3b
00000010: 8814 6a3e fd47 b43e f2af 923d c3ba 9e3e
00000020: d956 8e3d f123 843c 720a 34bc ac5b 2c3e
00000030: c71a a83e cf6b 2d3e 31a6 71be df29 253e
00000040: 499d 403e be77 31be 4716 b1be 4b1c 293d
00000050: 72e9 5e3e 86b2 233e a198 8f3e 190a 2dbd
00000060: 1793 5ebe 6053 63bd 84be 0c3d 1c75 ab3e
00000070: 42da c83d 650f 8e3d 98c1 0b3f 8dbc d03d
00000080: 3628 473d 4638 143e 7a52 b53e d406 4b3c
00000090: b267 eabe 3cc8 143e 760a c93e 7619 af3e
000000a0: af60 4bbe 57e8 2d3e be66 5b3d 2b79 713e
000000b0: 15cd 15be 049d 883b e6e1 713e dd08 fc3d
000000c0: aec5 233e 14e4 503e 6247 853e fb3e bf3d
000000d0: 51ff 723e b26a ed3d 92dd c53e 60fc 883e
000000e0: bb07 b53e 4b03 f7bd 5340 173e d07a 1f3e
000000f0: c6ab 803d 315d a8bd 4d2b cf3e 67c2 703e
00000100: 3734 2f3d 6972 bd3e 74d4 dcbd 6938 f7be
00000110: 2296 c03d 1c66 16bf c511 113d 3f85 d83e
00000120: 5e8e b1bd b1c7 38bf e9b2 34be 5d2a 2c3d
00000130: 818e b33e bc74 2e3e fa82 01bf 4591 a93c
00000140: 55ff 3cbe 3a3c 693e 6be1 233d aea6 44be
00000150: dc0e f33d e4bb 923e 2005 1f3e b8cd 3e3d
00000160: 934b da3d 425f a33e 080e c33d 6cc6 823c
00000170: 3887 82be 4edb 28bd c179 9e3b a589 ae3e
00000180: 5733 133e ed5f 75be f48d 203e a2b1 debd
00000190: db26 d1bd ea50 0e3e dfb2 4b3e 73e0 0d3f
000001a0: 15db b63e 07e1 673d 8a88 c53a 6641 c23e
000001b0: dba7 a83d cd98 ec3d 9815 023e d83d 623e
000001c0: 8314 ad3e 5533 c4bb 9e7c 103e a50f 4cbe
000001d0: 2022 75b9 899a ca3d 9d16 49bf 9730 4cbf
000001e0: 9382 723e 6cf1 673e 2314 143e 154e fcbd
000001f0: 709c 2f3e 6c05 b23c 0d23 093d b456 e6bd
00000200: 75c7 89bd c690 efbb 072a 15be 4996 333d
00000210: 9409 96bd c073 af3c 57c1 173d 497d ab3d
00000220: d3f9 4bbc d527 5ebc de90 93bb 1b2c 19bd
00000230: 16db 70bd fd38 f83c 61a2 aabd f0b4 c9bd
00000240: 4d3d 15bd d06b 13bd f143 5a3d e837 2dbd
00000250: cb5b 99bd 613c 62bd 3a51 82bb 771a ea3c
00000260: ae24 1dbc 12a1 aabd f32d 003d 9bc2 3fbc
00000270: cb98 bf3c a4e4 9dbd 970b c9bd ccd4 073c
00000280: 71cc b83c 0370 033c 963f 80bd af8c b7bd
00000290: beed 66bc 797f cbbd 96f6 4a3d c6f1 153d
000002a0: 5db1 59bd 195e d73c d695 0f3d 7f7c 09be
000002b0: 9743 133d ee7a 8a3c 317d 79bd 1030 e6bc
000002c0: 0a75 d4bd 0192 f9bc bf66 8cbd 0e03 c93c
000002d0: fc53 4f3d e98b 353c 4664 69bc a3d0 76bd
000002e0: 923f bebd 5494 05be 1587 1cbc 059f 39bd
000002f0: 7ac2 61bd 6d6a 6abd b71a babb af38 5abc
00000300: 7196 5d3c ebc7 7a3b 1463 bfbc 38ea 1e3d
00000310: 2dc2 dcbd 3c15 62bc 4a99 7cbd a311 0a3d
00000320: 37a4 70bc 5c68 75bd f1be 86bd 03a5 803d
00000330: 0837 123c b615 f4bd 3f54 92bd 4f45 80bd
00000340: 96a3 77bd 9170 d1bd 6e15 403d 8ca8 84b9
00000350: b462 49bb ce52 2e3d 5225 9dbd a5b2 f23c
00000360: 0453 4abd d085 77bd eba5 55bd 305b bdbd
00000370: 4a6b babd 73ab 21bc 2d37 4fbd db9c 7e3a
00000380: c0c0 c23c e1f9 18be b098 883a 2fc3 a0bd
00000390: 608e ce3c 1f00 4dbc 609e 023d 321b 383c
000003a0: e013 d03b 25fb ebbc bf3f a9bb 7de7 9cbc
000003b0: 2ab5 d7bd 9f25 193d 872b 85bd 9c2b 473d
000003c0: 669c e83c d236 523b 20c3 adbd 6683 51ba
000003d0: aef2 cdbd 1b01 973c 12b8 7ebc d6dc 93ba
000003e0: 582c 56bd 5869 05be 15a2 e23c d1c0 d83b
000003f0: ac18 dbbd 268b 2fbd 735b 0abb 0fdf 343d
0.01872115 0.015357264 -0.7708597 0.0042604553 0.22859395 0.35211173 0.07162465 0.31001863
0.069501586 0.01613042 -0.0109888185 0.16831845 0.3283293 0.16935657 -0.23598553 0.16129254
0.1881 -0.17330834 -0.3458731 0.041286748 0.2176874 0.1598607 0.28046134 -0.042245958
-0.21735798 -0.055499434 0.034361377 0.33487785 0.098072544 0.0693653 0.54592276 0.10192213
0.048622333 0.14474592 0.35414487 0.012391765 -0.45782238 0.14529508 0.39265794 0.34199113
-0.198611 0.16983162 0.05356478 0.23581378 -0.14629014 0.0041691083 0.2362133 0.12306378
0.15993378 0.20399505 0.26031023 0.093381844 0.23730208 0.11592616 0.38645607 0.26755047
0.3535746 -0.12061175 0.14770631 0.15574193 0.06282763 -0.082209 0.40462723 0.23511659
0.042774405 0.3700135 -0.1078271 -0.48285225 0.094036356 -0.58749557 0.035417337 0.4228916
-0.086697325 -0.72179705 -0.17646374 0.04203259 0.3506966 0.17036718 -0.5059048 0.020699153
-0.18456776 0.22776881 0.040009897 -0.19204208 0.118680686 0.28658974 0.15529299 0.046582907
0.10658946 0.31908613 0.095241606 0.015963756 -0.2549379 -0.04122477 0.0048362915 0.3408939
0.14375053 -0.23962374 0.15679151 -0.108737245 -0.10212489 0.13898054 0.19892453 0.5542061
0.3571402 0.056611087 0.0015070599 0.3794052 0.08235141 0.11552582 0.1270355 0.22093904
0.33804712 -0.0059875646 0.14110038 -0.19927843 -0.00023377733 0.098927565 -0.7855013 -0.7976164
0.23682623 0.22650689 0.14460807 -0.123195805 0.1714952 0.021731101 0.033480693 -0.11247006
-0.067274965 -0.0073109595 -0.14566813 0.043844495 -0.07326046 0.021417499 0.037049618 0.083735056
-0.012449699 -0.013559301 -0.0045033535 -0.037395578 -0.058802687 0.030300612 -0.083317526 -0.09848964
-0.036435414 -0.03599149 0.05328745 -0.042289644 -0.07488211 -0.055233363 -0.003976968 0.028577073
-0.009591265 -0.08331503 0.03129382 -0.011704112 0.023388287 -0.07709625 -0.09816664 0.008290481
0.022558423 0.008022311 -0.06262128 -0.0896238 -0.014094768 -0.09936423 0.04955157 0.036607526
-0.053147662 0.026289986 0.035055004 -0.13426398 0.03595313 0.01690432 -0.060910407 -0.02809909
-0.10373886 -0.030465128 -0.06855535 0.02453759 0.050617203 0.01108072 -0.014245098 -0.060257565
-0.09289469 -0.13044864 -0.00955369 -0.04531767 -0.055117108 -0.0572304 -0.005679454 -0.0133191785
0.013524638 0.0038266133 -0.023362674 0.038797587 -0.107792236 -0.013799008 -0.061669625 0.033708226
-0.014687589 -0.059913978 -0.06579388 0.062814735 0.008924253 -0.119182035 -0.07144975 -0.062632196
-0.060458742 -0.102265485 0.046895437 -0.0002530258 -0.0030728998 0.042559437 -0.07673134 0.0296262
-0.049395576 -0.060430348 -0.052160185 -0.09245908 -0.09102495 -0.009867537 -0.05058973 0.00097127043
0.023773551 -0.14939071 0.0010421481 -0.07849728 0.025214374 -0.012512236 0.03188932 0.011236953
0.0063500255 -0.028806278 -0.00516507 -0.019153351 -0.10532601 0.037389394 -0.06502443 0.048625574
0.02839489 0.0032076132 -0.08484483 -0.0007992297 -0.10056053 0.018433144 -0.0155468155 -0.0011281024
-0.052288383 -0.13028467 0.027665177 0.0066147824 -0.10698065 -0.04285731 -0.0021111637 0.044158038

fc2.bias f4 [128]
00000000: 54cd 85bc 7fcb 49bd f76c bdbd dd6c 95bd
00000010: 754b cdbc 5bdc 49be d885 e4bc b502 b3ba
00000020: 14a1 b3bc 2f31 683d ed39 b43d 7003 44be
00000030: 46ea 13bd a935 b43d 213b 4dbd 7b5a 923d
00000040: 3356 b9bd 5d9a 1cbe 4e78 a03c 5048 98bd
00000050: b92d 40bd f900 41bc 60e2 94bc 938f b2bc
00000060: 204f 31bc 795a c43c 13d3 463e 9d13 283d
00000070: 745c 39bc b352 c73c 14fd 81bd 188d 2fbd
00000080: 6378 bebd 85a1 88bc 812d 523c f114 7fbd
00000090: 7789 1abc 3ae9 a23c e785 2f3d b920 003e
000000a0: 7b8a f9bd 1437 2abd 0e03 49bd a0fa b9bd
000000b0: d37a 20be 0659 abbc ecec b73c 643b 0f3d
000000c0: 158d 283c 98b4 3dbd 8a83 b6bd c3ed 843d
000000d0: 200f 25bd 1194 fabc 0a6b 20be aca4 b8bd
000000e0: fb78 bfbd f705 213e 86d7 23bd 39c1 323d
000000f0: c7d6 813c 7e2e 90bc 2345 cbbd d657 38bd
00000100: 5534 c13d 5ceb d6bd d12b 153e 6334 f33c
00000110: c0d1 f43d c365 a1bd f424 21bd 48c5 46bd
00000120: 14de 97bd 6a2d eebd 8cef 293d b6be 4d3d
00000130: b16b 34bd 8c31 10be 42d6 c33c 8cc4 de3c
00000140: 7562 e03c 875b 40bd e0dd ffbd 0d64 f3bc
00000150: c927 52be 0e50 1b3d 4174 9abc 9f89 8c3d
00000160: 4031 96bc a3f6 f2bd 3a0d 243e cbdc 22be
00000170: d252 373e f59b 74bc 6842 adbd ce64 c6bd
00000180: af58 04be 4674 b5bc 22c8 993a d512 e7bd
00000190: d0e1 babd 279f 3f3e 4e9a 7abd 76fe 74bd
000001a0: 6b39 73bc 8e06 85bd 1b2f 8ebe 06f3 04bd
000001b0: 7126 e1bd db5a d4bd b6f1 223e 74f1 4abd
000001c0: 2f8f f5bd 7b1f a5bb de28 e73c 417d a4be
000001d0: c150 1d3d 2919 1abe 0e05 8fba bae9 0cbe
000001e0: 3862 8d3d 5644 31be f020 043e 913e 07be
000001f0: 8cd0 4dbd 7af4 513c 5d75 49bc 0134 7bbd
-0.01633326 -0.049266335 -0.09249299 -0.07296155 -0.025060395 -0.19712965 -0.027895853 -0.0013657423
-0.021927394 0.05668753 0.08800111 -0.19141936 -0.036112092 0.08799297 -0.050105218 0.07146164
-0.09049644 -0.1529326 0.019588616 -0.074356675 -0.046918605 -0.011780017 -0.01817435 -0.021796977
-0.0108220875 0.023968922 0.19416456 0.04103433 -0.011313546 0.024331426 -0.06347099 -0.042859167
-0.09300306 -0.016678581 0.012828232 -0.06227583 -0.009432188 0.019886602 0.04285231 0.12512483
-0.12184616 -0.041556433 -0.04907518 -0.09081006 -0.15671854 -0.020916473 0.02245184 0.03496875
0.010287543 -0.046314806 -0.08911808 0.06490662 -0.040297627 -0.030588182 -0.15665832 -0.09015784
-0.09349247 0.15724932 -0.04000046 0.043641303 0.015849484 -0.017600294 -0.09925296 -0.045005642
0.0943381 -0.1049411 0.14567496 0.029688066 0.11954069 -0.07880738 -0.039341882 -0.048527986
-0.07415405 -0.11629756 0.041488215 0.050230704 -0.044048015 -0.140814 0.023905877 0.02719333
0.027390698 -0.046962287 -0.12493491 -0.029710794 -0.2052299 0.037918143 -0.018854262 0.06862187
-0.018334031 -0.118634485 0.1602067 -0.15904538 0.17902687 -0.014929761 -0.084599316 -0.09687196
-0.12924455 -0.02215017 0.0011732618 -0.11282889 -0.091251016 0.18713056 -0.061182313 -0.059812985
-0.0148452325 -0.06495391 -0.27770314 -0.032458328 -0.1099366 -0.10368892 0.15912518 -0.049546674
-0.11990201 -0.005039153 0.02821773 -0.3212681 0.03840709 -0.1504866 -0.0010911541 -0.13761035
0.06903499 -0.17311224 0.1290319 -0.13207461 -0.050247714 0.012814635 -0.012296048 -0.06132889

fc3.weight f4 [4, 128]
00000000: 1015 7ebe e0db e33c 5024 88bb e3d1 383d
00000010: f58c 32be aa9a 83be 6490 4ebe 6a30 99bd
00000020: 2fb5 37bd 5171 173d 845a ccbe a1c5 583d
00000030: 1cba 65be cd13 163f 2f29 c3bd 1d8c 613e
00000040: ddc4 533e f42d f2bd bb72 783d 7bb4 d5be
00000050: facd 523d 81a5 f1bc 635b 31be a8a0 653e
00000060: 5f72 8e3e e983 a4bb 9fd8 08be 160f 9d3e
00000070: a8d3 39bd 45bc 3dbf b49e 793e d987 8abd
00000080: 10af 2a3b 535a a2bb f0ee cd3c 3d15 29bf
00000090: f1ac 4d3d e754 5fbf 4e86 ab3c 2a1e 6cbe
000000a0: 420f 84bd 29ff 67bf 50c5 643c 66b4 02bc
000000b0: f720 94be d4f2 fdbc 52c8 e53e 5843 d9be
000000c0: 06f6 763e c105 1dbe fe01 12bf bdf4 61bf
000000d0: 46df 893c 0a94 14bc b1a5 b5be 8691 edbd
000000e0: e80c abbd adfa 8bbe 2637 ee3c 7227 04bf
000000f0: 07b2 afbd 5088 c43d 071b 05bc 753f 5f3d
00000100: 01ad 8b3e 9a72 51be 7260 30bf f752 09be
00000110: 9a32 853e f651 cebc 7457 193d fcc1 893e
00000120: fe83 b83c 95f9 49bd de7a e0bd 26bf f1be
00000130: 67b7 2dbd fa2b 093d a5c6 153d 8e54 f5be
00000140: 7bc3 0a3d c7ac 58bd d4fe 113c e3c6 9cbe
00000150: 5d4d d7bd 6262 153d be00 47bd 2787 fa3e
00000160: 3610 9ebd b0c0 83be 732a d83e b7f9 a8bd
00000170: 61e3 b13e 63be 7d3e 654c 29bd ee27 7c3d
00000180: 98f4 003d 67e1 023e 275d a63e 411b 45bd
00000190: 27f8 17bf 8415 913e 142a aebd 51f9 933d
000001a0: c381 fcbc 8851 a53d 5c38 73bd c7dc 633d
000001b0: 5055 28be 74e4 95bd 4554 933d e421 363d
000001c0: 39ee 463c d3df 7fbf a1ce 9ebe 6b68 bcbd
000001d0: ba12 213e 7de3 4abe 8f40 383e fb5f cbbe
000001e0: 7f8b 453e 974a 91bd c292 18bf 421c 76be
000001f0: ab7b 303e da19 7abe 567f a8be 77eb 92bd
00000200: 64dd f6bc 2885 113c 2fa7 a13d d54a 0abe
00000210: 5d35 573e 794e c0bd f85e 8fbd c989 9abd
00000220: 50a2 72bd a2b2 603c ff71 26be e274 b8be
00000230: d6dd a83d 4593 fb3e 008e 24bd 0b3b 2fbe
00000240: eeed 1d3e c6ee 32be e750 7e3c 61e3 693b
00000250: 78aa 663d 01dc 463c c6e5 62bd 20e8 47be
00000260: 1ccb bbbe 84e0 be3a 52ff 4d3e 3b9e 243e
00000270: 5871 90bd 1b1c 013e da65 383e b96f 133d
00000280: 636b 943b 0dc6 9b3d 527f 973d cbbe 7dbb
00000290: 2348 3e3e c6ac 6b3e a047 8c3c 1fb0 f9be
000002a0: 972a 373e 8bf1 c33d e9f3 5cbb 31db 8b3d
000002b0: 2c55 d0bd 13ed e1bb 9d21 aa3c 2375 b5ba
000002c0: 220f 263e 44e6 2e3e 04da d3bd edb8 dbbd
000002d0: b113 16bd 6514 c5bd 1fb0 093e 0e8a 69bd
000002e0: ffb8 a03d fe13 b53d 7a6e ba3f 0aba 9e3d
000002f0: 939d 84bd 17ab dcbe bde7 5e3d f34b 083e
00000300: 048a 3cbf 4423 26bd c88d 0d3e 2352 38bf
00000310: b68b 683e 16df 833c 603c e23c 89c4 e1be
00000320: fb6e 40bd 43d9 52bc 8c61 423e 3788 973d
00000330: f5ab adbb e8fa 2b3e fbf1 8cbe 106c babc
00000340: f969 563d e36e 453c ff80 213a 71a2 223e
00000350: d389 48bd ecbf 603c 29d7 193c 9910 b93e
00000360: cb49 7cba bb9c 32be 03b4 a9bf df92 6bbd
00000370: 74c6 5abf 5e91 2ebd 647c d13d 75ff 9d3d
00000380: d4da e33b 9b52 d2bc 71f0 853e 6871 af3d
00000390: b861 17bd 53f2 843e 27a4 27bf 2519 e1bd
000003a0: 8d77 873d 1ce1 c53b 6558 c1bd ca9e f33a
000003b0: 3c85 72bf ef00 d8bc 2ff6 c3bf 5bf5 debb
000003c0: 16a7 e9be 71df 3a3c 9f64 22be 59ef 08bf
000003d0: 32fd 023e 5b1b a9bc cce6 05be 358f 30bb
000003e0: 7624 e8be f1c5 50bb 5f92 10be 20c6 d2bc
000003f0: 290d 7b3e 9e78 33be d567 7a3d af17 283d
-0.24812722 0.027814806 -0.0041547194 0.04512204 -0.17436583 -0.25703937 -0.20172268 -0.074799374
-0.044850525 0.0369733 -0.39912808 0.05292285 -0.22434276 0.58623964 -0.095293395 0.22026105
0.20680566 -0.11825171 0.06065629 -0.41739258 0.051465966 -0.029497864 -0.17320018 0.22424567
0.27821633 -0.0050206077 -0.13363884 0.30675572 -0.045367867 -0.741154 0.24376947 -0.06764192
0.0026044287 -0.004954615 0.025138348 -0.6604803 0.050213758 -0.87238926 0.020938065 -0.23058382
-0.06448223 -0.9062372 0.013963059 -0.007977581 -0.289314 -0.030999579 0.44879395 -0.42434192
0.24117288 -0.15334226 -0.5703429 -0.88264066 0.016830098 -0.009068498 -0.35477975 -0.11600022
-0.08352071 -0.27339688 0.029079031 -0.5162269 -0.08578878 0.09596312 -0.00812412 0.054503877
0.2728043 -0.20453873 -0.68897164 -0.13410555 0.26015168 -0.025185566 0.037436917 0.2690581
0.022523876 -0.049310286 -0.10960935 -0.47216147 -0.042411234 0.033489205 0.036566395 -0.47916073
0.03387783 -0.05289915 0.008910853 -0.3062049 -0.10512803 0.03647078 -0.048584692 0.48931238
-0.07717936 -0.25732946 0.42219886 -0.08250754 0.3474379 0.24779658 -0.04133262 0.061561517
0.031483263 0.12781297 0.32492945 -0.048121694 -0.59363025 0.28336728 -0.085041195 0.07225288
-0.030823594 0.080721915 -0.05937992 0.05563047 -0.16438794 -0.073189646 0.071938075 0.044465914
0.012141758 -0.99950904 -0.3101702 -0.09199604 0.157298 -0.19813342 0.17993377 -0.39721665
0.19291495 -0.07094305 -0.59598935 -0.24034217 0.17234676 -0.24423924 -0.3290965 -0.071738176
-0.030134864 0.008881845 0.07893216 -0.13505109 0.2101645 -0.093899675 -0.07000536 -0.07545812
-0.059236825 0.013714464 -0.16254424 -0.36026675 0.08245437 0.49135795 -0.040174484 -0.17112367
0.15422794 -0.17473897 0.015522218 0.0035688507 0.056314915 0.012137414 -0.05539491 -0.19522142
-0.36678398 0.001456276 0.20116928 0.16075985 -0.070528686 0.12608378 0.18007603 0.03599522
0.004529403 0.076061346 0.07397331 -0.0038718458 0.18582205 0.23015127 0.017123997 -0.48767182
0.1788734 0.09567555 -0.0033714718 0.06828917 -0.10172495 -0.0068947165 0.020767981 -0.0013844114
0.1621671 0.17080027 -0.103443176 -0.10728631 -0.036639873 -0.096230306 0.13446091 -0.057016425
0.07847785 0.08841704 1.4564965 0.07750328 -0.064753674 -0.4309928 0.05442022 0.13310222
-0.73648095 -0.040560976 0.13823617 -0.7200033 0.22709545 0.016097587 0.02761668 -0.44095257
-0.04698084 -0.012869182 0.18982524 0.07399028 -0.00530004 0.16794932 -0.27528366 -0.022756606
0.052347157 0.012050363 0.00061608845 0.15882279 -0.048959564 0.013717633 0.009389677 0.36145476
-0.0009624033 -0.174426 -1.325806 -0.057513114 -0.85459065 -0.0426191 0.10228804 0.0771474
0.0069535766 -0.025674155 0.26160005 0.085665524 -0.036958426 0.2596613 -0.6548485 -0.10991124
0.066145994 0.006038798 -0.09440688 0.0018586752 -0.9473455 -0.026367633 -1.5309504 -0.006804151
-0.4563529 0.011405812 -0.15858696 -0.53490216 0.12791899 -0.020642927 -0.13076323 -0.0026940827
-0.45340317 -0.0031856264 -0.14118336 -0.025729239 0.24516739 -0.1752648 0.06113418 0.04103821

fc3.bias f4 [4]
00000000: 919c d73c 19f0 13bc 1625 ee3d ccc0 24ba
0.026319774 -0.009029412 0.11628167 -0.00062848325
