models/sess50000-max61-sm0.pth (torch, 333497 bytes, 24 tensors)

fc1.weight f4 [128, 24]
00000000: 1b13 663d d18b 243c 2307 ec3e e9f8 efbe
00000010: fe3b 2ebe 0e77 7bbe 8cac 4fbf c18c b73d
00000020: 4634 ef3e caff 57be 4e2e 803e 65d9 8c3b
00000030: b0d7 8fbf c36e f93e 1216 753e 702e 71bf
00000040: eb83 74bf ced9 c2bf c2cd 41bf 7fb4 9abf
00000050: 0b15 d73e 441b bd3e d1a0 713e 65d9 ef3d
00000060: 2070 8bbf 0ea6 813e 807b 8fbd 8b98 6fbd
00000070: c4d1 65be ccc0 c43e e365 463e f009 59be
00000080: 5942 fcbd c6d7 ff3b 3e97 c7bf dd37 af3e
00000090: 9834 67bf df3b 36be f988 22be ecdf eb3e
000000a0: d1d8 0abf 9bef eabe 18e4 513f 81c0 32be
000000b0: 4fad bcbd 87b9 063e fdf9 18bf f5d8 0bbd
000000c0: dc14 943f 1c59 313d 1d05 acbe 4716 11bf
000000d0: 801a 033f ad90 23bf 1c29 edbd eb8d 00c0
000000e0: bd51 cd3e 4508 33bf 76f0 903f 3014 023f
000000f0: 4fc4 d73e b6bd d3be 14bd 643f 5645 27bd
00000100: a3b2 39bf 1372 56bf 9e4a dcbd 3fe1 3f3f
00000110: d014 8abc c759 09bf b03d 50bf 88fb 40bb
00000120: 71f2 e43d 07d5 02be a025 89be ed07 0fbd
00000130: 6399 f13e 3f03 c0bf a55f 81bf 9997 6a3d
00000140: 5d87 a93f db98 93be d5f8 9d3b cb2a 263f
00000150: 3afb b5bc ce2c c1be 44e1 72bb fe2d 71bf
00000160: 47c5 9ebe f380 cc3d 1f97 96bd dea8 81bd
00000170: c27c 79be 866e c1be f44c bbbd e99f 813e
00000180: acae d53d 29c0 743d 10a9 77bf cceb cbbd
00000190: 9a5a 17bf 5587 1a3f 289d 193f a353 25bf
000001a0: fdbc 393f ffdb e8be 2169 013f 3aa4 073f
000001b0: fe29 dabe f23f 433f 03e7 f33e 1c1e 63bf
000001c0: 7948 92be 6584 36bf 527e c2be 1551 303f
000001d0: 5262 7dbf e9d9 cd3c d0b2 32bf 8b0a 5bbf
000001e0: fe53 4fbf cb21 023c 8438 2dbf 1dbc f73b
000001f0: 8cb4 b8be 4125 2bbf adb7 b53e 8f55 9ebe
00000200: 2e6b 813e 9650 f13d f645 cfbf 98e6 0bbf
00000210: bc10 7ebf 7208 ebbe 2c81 ebbe 813c 62bf
00000220: 8552 a8bd d342 25bf 608f cc3d e5ba 37be
00000230: c518 513e b944 74bf 45f4 72be 03ee 323f
00000240: 714b f5be 4428 acbe 5498 90be 9f1d 91be
00000250: 86f3 fbbd 9f28 01bf 41a4 fcbe 3ffa 6fbd
00000260: e001 213e da7c 97be 29ca bf3c 005a 2fbf
00000270: c203 85be 4767 a93e 1b67 2cbe a498 1abf
00000280: f160 d1be 8834 f3be 1ead bbbd e1bc 78be
00000290: b63e 32bf 636b 88be a4fe 58be 9c33 973e
000002a0: 93f2 d43d 5f59 3e3e 17f3 77bd 6bbf f03d
000002b0: bad6 1cbc 6818 453f 9468 993f 9cb2 25be
000002c0: f508 463f 7ff4 17be 4cdf 073f 2784 b43f
000002d0: 191c 2d3e b80e c8be 089d 3ebe e122 753f
000002e0: 2b6a 863e 7a3b 1e3f d9ef 45bf 78bd 2ebf
000002f0: c6f0 493f c315 9bbe 5426 ed3e a771 a0bf
00000300: 5458 903d 4b00 483e a234 d73e 9dc7 bcbf
00000310: 9521 e3be 7205 56be 67a5 a33d 2f07 06bd
00000320: d6e4 ffbe 716f 6ebe 2bf6 10bf 78be 093e
00000330: ab4e a33e dc13 08bf 305a 353e 96e8 05c0
00000340: f822 abbc 5604 49be 31f9 f8bd e6cd fbbe
00000350: aad5 85bf b968 a4bf 0f66 283f 4238 c33f
00000360: b9bf c0be 9d00 17be 7b07 15be ed4f 3abf
00000370: 6593 d5bd a076 3cbe 9a2d d1be 80ba 0dbf
00000380: c109 fc3d 9faf a43c 2a82 38bf 87d3 85bf
00000390: 7b36 8fbe e8da cd3e 987c 96bc 0466 6dbf
000003a0: 1d1b b0be f0af 64be d21f 993f 1dbc 00bf
000003b0: c0ea bdbe 1b17 2ebe d623 4cbe 63ec 053a
000003c0: 6ca8 813e e47f a63e 7858 a83e 85ae 103e
000003d0: cc96 c8bd 4e16 353f 919d cbbd b235 6c3e
000003e0: 67b1 9b3d a13a 823b 94ec e43e 0beb a9bc
000003f0: e326 d73e b5bf 3b3e 9883 bd3e ea4e 0dc0
0.056170564 0.0100431 0.46099195 -0.4686959 -0.17015073 -0.24557135 -0.8112266 0.089623936
0.4671957 -0.2109367 0.25035328 0.0042983764 -1.1237698 0.48717317 0.239342 -0.94211483
-0.9551379 -1.5222719 -0.75704587 -1.2086333 0.42008242 0.36934865 0.23596503 0.117113866
-1.0893593 0.25322002 -0.07005978 -0.058495086 -0.224433 0.38428342 0.19374804 -0.21195197
-0.12317342 0.0078077046 -1.559303 0.34222308 -0.90314627 -0.17796277 -0.15872563 0.46069276
-0.54237086 -0.4588593 0.8198867 -0.17456247 -0.092127435 0.1315671 -0.5975645 -0.034142453
1.1568866 0.043297872 -0.3359765 -0.5667462 0.5121231 -0.6389263 -0.115801066 -2.008662
0.40101424 -0.69934493 1.1323383 0.50812054 0.4214196 -0.41355675 0.8935101 -0.04083761
-0.72538203 -0.83767813 -0.107564196 0.74953073 -0.016855627 -0.53652614 -0.8134413 -0.00294468
0.111790545 -0.12776576 -0.26786518 -0.034919668 0.47187337 -1.5000991 -1.0107313 0.05727348
1.3244435 -0.28827557 0.004820923 0.64909047 -0.02221452 -0.37729496 -0.0037060538 -0.94210804
-0.31009886 0.099855326 -0.07353043 -0.06331037 -0.24363998 -0.37779635 -0.09145537 0.25317314
0.10433707 0.05975357 -0.96742344 -0.09957084 -0.5912262 0.6036275 0.60005426 -0.64580745
0.72554 -0.45480344 0.5055104 0.52984965 -0.42610162 0.7626945 0.47637185 -0.8871782
-0.28570917 -0.7129577 -0.37987 0.6887372 -0.9897815 0.025128322 -0.69804096 -0.8556296
-0.80987537 0.007942627 -0.6766436 0.0075602666 -0.36075246 -0.6685372 0.35491696 -0.3092465
0.25277084 0.11782949 -1.6193225 -0.54648733 -0.99244285 -0.4590488 -0.45996988 -0.8837357
-0.08218864 -0.6455509 0.09988284 -0.17942388 0.20419605 -0.9541736 -0.23725994 0.6989443
-0.4790912 -0.3362447 -0.28241217 -0.28342912 -0.12302308 -0.5045261 -0.49344066 -0.058588263
0.15723372 -0.29587442 0.023411827 -0.68496704 -0.2597943 0.33086607 -0.16836207 -0.6038916
-0.40894273 -0.47501016 -0.09163879 -0.24290802 -0.6962694 -0.2664443 -0.21190888 0.29531562
0.1039783 0.1858878 -0.060534563 0.1175526 -0.009572679 0.76990366 1.198504 -0.16181415
0.7735742 -0.14839362 0.530751 1.410283 0.1690525 -0.3907373 -0.1861459 0.95756346
0.26252875 0.61809504 -0.77319103 -0.68257856 0.78883016 -0.3029004 0.46318305 -1.2534684
0.07048097 0.19531362 0.42032343 -1.4748417 -0.4436156 -0.20900515 0.07990532 -0.032721695
-0.49979275 -0.23284699 -0.5662562 0.13451564 0.31895956 -0.53155303 0.17710185 -2.092321
-0.020890698 -0.1963056 -0.121569045 -0.49180526 -1.045583 -1.2844459 0.6578073 1.5251544
-0.37646273 -0.14746328 -0.14553635 -0.7277821 -0.10428504 -0.18404627 -0.40855104 -0.553627
0.12306548 0.020103274 -0.72073615 -1.0455178 -0.27971253 0.40206075 -0.018369958 -0.9273379
-0.34395686 -0.2233274 1.1962836 -0.5028704 -0.37093163 -0.17001002 -0.19935545 0.0005108772
0.25323808 0.32519448 0.32879996 0.14129074 -0.09794387 0.7073716 -0.09942163 0.23067358
0.07602196 0.0039742743 0.44711745 -0.02074196 0.42021856 0.18334849 0.3701446 -2.2079415

fc1.bias f4 [128]
00000000: 0802 0dbf 043e 2ebf e820 013e b6a7 6cbd
00000010: a85b 11be 7cbd 10bf b80a dcbe 75be af3e
00000020: c7b6 54bd b6e9 0abf a048 c13e 12a9 79bd
00000030: ec69 92be 91b5 03bf 5b9c 26be 130d e8be
00000040: f37c fcbe 6047 0abe 24fe f03c 3e2c 9dbe
00000050: 01ba e53d f80c 63be 9999 7e3e 9514 10be
00000060: 917f 80be 73aa bcbd 6254 e0bd 385c ea3d
00000070: d264 0cbf 6dc8 df3b e5c5 19bf e49b bdbe
00000080: c2b0 a5bd 1a19 d1be eb11 5dbe 5b2a 143e
00000090: da1f c6bd 8f84 2abe 7779 8f3e 6735 85be
000000a0: 3789 b43e 0f07 66be 5754 0cbd 9c40 52be
000000b0: 54b2 dfbe 1413 443f f768 a5be f91b 3ebf
000000c0: 1a03 cebe 497e cdbd 28cf 8bbe 9a20 0d3f
000000d0: 6c7f 11bf 39a0 913e 22eb 99bc 701e f9bd
000000e0: dfa5 9b3d 66ae 593e dd33 1fbe 68bc 0cbf
000000f0: 1d39 b0be ae28 7a3e 4094 823e 950d 88be
00000100: 5697 e2be 58a1 cc3d 64a7 033e 5d26 343e
00000110: b075 c13d 9314 e7be 4940 2bbf c34d 983e
00000120: 2566 64bd d219 02bf a4f9 fcbe ae70 55be
00000130: 9d5c 07bf dfb9 a2bd e003 65be 68d9 97be
00000140: 37cc 9a3c 6d3f 98bd 3ac2 7cbe 974d 62be
00000150: 6df3 d5be 118f b8be 563a b0be c579 2e3e
00000160: feda 723d 1a57 f3be d61e 473d 0c5b 0cbe
00000170: 07fa 183f 56a4 03be 886f 64be 9852 4a3e
00000180: 36e1 dabe e1b9 56bd 5c3d 21bf 986f 89be
00000190: 2cd6 bebe 3ffb 5d3e 5a74 1abf d749 04bf
000001a0: 9748 84be c911 9ebe 99ff a3be 1935 36be
000001b0: 4846 c63e c896 33be b119 3fbe 56ff 08bd
000001c0: 638f 9a3d 628c 87bd 4728 17bf 4896 153e
000001d0: 2c42 5fbf 6bba a4be 79c9 023e a000 b5bd
000001e0: 21dd 2cbf 7d7a b3be 6d53 053c 990d 203e
000001f0: bb81 3a3e 86da 0dbf 008d fe3d 3544 e9be
-0.55081224 -0.6806338 0.12610209 -0.05777713 -0.1419512 -0.5653913 -0.42976928 0.34324995
-0.051932123 -0.54262865 0.3775072 -0.060952254 -0.28596437 -0.51448923 -0.16270582 -0.45322475
-0.4931408 -0.1350379 0.029418059 -0.30697817 0.11217118 -0.22172916 0.2486328 -0.14070351
-0.25097325 -0.09212198 -0.10953595 0.114433706 -0.5484134 0.0068293125 -0.6006759 -0.37032998
-0.080903545 -0.40839463 -0.21588866 0.14469282 -0.09674044 -0.1665213 0.28022358 -0.26017305
0.35260937 -0.2246363 -0.03426012 -0.20532459 -0.4369074 0.7659161 -0.32306644 -0.7426143
-0.4023674 -0.100338526 -0.27306485 0.5512787 -0.56835055 0.28442553 -0.018788878 -0.121640086
0.07599997 0.21257934 -0.15547128 -0.54974985 -0.34418574 0.2442958 0.2550373 -0.26572862
-0.44256085 0.099917114 0.12856823 0.1759276 0.09446275 -0.45132884 -0.66894966 0.29746827
-0.055761475 -0.5082065 -0.4940921 -0.20843765 -0.5287569 -0.07945608 -0.2236476 -0.29658055
0.018896205 -0.074339725 -0.24683467 -0.2209991 -0.41787282 -0.3604665 -0.34419507 0.17038639
0.05929088 -0.4752739 0.04861339 -0.13706607 0.5975651 -0.12855658 -0.22308171 0.1975807
-0.42749947 -0.05242336 -0.6298425 -0.26842952 -0.37272775 0.21677874 -0.6033379 -0.5167517
-0.25836632 -0.30872944 -0.32030943 -0.17793693 0.38725495 -0.17537987 -0.18662144 -0.033446632
0.0754688 -0.06618573 -0.59045833 0.14608109 -0.87210345 -0.32173476 0.12772168 -0.0883801
-0.67524916 -0.3505439 0.008137566 0.15630187 0.18213551 -0.55411565 0.12429237 -0.4555985

fc2.weight f4 [128, 128]
00000000: 776e 1d3f de30 1c3f b16d c3be 6dad 98be
00000010: 0d00 e63e 22f2 30bf 0f32 0b3e 34d1 023d
00000020: f567 2abf 738c 8f3e f290 ae3e ead3 033f
00000030: 148d 4f3e 8212 fcbd 4175 093f 6bf9 acbe
00000040: a2ea 3e3e 9417 8f3e f861 9d3f 3087 973e
00000050: 82c3 65bf 521b 853e 0ac4 6ebe 1979 7b3e
00000060: 0066 5bbf 2a76 c3bf 7ee3 93bf 78a4 b8be
00000070: df2a 29be 3419 6cbf 7221 f23e c36e 2b3f
00000080: 31fc bbbe cd55 93bf ffdb a8bd 4e4c 6abf
00000090: 4f1d 2dbd 2a03 c1bf 8e8a 103f e0fc 6abe
000000a0: 548d 0a3f 2dd6 08bf 4651 55bd b690 c8be
000000b0: 7294 fd3d 5a77 483d b3b0 30bf ea67 11bf
000000c0: 44e9 893e edfd 893e a719 2fbd 0d0a 9cbe
000000d0: 9e8d d0be d61a e3be c178 94bf 0c55 42be
000000e0: de45 8abe 2059 0f3f dc0e 913c 38db 26bf
000000f0: 9ec8 123f 35b9 8a3e 090b 673e 9d38 833e
00000100: 028e 5d3e 8f9d 3abf 5693 e93c fa0f afbf
00000110: 5df1 073f a0a7 9e3e 4583 393e 3252 653e
00000120: 1365 64be da97 773e 7394 6e3e 9986 76be
00000130: d23e a03d 1dc6 5bbe b41e 85bf 3bf3 ab3e
00000140: a6b8 443e 2c03 01bf c41f afbd a286 35bf
00000150: 815b 0abe 8a71 5abf db80 0fc0 1cf7 c83d
00000160: 73a5 98bd 3c81 cebe 99f3 263e 3fd7 233e
00000170: 1b06 c53d 9c10 913d c846 693e ec8d 81be
00000180: 8be1 76be 61fd e4bc 97fb 3e3f b7e0 cdbe
00000190: 0310 0ebe 3e4e b1bf cbc4 19bf 0820 42be
000001a0: 7f32 733e 5d45 11bf 5657 763a db37 8fbe
000001b0: 27c0 0c3d 4fd8 debe c88a 7bbc d7e8 10be
000001c0: c78c af3f 6816 943e 87ea 34bf 2ee8 19be
000001d0: 11f0 0dbf ff8b 823f 1db3 a8be ada8 ba3e
000001e0: aef6 5d3e 3dc8 5bbf 6067 973e 1c66 143f
000001f0: 3c0c 1dbf 86b6 433e 1d48 dabe 719e a03e
00000200: 7a49 393d f80e 12bf f1ea 0e3d e440 b7bc
00000210: c252 c93e 0878 9bbe b32c f2bd f77a 86bf
00000220: 7856 40bc 06cf 8fbd f08f 8abe 942f a3bf
00000230: 18ed fdbe 3cce 87bd f7c4 febd e9bb 3d3f
00000240: 91bf b43e 65af 0dbe c818 3fbe a1a6 28be
00000250: 3422 7c3f 9272 8c3e 7b86 7fbf 3420 993c
00000260: a871 fdbd 2146 79bd b626 383e 0c6b 89bf
00000270: 06d5 1d3e 8285 323f 4a4b 5cbd 1395 68bd
00000280: c0ac e1be caeb 3fbf 37a1 eb3c 9bc6 25bf
00000290: c6b9 88bd b4b6 82bf 3926 bfbe bddd b83d
000002a0: ed7c 20bf 7caa 443e d058 8fbe 3286 b43e
000002b0: c1a5 853f 61ee 6bbf c754 15be cf31 88bd
000002c0: 8717 953e beba 353d ca99 55bc baea adbe
000002d0: f77c f73c 5974 783e 7dc3 673e 1781 1d3d
000002e0: 9759 eebe 78e4 06bf e1fb 933d bcbd cabd
000002f0: 1070 d23d 46bc d7bd c679 e83e 11de 1a3e
00000300: 9fd0 f73e 9433 1a3e 971b 95bf 4e54 243f
00000310: 2859 6dbf d363 563e e8a5 a3bd fa18 48bf
00000320: 2607 97bd c691 9bbd 67f5 debd 6191 cfbe
00000330: c2aa 34be d4a4 9abf 2d4d c2be 04cb 24bf
00000340: 840b af3e eff9 133e 94ba 083e 460f 543e
00000350: 046d fa3d 5b59 c7be a7ff 6ebf 7e9e 0ebe
00000360: 4c06 62be 77db 813d 2799 2bbf 415b 483e
00000370: d3e6 a6be ee20 843e 2812 223e 0e8c 75bf
00000380: f653 8ebe 6fc5 9e3e 3f62 31bd c97e d3bd
00000390: c27c 52be e170 e8be d86c 37be dd7c e43e
000003a0: 578c 6abe 49e3 043f 57c9 02bf 814b a53d
000003b0: 323c 04bf 706c 01bf 1983 5c3e f99e 75bf
000003c0: abc0 78bf 6c96 9a3e 77b5 aebc 5b29 8cbf
000003d0: 7c9e 19be 94c8 65bf a042 f9be 353f eb3a
000003e0: 8b6f 813d 8183 08be 244b 9fbd 10b4 e8bc
000003f0: 7c68 fbbe 1d76 a03d 42d5 e6bb dff7 4f3e
0.6149668 0.61012065 -0.38169625 -0.29819813 0.44921914 -0.69119465 0.13593315 0.031937793
-0.66564876 0.28036842 0.3409496 0.5149523 0.20268661 -0.123082176 0.5369454 -0.3378404
0.18644193 0.27947676 1.2295523 0.29595327 -0.89751446 0.25997406 -0.2331697 0.24557914
-0.85702515 -1.5270436 -1.15538 -0.3606298 -0.1652026 -0.92225957 0.47291142 0.66965884
-0.36715844 -1.1510559 -0.08245086 -0.9152268 -0.04226428 -1.507909 0.5646142 -0.22948027
0.541219 -0.53451806 -0.05207946 -0.39172906 0.12381829 0.048941948 -0.6901962 -0.56799185
0.2693578 0.26951542 -0.042749073 -0.30476418 -0.40733045 -0.44356412 -1.1599351 -0.18977755
-0.2700643 0.5599537 0.01770728 -0.6517825 0.5733737 0.27094427 0.22562803 0.2562913
0.21636203 -0.72896665 0.028512638 -1.3676751 0.53102666 0.30987263 0.18116482 0.22394636
-0.22304182 0.2417902 0.23298816 -0.24074782 0.07824482 -0.21462293 -1.0399995 0.33584008
0.19211063 -0.50395465 -0.08550981 -0.7090856 -0.13511468 -0.85329497 -2.2422397 0.098127574
-0.07453432 -0.40332973 0.16303863 0.16000079 0.09620305 0.07083246 0.22780907 -0.2530359
-0.24109475 -0.027952852 0.74602646 -0.40210506 -0.13873295 -1.3852003 -0.6006591 -0.18957531
0.23749731 -0.56746465 0.00093971693 -0.27972302 0.03436294 -0.43524405 -0.015352912 -0.14151321
1.3714837 0.28923345 -0.7067036 -0.15029976 -0.5544444 1.0198973 -0.32949153 0.36456814
0.21676132 -0.85852414 0.29571056 0.57968307 -0.61346793 0.19112596 -0.42633143 0.3137088
0.04523609 -0.5705409 0.034892026 -0.02236981 0.39320952 -0.30365014 -0.11824932 -1.0506276
-0.011739366 -0.070219085 -0.2706294 -1.2748895 -0.4959495 -0.06631133 -0.12439912 0.74114853
0.35302404 -0.13836439 -0.18661797 -0.16469814 0.9848969 0.2743116 -0.99814576 0.018692113
-0.12375194 -0.060857896 0.17983517 -1.0735793 0.15413293 0.69734967 -0.05378274 -0.056782793
-0.4407711 -0.7496916 0.028763397 -0.6475617 -0.066760585 -1.0212007 -0.3733385 0.09026668
-0.6269062 0.1920566 -0.27997446 0.35258633 1.0441209 -0.9216061 -0.14583121 -0.06650125
0.29119512 0.044367544 -0.013037154 -0.33968145 0.030210955 0.24263133 0.22633167 0.038453188
-0.46552727 -0.52692366 0.072257765 -0.0989947 0.102752805 -0.10533957 0.45405406 0.15123774
0.48401353 0.15058738 -1.1649045 0.6419114 -0.92714167 0.20936517 -0.079906285 -0.7816311
-0.0737441 -0.075961635 -0.108866505 -0.40540603 -0.17643264 -1.2081552 -0.37949505 -0.6437228
0.34188473 0.14450811 0.13352424 0.20708951 0.12227824 -0.3893536 -0.93358845 -0.13927647
-0.22072715 0.06340688 -0.67030567 0.1956606 -0.3259798 0.25806373 0.15827239 -0.9591683
-0.27798432 0.31010005 -0.043306585 -0.10326917 -0.20555404 -0.4539862 -0.17912614 0.44626513
-0.22905098 0.5190931 -0.5108847 0.08071042 -0.5165435 -0.5055609 0.21534385 -0.959457
-0.9716899 0.30192888 -0.021326764 -1.0950121 -0.15001863 -0.8975918 -0.48683643 0.0017947914
0.06320103 -0.13331415 -0.07778004 -0.028406173 -0.49103153 0.07835028 -0.0070444653 0.20309399

fc2.bias f4 [128]
00000000: e81d 293e 6f0f 42bf 7aad bebd e3f2 6ebe
00000010: ace8 783e 3a56 14be 27c1 963c 4f1b 0bbd
00000020: 9cb2 0fbf 9ee7 0dbe a7a4 c7be 398a 4d3f
00000030: d22e 13bf ffcf 09bf 8021 56bf faa7 85be
00000040: cdb6 3b3e bb40 e93d d800 bbbd d501 133e
00000050: 6c7e 69bd d4a4 eebd 9521 943e e7d4 b33e
00000060: ecb3 9fbe d2e5 88bf 5318 a4be 4d1e e1bd
00000070: 621b 263e f451 b4bd d7f2 043c 7a6f cf3b
00000080: f111 29bd 4c9f 0a3f 15dd 163f af89 82bd
00000090: 6a7d 66bd abbe 5e3f acc1 c53d 8e68 bc3c
000000a0: 941c 233f 36ce 9abe 2db4 b0be 894a 19bf
000000b0: 5cdb 4bbd 9d79 0dbf 37e7 5abe c710 953d
000000c0: 305b e2be 623c 97bd 98ea 6cbf 8d5f 39bd
000000d0: e4ed dabd ee22 093f f550 9e3f ac8d f43e
000000e0: 0826 cbbd ab81 dc3e 2a43 a33e 8334 113f
000000f0: f418 9dbd c3f9 01bf ca24 3ebe 7e7f 6fbe
00000100: eb69 c63d 7394 fbbd 532a efbd 0040 30bd
00000110: 38b9 ddbc bd98 10bc e69c 9abe cb64 50bd
00000120: e655 5bbe da66 4c3e d043 c7bd bade e33d
00000130: b6c3 f33e bc80 ca3e 799d a6bd 5ddd 95bc
00000140: 11cf 023f 5e6f 7ebd 7444 d2be 9306 d63e
00000150: 8d17 26be d428 173d 8b52 b7bd eef6 49bf
00000160: a950 493f 1985 163e 3a40 b53e c8a9 893e
00000170: 74c5 84bd 1dbf d9bd 114e 5fbd 28cf 5dbe
00000180: 6695 98bd b5f7 2c3f 66db 323e c6e6 fe3e
00000190: 1cc5 593f b78f 8abe 328b c93d e8a3 f63e
000001a0: 8f59 0d40 1df3 07be b3d1 623f c5c6 0e3d
000001b0: 4e4b 5abe c829 0cbf 9f8a e1be fa8e 06bf
000001c0: 7efc 1dbe 040c f63e 19b0 cebd 6870 0abe
000001d0: f33c 31be 3891 51bf f2ce 313f bf51 e7be
000001e0: f68b bb3d 67ab 99bd ee36 2fbe 8540 313f
000001f0: 04cc 51bd af73 ccbd c5a5 80bf 0340 0cbd
0.16515315 -0.758048 -0.09310432 -0.23334841 0.24307507 -0.14486018 0.01840265 -0.03396159
-0.5613191 -0.13857886 -0.38992807 0.80289036 -0.5749332 -0.53833 -0.83644867 -0.26104718
0.18331452 0.113892995 -0.0913102 0.14356168 -0.05700533 -0.11652532 0.2893187 0.3512337
-0.31191957 -1.0695136 -0.32049808 -0.109921075 0.16221383 -0.08804694 0.008114538 0.0063304277
-0.041276876 0.5414932 0.58931094 -0.06373917 -0.056271948 0.87009686 0.096560806 0.022999074
0.6371548 -0.3023545 -0.34512463 -0.59879357 -0.049769744 -0.5526369 -0.21377264 0.07278591
-0.44210196 -0.07384564 -0.9254546 -0.04525714 -0.10689905 0.53568923 1.2368456 0.47764337
-0.09919363 0.4306768 0.3188718 0.5672075 -0.07670775 -0.5077173 -0.18568721 -0.23388478
0.09688171 -0.12284174 -0.116779946 -0.043029785 -0.027065858 -0.008825478 -0.3019783 -0.050877374
-0.21419486 0.1996111 -0.09729731 0.11126466 0.47610253 0.39551342 -0.08135504 -0.01829403
0.5109721 -0.062117927 -0.4106785 0.4180189 -0.16219921 0.03690417 -0.08951291 -0.7889241
0.786387 0.1469921 0.35400563 0.26887345 -0.06482974 -0.10632155 -0.05451781 -0.21661055
-0.074503705 0.6756547 0.17466506 0.4978544 0.8506639 -0.2706277 0.098410025 0.48171926
2.2085912 -0.13276334 0.88601226 0.03485753 -0.21317789 -0.54751253 -0.44051072 -0.52561915
-0.1542835 0.48056042 -0.10092182 -0.13519442 -0.17308407 -0.8186221 0.694564 -0.45179555
0.09157555 -0.075033955 -0.17110798 0.69239074 -0.051219955 -0.099830024 -1.0050589 -0.034240734

fc3.weight f4 [4, 128]
00000000: d3e8 a23e 037f 47bd 3540 2a3c ddd9 843e
00000010: 908e 303d 7d34 273c 74d2 97bc 8c2a ed3c
00000020: 4a15 a6be 6f92 1a3d acca 733d 4ba1 5f3f
00000030: ad63 26be 9a54 9cbe de2c ccbd 8835 54be
00000040: abcb 183d aaf0 cf3d 52ef d93d 9ba4 11bf
00000050: 5bbd c6bd 893b 38bf 65e8 a13d 56ab 80be
00000060: dce8 96be 8da5 e53d 9af5 ffbe d284 25be
00000070: 03ae 913e ac27 edbd 167b 4f3d 4a11 1b3f
00000080: 0940 b33c 1499 813e 4ede a1bf 49d7 d0bc
00000090: ba40 443c 58da 1c3f 8030 2a3e 4f31 02c0
000000a0: 90f4 c03e 937e 9ebe b1fc e63d a412 b0be
000000b0: fe13 2dbc e4e8 31be 4dcb 09bf bf10 053e
000000c0: aa72 30bd 6e06 613c f636 cc3a 4495 2fbe
000000d0: c431 d4be a928 563e 87b9 5d3f 0d00 6f3e
000000e0: 02d3 4b3d 3ae3 8a3e 205f f1bf 1063 d23e
000000f0: 9e81 f9bd 43b1 e8be edba 99bb 721c 2dbf
00000100: 5bfd 12bd 0dc6 123d 97cf 17bd 1996 763d
00000110: 93a0 b13d 1d89 6a3e 2f35 b8be da4a 62bf
00000120: a821 4fbe 5a03 543d 790a a7bd 832f 473d
00000130: 6237 593f 341e babd 8843 a2bd ed55 ed3c
00000140: 7289 2abf 2b8b 92be 9ab4 d4be ced2 a2bf
00000150: b888 a7bc b523 b13d 1200 973d 8f51 933f
00000160: 080e bfbe 2a84 71bd d71e c33e 6a2d 343e
00000170: eedf 7bbd 37a6 d7bc ca20 9a3d fa37 c4be
00000180: 7d39 d4bc 3fe8 bebf dd52 783d 8edb 9a3e
00000190: 30dd 923c 6f7e 2dbe b578 1bbf cfd5 ff3d
000001a0: 97d3 c53f c0f4 1bbe f2af bbbd a087 2a3d
000001b0: 1037 1bbc 462b 46bf 4400 e63e 43f9 81be
000001c0: 1b2e 333d f6db b03e 8904 933d 66d8 083c
000001d0: 5b4f b8bc 94b0 1d3e 8390 1f3f 3239 3bbd
000001e0: de58 4dbe 0515 21bd 5131 10bf d1e2 5c3e
000001f0: 8cb1 263c 7f2e af3c 5628 66bd 6042 93bc
00000200: 1906 0bbd ce75 87bd 5aaf 33bd 6891 c03e
00000210: bbaa 39bb f800 cfbc b294 a23d 1a1a 013d
00000220: 98e3 33bd d3c4 34bd fcf3 c7be 8adb 033f
00000230: c9b4 b0be 5f60 68bd e6f3 1b3e e3ff 29bf
00000240: a011 f43c fb5e 013d e6c8 dcbd 9d76 01bf
00000250: 4dd3 6bbe 05d3 9b3d d5d1 eabf f6da ad3e
00000260: fb11 8c3d c378 a43c 301c 0f3d 0400 43bf
00000270: 1fa9 543e 1387 52be d6bf 683d 9eaa e33e
00000280: acd6 2abd f321 c23e 6190 ad3e 67ad 00bd
00000290: 5687 823d 4fff fb3e 51ff 793d 188a 193e
000002a0: 6ce4 3e3e 24d5 443d 948b 64bf 4474 1fbe
000002b0: c034 25bb 3086 6bbe 192d 30bd 8031 0ebf
000002c0: ca1d 2abe abd1 3fbc d593 45bb d438 e5be
000002d0: 3778 64bd a587 d5bf 325f af3c bcb1 1cc0
000002e0: 26df 03be 8461 0cc0 c419 7c3e 61e7 adbf
000002f0: c7ce 093d 9cc7 9e3d 6048 4bbc 903e 12bf
00000300: 2467 92bf e42b 83bd 899c 7f3d 0370 3cbc
00000310: 9b47 aabe cd2c abbe 85f2 d4be 568d a33d
00000320: 9ab2 9dbe 3ea2 223e c7d8 8fbc b99a b3bc
00000330: e8bd 143f 5a5e 033f c0f2 053d 1a61 f83c
00000340: 9c46 ef3e bfb6 c2be fe0c 75bf 456f e33e
00000350: d0c5 eebc bb49 b7bf d08f 323d 557f 333f
00000360: f4a0 193f 062b 31be b749 883e 2335 6a3e
00000370: fbcd 4fbe d2dd 243d fc80 f1bc 2eff acbe
00000380: 99b3 953c b6b2 c73e bb28 27bf 49b4 633e
00000390: a020 9e3e 8d1c a2be 9e5a 913e e282 5f3e
000003a0: acba b93f 6e0b d2be 7551 0e3f 9c42 433d
000003b0: bce8 5e3a 6b55 233e d021 783d 312a a2be
000003c0: 5203 3cbd b477 db3e 8fd9 83bd 3d98 b4bd
000003d0: 7537 93bd a1d8 943d dad9 083f be99 63be
000003e0: 243b 9c3d 4935 923d 3fb1 febe 3894 1b3e
000003f0: d7d5 593c 5509 ab3c 35a4 afbd ccf7 973c
0.31818256 -0.048705112 0.010391285 0.25947466 0.04310471 0.010205385 -0.018532969 0.028950952
-0.32438117 0.037737306 0.059519455 0.8735549 -0.16248961 -0.30533296 -0.09969495 -0.20723546
0.037303608 0.10153325 0.1064135 -0.56891793 -0.097040854 -0.71965843 0.07905654 -0.2513072
-0.29474533 0.11213217 -0.49992067 -0.16163948 0.28453073 -0.115798324 0.050654493 0.60573256
0.02188112 0.25312102 -1.2645967 -0.025493281 0.011978323 0.61270666 0.16620064 -2.0342596
0.37686586 -0.30955943 0.11278666 -0.34389222 -0.010563849 -0.17373997 -0.5382584 0.1299467
-0.043078102 0.013734443 0.0015580344 -0.17146784 -0.41444218 0.20913948 0.8661122 0.23339863
0.04976178 0.27126485 -1.8857155 0.41091204 -0.12182926 -0.4544774 -0.0046914727 -0.6762153
-0.03588615 0.035833407 -0.037063207 0.060201738 0.08673205 0.22903867 -0.35978076 -0.88395464
-0.20227683 0.05176101 -0.081562944 0.048629295 0.8485013 -0.09087792 -0.07923037 0.028971637
-0.66615975 -0.28621802 -0.41544038 -1.2720582 -0.020450935 0.08649389 0.0737306 1.1509265
-0.37315392 -0.058963932 0.38109466 0.17595449 -0.061492853 -0.026324375 0.07525785 -0.38323957
-0.025906319 -1.4914626 0.0606259 0.30245632 0.017927736 -0.16942762 -0.6073106 0.12491953
1.5455197 -0.15230083 -0.09164418 0.04163325 -0.009473577 -0.7740978 0.44922078 -0.25385484
0.04374514 0.34542817 0.071785994 0.008352375 -0.022498777 0.1539939 0.6232988 -0.045708843
-0.20053431 -0.039326686 -0.5632525 0.21570899 0.010174166 0.021384476 -0.05619081 -0.017975986
-0.033941362 -0.06614266 -0.0438684 0.37610936 -0.0028330523 -0.025269017 0.07938518 0.031519033
-0.043918222 -0.04413302 -0.39053333 0.51506865 -0.34512928 -0.05673253 0.15229759 -0.6640608
0.02979356 0.03158472 -0.10780506 -0.50571615 -0.23029824 0.07608608 -1.8345286 0.33956116
0.06839367 0.020077115 0.03493899 -0.761719 0.2076764 -0.20559339 0.056823574 0.44466108
-0.041708633 0.37916526 0.33899215 -0.03141537 0.063734695 0.49218222 0.061034504 0.14994085
0.18641824 0.04805483 -0.8927548 -0.15571696 -0.0025208443 -0.23000407 -0.04301176 -0.5554428
-0.16612926 -0.011707704 -0.003014793 -0.4476992 -0.05577871 -1.668202 0.021407697 -2.448348
-0.12878093 -2.193452 0.24619204 -1.3586236 0.033644464 0.07752916 -0.012407392 -0.5712671
-1.1437726 -0.06404856 0.062405143 -0.011501315 -0.33257756 -0.33432618 -0.41591278 0.07985942
-0.30800325 0.15882203 -0.017559422 -0.021924363 0.58102274 0.51315844 0.032702208 0.03031974
0.46733558 -0.3803005 -0.9572295 0.4442083 -0.029147059 -1.4319376 0.04359418 0.7011617
0.6001122 -0.17301568 0.2661874 0.22871833 -0.20293419 0.040250607 -0.02948045 -0.33788437
0.018274115 0.39003533 -0.65296525 0.22236742 0.30884266 -0.31662408 0.28389448 0.21827272
1.4510093 -0.41024345 0.55593044 0.047670946 0.0008503308 0.15950553 0.06057912 -0.31672814
-0.045901604 0.42864764 -0.064379804 -0.088181 -0.07188312 0.07267881 0.53457415 -0.22226617
0.07628468 0.071390696 -0.49744603 0.1519326 0.013295612 0.020878473 -0.08576242 0.018550776

fc3.bias f4 [4]
00000000: 58d1 903f f661 9e3f 0797 853f 893e 8c3f
1.1313887 1.2373645 1.0436715 1.0956584

fc1.weight f4 [128, 24]
00000000: 0449 763d bc41 11bd 2307 ec3e 96c6 ddbe
00000010: 5ace 4cbe dbaf 7abe 8cac 4fbf cf26 d13d
00000020: 2e8c e03e 65ca 53be aa97 613e 3847 6138
00000030: b0d7 8fbf fc04 f33e ea55 693e 702e 71bf
00000040: eb83 74bf ced9 c2bf a104 43bf 7fb4 9abf
00000050: 108a e23e db35 ba3e a076 5d3e 3bd0 bf3d
00000060: 2070 8bbf c7be 813e cf98 6bbd 15f2 e7bc
00000070: e1c3 62be 26ca e13e a611 3f3e 39b3 4cbe
00000080: 6c18 c9bd 8b6e 0c3d 3e97 c7bf c986 ae3e
00000090: 9834 67bf 7343 16be a769 0dbe 394a f53e
000000a0: d1d8 0abf 9bef eabe 6786 583f f40d 17be
000000b0: e1f3 c6bd 87b9 063e b7cd 18bf c5e3 9fbc
000000c0: c0c9 913f 28a7 ca3c 477a 96be a130 1bbf
000000d0: 6fdc fb3e b5e7 23bf c5c7 f3bd 7364 fbbf
000000e0: 4aae bf3e 3ffb 30bf f7b8 8f3f aac8 033f
000000f0: d881 c53e 8379 debe ba09 603f c03a 93bc
00000100: 9299 2fbf 614a 5bbf dfae e2bd b4fb 3d3f
00000110: 6e65 03bb 0518 febe fd1b 5bbf 0339 4ebc
00000120: f0fd 043e aca2 15be 7a23 6fbe 42ac 7cbd
00000130: 2222 e93e bc11 bcbf 4be3 81bf f6b2 b03d
00000140: b129 aa3f 5d98 83be f6ca 593c 22a3 2c3f
00000150: 6951 91bd 24e3 c0be c21e 003c fd2d 6bbf
00000160: d5cf 7bbe e047 bc3d 462c 88bd f596 4bbd
00000170: 6a0e 53be dfe2 c4be 2a54 c7bd a75d 863e
00000180: 905b 883d 18ab d83c f297 79bf 1c2b a9bd
00000190: 9884 19bf 467c 113f bdcf 143f af10 20bf
000001a0: 7831 303f 0a96 f9be 17fb f73e 0e16 0b3f
000001b0: d0f9 d8be 9ae9 3a3f 2ff9 eb3e eb61 62bf
000001c0: 263f d6be 7a07 36bf e5f9 c4be 1ed2 2f3f
000001d0: d994 77bf 7954 5e3c b8a7 48bf 5f99 5dbf
000001e0: fe53 4fbf 3228 023c 8438 2dbf 34ad 013d
000001f0: 61b4 b8be 4125 2bbf 5b79 af3e 7857 8cbe
00000200: 0a17 903e 5217 113e f645 cfbf 98e6 0bbf
00000210: bc10 7ebf 3711 e8be f538 dfbe 813c 62bf
00000220: 7651 a8bd d342 25bf 7ab3 fd3d baba 37be
00000230: b8c3 6a3e b944 74bf 45f4 72be 2398 393f
00000240: 714b f5be 4428 acbe 5498 90be 9f1d 91be
00000250: 86f3 fbbd 9f28 01bf 41a4 fcbe 3ffa 6fbd
00000260: e001 213e da7c 97be 29ca bf3c 005a 2fbf
00000270: c203 85be 4767 a93e 1b67 2cbe a498 1abf
00000280: f160 d1be 8834 f3be 1ead bbbd e1bc 78be
00000290: b63e 32bf 636b 88be a4fe 58be 9c33 973e
000002a0: 6d33 e23d 7dd3 3e3e 5cf2 2bbd 2bef f23d
000002b0: ce66 353c 5227 463f 3698 973f f4e1 39be
000002c0: 0fea 473f f98a 09be d9ab 0f3f 7aad b53f
000002d0: 6874 233e 865c c8be 198a 3abe 96f1 793f
000002e0: a6fc 7f3e 0d68 1f3f 636d 42bf 87af 2cbf
000002f0: a54a 573f 535f a1be 8262 ec3e 952f 9fbf
00000300: 3b24 693d 9108 643e f704 dc3e 2ff3 b8bf
00000310: 963f dfbe 049e 4bbe 9ec9 833d 63e0 d5bb
00000320: 50a0 fcbe 72a1 6ebe 0c22 19bf 9dcf 303e
00000330: 211d b33e ba29 0abf 1b6c 303e 96e8 05c0
00000340: 0356 f0bc 5a5b 17be 9b77 05be 399f ecbe
00000350: 0103 86bf b968 a4bf 55a7 293f 44ba c63f
00000360: 6b42 bfbe f339 19be 7b5e 22be cfc6 39bf
00000370: 3017 f3bd c1b9 1ebe 0e5b cdbe 91c1 0dbf
00000380: e5c1 f33d dc9f 333c fe25 36bf 87d3 85bf
00000390: 77e8 8fbe d853 ca3e dc02 c3bc 0466 6dbf
000003a0: 5f4a afbe 04ea 69be b017 983f 3858 04bf
000003b0: 0e52 c0be fb02 2dbe 719a 44be 062d 093b
000003c0: b51c 7d3e cd2c a23e 3450 9a3e b31d 243e
000003d0: 81dd d0bd 6f30 3a3f c1cf b4bd e904 5f3e
000003e0: c82c 913d f776 edbb ba64 d73e bd5d 47bd
000003f0: a6cb e23e 4d96 343e ab58 bd3e ea4e 0dc0
0.060128227 -0.03546308 0.46099195 -0.43315572 -0.20000592 -0.24481146 -0.8112266 0.1021248
0.4385695 -0.20682676 0.22030511 5.3710508e-05 -1.1237698 0.4746474 0.2278668 -0.94211483
-0.9551379 -1.5222719 -0.7617894 -1.2086333 0.44245958 0.36369213 0.21627283 0.09365889
-1.0893593 0.25340864 -0.057518777 -0.028313676 -0.22145034 0.4409954 0.18659076 -0.19990243
-0.09819111 0.03428511 -1.559303 0.34087208 -0.90314627 -0.14674167 -0.13809834 0.4790819
-0.54237086 -0.4588593 0.8458008 -0.14751416 -0.09714485 0.1315671 -0.59688896 -0.019517789
1.1389694 0.02473791 -0.29390165 -0.60621077 0.49191615 -0.6402543 -0.119033374 -1.964003
0.3743766 -0.6913337 1.1228322 0.51478064 0.38575625 -0.4345208 0.8751484 -0.01797235
-0.68593705 -0.8566037 -0.1106851 0.74212193 -0.002004947 -0.496277 -0.8558958 -0.012586835
0.12987494 -0.14612836 -0.23353377 -0.061687715 0.45533854 -1.4692912 -1.0147489 0.08627884
1.3293973 -0.2570218 0.013293019 0.6743642 -0.07095606 -0.37673295 0.007819833 -0.9186705
-0.24591 0.091933966 -0.066490695 -0.04970451 -0.20610967 -0.3845434 -0.0973285 0.26243326
0.06658089 0.026448771 -0.97497475 -0.082601756 -0.59967947 0.5683025 0.58129483 -0.6252546
0.68825483 -0.48747283 0.48433754 0.5433053 -0.42378092 0.730127 0.4608855 -0.8843066
-0.41845053 -0.7110516 -0.38471904 0.6867999 -0.967115 0.013569945 -0.7838092 -0.8656215
-0.80987537 0.007944154 -0.6766436 0.03165932 -0.36075118 -0.6685372 0.34272274 -0.27410483
0.28142577 0.14169052 -1.6193225 -0.54648733 -0.99244285 -0.45325634 -0.43598142 -0.8837357
-0.082186624 -0.6455509 0.12387748 -0.17942324 0.22926223 -0.9541736 -0.23725994 0.7249777
-0.4790912 -0.3362447 -0.28241217 -0.28342912 -0.12302308 -0.5045261 -0.49344066 -0.058588263
0.15723372 -0.29587442 0.023411827 -0.68496704 -0.2597943 0.33086607 -0.16836207 -0.6038916
-0.40894273 -0.47501016 -0.09163879 -0.24290802 -0.6962694 -0.2664443 -0.21190888 0.29531562
0.11044965 0.18635364 -0.04197918 0.11862024 0.011071874 0.7740375 1.1843326 -0.181526
0.7809152 -0.1343192 0.56121594 1.4193566 0.15962374 -0.3913309 -0.18216743 0.97634256
0.24998721 0.62268144 -0.7594816 -0.67455333 0.84098274 -0.3151804 0.46168905 -1.2436396
0.056919318 0.22268893 0.42972538 -1.4449214 -0.436032 -0.19884497 0.0643494 -0.006526993
-0.4934106 -0.23303774 -0.59817576 0.17266698 0.3498316 -0.5396992 0.17228739 -2.092321
-0.029337889 -0.14780942 -0.13033907 -0.46215227 -1.0469667 -1.2844459 0.66270953 1.5525594
-0.3735536 -0.14963512 -0.15856354 -0.7256898 -0.11869657 -0.15500547 -0.40108532 -0.55373484
0.11902217 0.010963406 -0.7115172 -1.0455178 -0.28107044 0.39517093 -0.023805074 -0.9273379
-0.34236428 -0.22843176 1.1882229 -0.5169711 -0.37562603 -0.16895668 -0.1919954 0.0020931377
0.24717982 0.31674805 0.30139315 0.16026954 -0.101984985 0.72730154 -0.088286884 0.21779217
0.070886195 -0.0072468477 0.42069036 -0.04867338 0.44295996 0.1763546 0.3698171 -2.2079415

fc1.bias f4 [128]
00000000: 63f1 0fbf 82df 27bf 1c17 df3d 5ca9 40bd
00000010: f1a1 2abe 7ca3 0abf b80a dcbe 1fd7 b33e
00000020: 704d fabc eb97 0cbf 04aa bf3e 1432 23bd
00000030: 8bd5 86be 6fc3 03bf 0884 16be 9c7e debe
00000040: a8ac f7be 26a4 fcbd 217b 463d 0b58 81be
00000050: 6ee8 153e c34a 61be 7ee7 813e 2497 0bbe
00000060: dd35 89be ab00 81bd 32f6 d4bd 0e6d b23d
00000070: 6cb1 04bf cefb 0e3c e5c5 19bf e49b bdbe
00000080: b183 b4bd b5e5 dfbe e1b7 63be 1869 153e
00000090: da1f c6bd 0c6f 28be ac1f 963e 38dc 89be
000000a0: 8050 b33e 6a11 61be eb29 b7bc 9c28 55be
000000b0: 34d9 e3be dfd2 413f e38b 9ebe f91b 3ebf
000000c0: 44ba cebe a839 a6bd 28cf 8bbe 5e83 0c3f
000000d0: bd61 13bf dacf 943e 5d6b 903a 5f67 11be
000000e0: 2af6 8b3d 184b 553e dd33 1fbe 4dff 02bf
000000f0: 1d39 b0be 2a9f 763e 2ba9 843e b52b 81be
00000100: a3f7 e9be ce5b 483d 1bef 0d3e 3df2 463e
00000110: 6e40 d43d b7c6 e5be d3e2 20bf e878 9c3e
00000120: a18e 84bd 5a78 07bf a4f9 fcbe 026b 6fbe
00000130: 9d5c 07bf d158 83bd 122b 7ebe 271f 88be
00000140: bfdd b93c 1e03 31bd be54 72be a5b3 64be
00000150: 9705 cabe 9f10 b4be cd38 adbe fa47 313e
00000160: d81b 613d 1a57 f3be 9ff3 c53c 74d7 efbd
00000170: a356 193f bdb6 0dbe 40f8 55be 23b4 443e
00000180: 66e9 e4be 3d32 38bd d974 24bf 2f73 85be
00000190: ceb7 bfbe e985 7b3e 5a74 1abf de5d 07bf
000001a0: 0694 76be 0297 9bbe ee63 92be 6532 31be
000001b0: ceb8 c43e ae91 01be d19a 52be 122b 25bd
000001c0: f70a 953d 0832 86bd 4728 17bf edb2 1e3e
000001d0: 2c42 5fbf eea5 abbe 2039 3c3e 6a90 cdbd
000001e0: c6fa 2bbf f3a6 b9be d9bd bd3c 3e5b 323e
000001f0: 8944 2d3e 86da 0dbf eca3 043e 3544 e9be
-0.562277 -0.6557542 0.1089308 -0.047036514 -0.16663338 -0.5415571 -0.42976928 0.35125062
-0.030554503 -0.5491931 0.374344 -0.03984268 -0.26334795 -0.51470083 -0.14698803 -0.4345597
-0.48373914 -0.12335996 0.04845727 -0.25262484 0.14639446 -0.22001176 0.25371927 -0.13631874
-0.26798907 -0.062989555 -0.103985205 0.08712207 -0.51833224 0.008727027 -0.6006759 -0.37032998
-0.08814181 -0.4372994 -0.22238113 0.14590871 -0.09674044 -0.16448611 0.2932104 -0.26925826
0.35022354 -0.21979299 -0.022358855 -0.20816272 -0.4450165 0.7571239 -0.309661 -0.7426143
-0.40376484 -0.08116466 -0.27306485 0.5488795 -0.5757101 0.29064828 0.0011018325 -0.14199589
0.068340614 0.20829427 -0.15547128 -0.5117081 -0.34418574 0.24084154 0.25910315 -0.25228658
-0.45696744 0.048915677 0.13860743 0.19428344 0.103638515 -0.4487817 -0.62846106 0.30560994
-0.06472517 -0.52918017 -0.4940921 -0.23380664 -0.5287569 -0.06413425 -0.24821118 -0.26586267
0.022688745 -0.043215863 -0.23665139 -0.22334154 -0.3945739 -0.3516893 -0.33832398 0.17312613
0.054958194 -0.4752739 0.02416402 -0.11711016 0.5989782 -0.1383924 -0.20895481 0.19209342
-0.4470932 -0.044969786 -0.64240795 -0.2606444 -0.3744492 0.24562801 -0.6033379 -0.52877605
-0.24079904 -0.30388647 -0.28591865 -0.1730438 0.38422245 -0.12653229 -0.2056687 -0.04032428
0.07277482 -0.065525115 -0.59045833 0.15497942 -0.87210345 -0.33525032 0.18381166 -0.100373104
-0.67179525 -0.36260185 0.023161815 0.17417619 0.16920675 -0.55411565 0.12953156 -0.4555985

fc2.weight f4 [128, 128]
00000000: b03c 253f 1d01 1f3f b154 bebe 3622 96be
00000010: 180f f03e d6e4 30bf 0f32 0b3e e285 a2bb
00000020: 1061 27bf 6409 893e 879d a93e 31b2 053f
00000030: 7d72 673e 351d 22be d47b 093f 607e babe
00000040: 19e5 293e 3ec2 9a3e 0d42 9b3f 12d7 903e
00000050: 72dc 65bf ccf2 783e fea1 7cbe 72fd 6f3e
00000060: 1805 64bf 98d4 c0bf 9eff 93bf fe3f b3be
00000070: 6efb 61be 4196 5dbf 7221 f23e c36e 2b3f
00000080: 032a c9be cdae 93bf 252b bfbd 04a5 6cbf
00000090: 4f1d 2dbd e2fc c0bf a304 143f 790e 71be
000000a0: ecdb 093f c0b3 11bf a4eb 81bd bca5 bfbe
000000b0: eb38 d33d 8670 183d 3e7a 33bf ea67 11bf
000000c0: 1fca 843e 8a95 8b3e a719 2fbd c30d 9abe
000000d0: a62b bfbe a77c f9be eae6 9cbf ce28 4ebe
000000e0: 8f78 9ebe 9bbf 103f dc0e 913c 38db 26bf
000000f0: 9ec8 123f 527a 8f3e 7d5b 693e 6749 893e
00000100: f209 4e3e a99c 3abf a1b9 a33c 2fe5 b0bf
00000110: f659 073f 8fc4 973e 3e3e 083e 72af 6f3e
00000120: fdf4 69be 46b9 7d3e 7394 6e3e 29ee 90be
00000130: d23e a03d f800 6abe a63e 86bf a963 9e3e
00000140: a0e4 3c3e 2ad3 08bf 0b80 9ebd d830 38bf
00000150: 629b 08be 46fd 5fbf 8d93 0cc0 aaa6 d03d
00000160: 90d3 9bbd 3c81 cebe eaaa 3e3e 75bc 383e
00000170: 8cb5 a93d 9014 b73c bd8d 6c3e 06b9 a8be
00000180: 8be1 76be cc7c f7bc d834 3c3f b43d cebe
00000190: 6647 06be a4c3 b1bf cbc4 19bf da3c 3cbe
000001a0: 9364 583e 31f0 14bf 1465 76bb 7915 88be
000001b0: 958b e53c cfe1 e8be 7cc8 c73a 9f73 37be
000001c0: 0ced b43f 1a2f 843e 87ea 34bf 8820 18be
000001d0: 11f0 0dbf 42f1 7c3f eb67 b6be 180c b53e
000001e0: 7a5e 533e 3dc8 5bbf 76bf 923e 6aa3 1d3f
000001f0: 01bc 21bf 86b6 433e 6c81 dcbe 719e a03e
00000200: 7a49 393d f80e 12bf f1ea 0e3d e440 b7bc
00000210: c252 c93e 0878 9bbe b32c f2bd f77a 86bf
00000220: 7856 40bc 06cf 8fbd f08f 8abe 942f a3bf
00000230: 18ed fdbe 3cce 87bd f7c4 febd e9bb 3d3f
00000240: 91bf b43e 65af 0dbe c818 3fbe a1a6 28be
00000250: 3422 7c3f 9272 8c3e 7b86 7fbf 3420 993c
00000260: a871 fdbd 2146 79bd b626 383e 0c6b 89bf
00000270: 06d5 1d3e 8285 323f 4a4b 5cbd 1395 68bd
00000280: c0ac e1be caeb 3fbf 37a1 eb3c 9bc6 25bf
00000290: c6b9 88bd b4b6 82bf 3926 bfbe bddd b83d
000002a0: ed7c 20bf 7caa 443e d058 8fbe 3286 b43e
000002b0: c1a5 853f 61ee 6bbf c754 15be cf31 88bd
000002c0: 8717 953e beba 353d ca99 55bc baea adbe
000002d0: f77c f73c 5974 783e 7dc3 673e 1781 1d3d
000002e0: 9759 eebe 78e4 06bf e1fb 933d bcbd cabd
000002f0: 1070 d23d 46bc d7bd c679 e83e 11de 1a3e
00000300: 9fd0 f73e 9433 1a3e 971b 95bf 4e54 243f
00000310: 2859 6dbf d363 563e e8a5 a3bd fa18 48bf
00000320: 2607 97bd c691 9bbd 67f5 debd 6191 cfbe
00000330: c2aa 34be d4a4 9abf 2d4d c2be 04cb 24bf
00000340: 840b af3e eff9 133e 94ba 083e 460f 543e
00000350: 046d fa3d 5b59 c7be a7ff 6ebf 7e9e 0ebe
00000360: 4c06 62be 77db 813d 2799 2bbf 415b 483e
00000370: d3e6 a6be ee20 843e 2812 223e 0e8c 75bf
00000380: f653 8ebe 6fc5 9e3e 3f62 31bd c97e d3bd
00000390: c27c 52be e170 e8be d86c 37be dd7c e43e
000003a0: 578c 6abe 49e3 043f 57c9 02bf 814b a53d
000003b0: 323c 04bf 706c 01bf 1983 5c3e f99e 75bf
000003c0: abc0 78bf 6c96 9a3e 77b5 aebc 5b29 8cbf
000003d0: 7c9e 19be 94c8 65bf a042 f9be 353f eb3a
000003e0: 8b6f 813d 8183 08be 244b 9fbd 10b4 e8bc
000003f0: 7c68 fbbe 1d76 a03d 42d5 e6bb dff7 4f3e
0.64545727 0.62111074 -0.3717399 -0.29322976 0.46886516 -0.69099176 0.13593315 -0.0049598077
-0.6538248 0.26764977 0.33127996 0.52225024 0.22602268 -0.15831454 0.5370457 -0.3642454
0.165913 0.3022632 1.2129532 0.28289086 -0.897895 0.2431137 -0.2467117 0.23436525
-0.8907027 -1.5064878 -1.1562383 -0.3500976 -0.22068569 -0.86557394 0.47291142 0.66965884
-0.39289865 -1.153772 -0.09334401 -0.92439294 -0.04226428 -1.5077174 0.57819575 -0.23540677
0.538512 -0.569149 -0.06343773 -0.37431133 0.103135906 0.037216686 -0.701084 -0.56799185
0.25935456 0.27262527 -0.042749073 -0.30088624 -0.3733799 -0.48727915 -1.2257969 -0.20132753
-0.30951354 0.56542367 0.01770728 -0.6517825 0.5733737 0.2802301 0.22788806 0.26813814
0.20120981 -0.72895294 0.019985976 -1.3819941 0.52871644 0.2964215 0.13304994 0.23406771
-0.22847362 0.24777707 0.23298816 -0.28306702 0.07824482 -0.22851932 -1.0487869 0.3093541
0.18446589 -0.5344721 -0.07739266 -0.7194953 -0.13340524 -0.8749584 -2.1965058 0.10188039
-0.07608712 -0.40332973 0.18619886 0.1804064 0.082865804 0.022348672 0.23100944 -0.32953662
-0.24109475 -0.030210875 0.73518133 -0.4028145 -0.13113174 -1.388783 -0.6006591 -0.18382588
0.21132116 -0.58179003 -0.0037596868 -0.26578882 0.02802066 -0.45484778 0.0015242244 -0.179152
1.4134841 0.25817186 -0.7067036 -0.1485616 -0.5544444 0.9880563 -0.35626158 0.3536079
0.20641509 -0.85852414 0.28661698 0.61577475 -0.63177496 0.19112596 -0.4306749 0.3137088
0.04523609 -0.5705409 0.034892026 -0.02236981 0.39320952 -0.30365014 -0.11824932 -1.0506276
-0.011739366 -0.070219085 -0.2706294 -1.2748895 -0.4959495 -0.06631133 -0.12439912 0.74114853
0.35302404 -0.13836439 -0.18661797 -0.16469814 0.9848969 0.2743116 -0.99814576 0.018692113
-0.12375194 -0.060857896 0.17983517 -1.0735793 0.15413293 0.69734967 -0.05378274 -0.056782793
-0.4407711 -0.7496916 0.028763397 -0.6475617 -0.066760585 -1.0212007 -0.3733385 0.09026668
-0.6269062 0.1920566 -0.27997446 0.35258633 1.0441209 -0.9216061 -0.14583121 -0.06650125
0.29119512 0.044367544 -0.013037154 -0.33968145 0.030210955 0.24263133 0.22633167 0.038453188
-0.46552727 -0.52692366 0.072257765 -0.0989947 0.102752805 -0.10533957 0.45405406 0.15123774
0.48401353 0.15058738 -1.1649045 0.6419114 -0.92714167 0.20936517 -0.079906285 -0.7816311
-0.0737441 -0.075961635 -0.108866505 -0.40540603 -0.17643264 -1.2081552 -0.37949505 -0.6437228
0.34188473 0.14450811 0.13352424 0.20708951 0.12227824 -0.3893536 -0.93358845 -0.13927647
-0.22072715 0.06340688 -0.67030567 0.1956606 -0.3259798 0.25806373 0.15827239 -0.9591683
-0.27798432 0.31010005 -0.043306585 -0.10326917 -0.20555404 -0.4539862 -0.17912614 0.44626513
-0.22905098 0.5190931 -0.5108847 0.08071042 -0.5165435 -0.5055609 0.21534385 -0.959457
-0.9716899 0.30192888 -0.021326764 -1.0950121 -0.15001863 -0.8975918 -0.48683643 0.0017947914
0.06320103 -0.13331415 -0.07778004 -0.028406173 -0.49103153 0.07835028 -0.0070444653 0.20309399

fc2.bias f4 [128]
00000000: b27b 1c3e 6f0f 42bf 7aad bebd 4da1 8abe
00000010: 5d81 893e 3a56 14be 10f9 b13c 4f1b 0bbd
00000020: 9cb2 0fbf 9ee7 0dbe a7a4 c7be 69b4 4c3f
00000030: d22e 13bf ffcf 09bf 8021 56bf 23fa 84be
00000040: 0178 433e e10e 033e 8038 a7bd 9620 0b3e
00000050: 43cb 0abd a18c c9bd 54b4 a03e 5d8f ba3e
00000060: 5159 b2be d2e5 88bf cae7 a3be 2cfd cfbd
00000070: e846 353e 912d 8dbd d7f2 043c 6aa1 5dbb
00000080: f111 29bd f41b 093f 487b 143f af89 82bd
00000090: 6a7d 66bd e97d 623f fea5 953d 5fe0 4e3d
000000a0: e62b 273f 36ce 9abe 2db4 b0be 894a 19bf
000000b0: 5cdb 4bbd 8b83 0dbf 89c0 79be fea8 8e3d
000000c0: 305b e2be 623c 97bd 98ea 6cbf 59ff 3dbd
000000d0: d861 d0bd f8ff 053f 9f33 9e3f 4329 ee3e
000000e0: 0826 cbbd 3812 dc3e f453 a73e 0ca1 123f
000000f0: f418 9dbd c3f9 01bf ca24 3ebe 1dec 7ebe
00000100: 74e5 e03d 7394 fbbd 532a efbd 0040 30bd
00000110: 38b9 ddbc f118 ebbc d445 9abe 2f2d 62bd
00000120: 0c55 4cbe 59de 563e d043 c7bd 1533 d93d
00000130: d5bc f83e 2654 ca3e 799d a6bd 5ddd 95bc
00000140: e8e7 013f cdad 6bbd 4cd8 e7be 952c da3e
00000150: 8d17 26be dd18 393d 8b52 b7bd 32a9 46bf
00000160: a630 473f 0279 173e 30d7 a93e f093 943e
00000170: 783f 84bd 1dbf d9bd 114e 5fbd b3e3 5bbe
00000180: 6695 98bd c256 223f 6ced 253e 7db9 fb3e
00000190: 6e04 593f 12e3 86be b4da da3d d445 f43e
000001a0: 80be 0c40 04fc 02be f19a 633f c5c6 0e3d
000001b0: 4e4b 5abe 3842 0abf f7ed d8be a006 0fbf
000001c0: 7efc 1dbe f085 e13e 19b0 cebd 6870 0abe
000001d0: f33c 31be cdcc 51bf 67d0 343f bf51 e7be
000001e0: dffa c73d 67ab 99bd 7a3d 31be d466 2b3f
000001f0: 04cc 51bd af73 ccbd 1219 81bf 0340 0cbd
0.15281561 -0.758048 -0.09310432 -0.27076188 0.2685651 -0.14486018 0.021725208 -0.03396159
-0.5613191 -0.13857886 -0.38992807 0.79962784 -0.5749332 -0.53833 -0.83644867 -0.2597209
0.19088747 0.12798645 -0.081650734 0.1358665 -0.03388525 -0.09841276 0.3138758 0.36437503
-0.34833768 -1.0695136 -0.3201278 -0.101557106 0.1770283 -0.06893457 0.008114538 -0.0033818134
-0.041276876 0.5355828 0.5800061 -0.06373917 -0.056271948 0.88473374 0.07307051 0.050506946
0.6530136 -0.3023545 -0.34512463 -0.59879357 -0.049769744 -0.55278844 -0.24389853 0.069658265
-0.44210196 -0.07384564 -0.9254546 -0.046386097 -0.10174912 0.523437 1.2359504 0.46515855
-0.09919363 0.4298265 0.3268124 0.5727699 -0.07670775 -0.5077173 -0.18568721 -0.24894758
0.10981265 -0.12284174 -0.116779946 -0.043029785 -0.027065858 -0.028698416 -0.301314 -0.05521887
-0.19954318 0.20983256 -0.09729731 0.10605446 0.48581567 0.39517325 -0.08135504 -0.01829403
0.50744486 -0.057538796 -0.4528221 0.42612138 -0.16219921 0.045189727 -0.08951291 -0.7760192
0.77808607 0.14792255 0.33171988 0.29019117 -0.06457418 -0.10632155 -0.05451781 -0.21473579
-0.074503705 0.6341363 0.1620385 0.49164954 0.84772384 -0.26345116 0.106862456 0.47709525
2.1991272 -0.12791449 0.88908297 0.03485753 -0.21317789 -0.5400729 -0.42369053 -0.55869484
-0.1542835 0.440475 -0.10092182 -0.13519442 -0.17308407 -0.81953126 0.70630497 -0.45179555
0.09764647 -0.075033955 -0.17308608 0.6695378 -0.051219955 -0.099830024 -1.0085776 -0.034240734

fc3.weight f4 [4, 128]
00000000: 4729 9d3e 037f 47bd 3540 2a3c a8c8 5a3e
00000010: 99fe 203d 7d34 273c 7e52 0cbd 8c2a ed3c
00000020: 4a15 a6be 6f92 1a3d acca 733d c57e 5b3f
00000030: ad63 26be 9a54 9cbe de2c ccbd 2c25 51be
00000040: 098c 963c 398a c33d 0701 e73d 4a20 14bf
00000050: a6c5 cbbd 7cca 34bf 548c 973d 4ab6 8abe
00000060: 2d6b 98be 8da5 e53d 9af5 ffbe a49c 1cbe
00000070: 774d 863e 7c8e 9abd 167b 4f3d e304 173f
00000080: 0940 b33c d442 7f3e 1938 a1bf 49d7 d0bc
00000090: ba40 443c f3dc 163f ec2e 173e 0b12 02c0
000000a0: ffe6 b33e 937e 9ebe b1fc e63d a412 b0be
000000b0: fe13 2dbc 5f16 3bbe 5f70 07bf 48a8 083e
000000c0: aa72 30bd 6e06 613c f636 cc3a ed74 30be
000000d0: c431 d4be 956f 533e 0f34 593f d772 6c3e
000000e0: 02d3 4b3d d4a5 893e 19c2 eebf 7059 ce3e
000000f0: 9e81 f9bd 43b1 e8be edba 99bb 9d1b 2cbf
00000100: dfe2 27bd 0dc6 123d 97cf 17bd 1996 763d
00000110: 93a0 b13d b74b 673e 80be babe 9e29 61bf
00000120: ba80 4bbe 6d9a 783d 790a a7bd 03af e33c
00000130: ba6a 573f 082d f2bd 8843 a2bd ed55 ed3c
00000140: 188d 24bf b42f 93be e715 c0be 4a61 a5bf
00000150: b888 a7bc 16f9 b63d 1200 973d a453 943f
00000160: 28b5 bdbe c772 99bd 1818 c23e 5c77 183e
00000170: 7a2f a1bd 37a6 d7bc ca20 9a3d b1d6 c4be
00000180: 7d39 d4bc 8df5 bbbf 2f1a 613d 23af 923e
00000190: cf4e f23b b7d0 1cbe ddea 18bf 09b7 113e
000001a0: 000b c33f d2d4 2ebe 9eeb d0bd a087 2a3d
000001b0: 1037 1bbc d2e3 50bf d9ee e73e 9f4a 7cbe
000001c0: 1b2e 333d 8a2e a53e 8904 933d 66d8 083c
000001d0: 5b4f b8bc 6695 303e c2a4 1a3f 3239 3bbd
000001e0: e85d 56be 0515 21bd da5b 0ebf 7c0e 703e
000001f0: 8cb1 263c 7f2e af3c 5628 66bd 6042 93bc
00000200: 9218 64bd ce75 87bd 5aaf 33bd edad c43e
00000210: 5575 19bb f800 cfbc 0a81 a33d 1a1a 013d
00000220: 98e3 33bd d3c4 34bd fcf3 c7be 5f74 063f
00000230: c9b4 b0be 5f60 68bd e6f3 1b3e d102 27bf
00000240: f649 073d 3228 053d e6c8 dcbd 5d76 f8be
00000250: 2a99 63be aba4 ae3d f8dc e9bf 494f ab3e
00000260: fb11 8c3d c378 a43c 8140 d53c 637a 50bf
00000270: 3404 513e b715 4dbe d6bf 683d c628 d43e
00000280: acd6 2abd 130d bd3e 563e aa3e 67ad 00bd
00000290: 5687 823d f42f 003f 0e62 7b3d 1e76 133e
000002a0: c41e 553e 24d5 443d 948b 64bf 4474 1fbe
000002b0: c034 25bb 493e 64be 0a1f 7bbd 3d30 11bf
000002c0: ca1d 2abe abd1 3fbc d593 45bb ee11 d8be
000002d0: 6a34 53bd 6c9f d3bf 67c2 533c 141a 1fc0
000002e0: 26df 03be 14c7 0dc0 0277 693e ed66 acbf
000002f0: c7ce 093d 9cc7 9e3d 6048 4bbc f851 0dbf
00000300: 9274 94bf e42b 83bd 899c 7f3d 0370 3cbc
00000310: 9b47 aabe 0478 afbe 65c7 d1be f241 ac3d
00000320: 4abb 97be 048f 233e c7d8 8fbc 56a5 fcbb
00000330: 1715 1b3f 5da6 013f c0f2 053d 1a61 f83c
00000340: 756b eb3e 1195 bcbe a523 66bf c585 df3e
00000350: d0c5 eebc 158e babf d08f 323d 9f18 333f
00000360: 416a 173f 8e82 2cbe c9ff 863e eded 673e
00000370: 9955 50be d2dd 243d fc80 f1bc 42a9 a9be
00000380: 99b3 953c f984 c13e 8773 2abf e616 4b3e
00000390: 09a6 993e 4a73 9abe c6cb 923e 339a 563e
000003a0: 5582 b83f 635d cabe 6667 0b3f 9c42 433d
000003b0: bce8 5e3a 79fe 323e d021 783d fc8c a9be
000003c0: 5203 3cbd ef32 de3e 8fd9 83bd 3d98 b4bd
000003d0: 7537 93bd 8daf 943d 2bfc 0c3f be99 63be
000003e0: ca4f af3d 4935 923d 83c9 fbbe 09cc 113e
000003f0: d7d5 593c 5509 ab3c 35a4 afbd ccf7 973c
0.30695555 -0.048705112 0.010391285 0.21365607 0.039305303 0.010205385 -0.03425836 0.028950952
-0.32438117 0.037737306 0.059519455 0.8574031 -0.16248961 -0.30533296 -0.09969495 -0.20424336
0.01837732 0.09547848 0.11279493 -0.5786177 -0.09949808 -0.70621467 0.07399812 -0.270922
-0.2976927 0.11213217 -0.49992067 -0.15294129 0.26230976 -0.07546708 0.050654493 0.5899183
0.02188112 0.24927837 -1.2595245 -0.025493281 0.011978323 0.5893089 0.14763993 -2.0323513
0.35137174 -0.30955943 0.11278666 -0.34389222 -0.010563849 -0.18270253 -0.5290584 0.13345444
-0.043078102 0.013734443 0.0015580344 -0.17232104 -0.41444218 0.20648034 0.8484506 0.23090683
0.04976178 0.2688433 -1.8652984 0.4030261 -0.12182926 -0.4544774 -0.0046914727 -0.67229635
-0.040987846 0.035833407 -0.037063207 0.060201738 0.08673205 0.22587477 -0.36473465 -0.8795413
-0.19873324 0.060694147 -0.081562944 0.027793413 0.84147227 -0.11824995 -0.07923037 0.028971637
-0.6427779 -0.28747332 -0.3751671 -1.2920315 -0.020450935 0.08934228 0.0737306 1.1588025
-0.37052274 -0.07492595 0.37909007 0.14889282 -0.078703836 -0.026324375 0.07525785 -0.38445047
-0.025906319 -1.4684311 0.05495661 0.28649244 0.0073946486 -0.15313993 -0.5973337 0.14229979
1.5237732 -0.17073372 -0.102011904 0.04163325 -0.009473577 -0.81597626 0.45299414 -0.2463784
0.04374514 0.3226207 0.071785994 0.008352375 -0.022498777 0.17244491 0.6040765 -0.045708843
-0.2093426 -0.039326686 -0.55608904 0.23443025 0.010174166 0.021384476 -0.05619081 -0.017975986
-0.055687495 -0.06614266 -0.0438684 0.38413945 -0.0023415883 -0.025269017 0.079835966 0.031519033
-0.043918222 -0.04413302 -0.39053333 0.5252132 -0.34512928 -0.05673253 0.15229759 -0.6523867
0.03302952 0.032509036 -0.10780506 -0.48527804 -0.22226396 0.08527502 -1.8270559 0.33458927
0.06839367 0.020077115 0.026031734 -0.8143675 0.2041176 -0.20027815 0.056823574 0.41437358
-0.041708633 0.36924037 0.33250684 -0.03141537 0.063734695 0.5007317 0.06137281 0.14400527
0.20812517 0.04805483 -0.8927548 -0.15571696 -0.0025208443 -0.22289385 -0.061308898 -0.5671423
-0.16612926 -0.011707704 -0.003014793 -0.4220118 -0.051563658 -1.6533027 0.012924767 -2.4859667
-0.12878093 -2.2152758 0.22799304 -1.346891 0.033644464 0.07752916 -0.012407392 -0.552032
-1.1598074 -0.06404856 0.062405143 -0.011501315 -0.33257756 -0.34271252 -0.40972438 0.084110156
-0.29635078 0.15972525 -0.017559422 -0.0077101393 0.60579056 0.50644475 0.032702208 0.03031974
0.4598042 -0.3683248 -0.8989814 0.43656746 -0.029147059 -1.457461 0.04359418 0.69959444
0.59146506 -0.16846678 0.26367024 0.22649355 -0.20345153 0.040250607 -0.02948045 -0.33136946
0.018274115 0.37796763 -0.6658253 0.19832954 0.30009487 -0.30166084 0.28671092 0.2095726
1.4414774 -0.39524373 0.5445465 0.047670946 0.0008503308 0.17479886 0.06057912 -0.33115375
-0.045901604 0.43398234 -0.064379804 -0.088181 -0.07188312 0.07260046 0.5507228 -0.22226617
0.085601404 0.071390696 -0.4917718 0.1423799 0.013295612 0.020878473 -0.08576242 0.018550776

fc3.bias f4 [4]
00000000: de2b 8e3f 691d 9d3f b3d7 843f 6cf3 8d3f
1.1107137 1.22746 1.0378326 1.1089911
