models/sess10-max4-sm0.pth (torch, 53263 bytes, 12 tensors)

fc1.weight f4 [64, 24]
0.009185529 -0.07058429 0.0096729295 0.10328355 -0.17755018 0.031569865 0.02538076 -0.13252622
0.077688456 -0.00075635803 0.08700529 -0.075134434 -0.045017503 0.18081638 0.038776983 -0.087799266
-0.19634716 0.15720311 -0.14986376 0.031759348 0.15295218 -0.017178863 -0.04800137 -0.12642744
-0.012953304 0.10664595 -0.16136824 -0.2003232 0.055641018 -0.16736545 0.059362438 -0.03028812
0.11251655 -0.09244288 -0.15300834 0.19762596 -0.1460296 0.0001896796 -0.001767658 -0.07968015
-0.10445036 0.02288879 0.17752168 -0.18228954 0.15410943 -0.044077206 -0.20036018 0.023514284
0.062533386 0.05635849 -0.11485558 -0.10965848 0.02670786 -0.16436127 -0.097223505 -0.15888175
-0.05861423 -0.04801079 0.036856 0.10288985 -0.18508248 0.18192801 -0.05429596 0.008876129
0.0051030503 -0.12645541 -0.0029362012 -0.023315212 0.19201489 0.042513195 -0.14791644 -0.07023756
0.019489232 -0.02389683 0.14151241 0.041603368 0.16608302 -0.0017198671 0.16701256 0.107251704
0.11376634 -0.18953355 0.122427315 0.036836434 -0.117822446 -0.19171256 0.07084381 -0.17839976
0.0024217912 0.0025170567 -0.103909574 -0.08066658 -0.13573307 0.053573888 0.08048907 -0.10404149
0.14061521 0.16804127 0.041195974 -0.111505836 0.1559407 -0.026834274 -0.13902189 -0.01917056
-0.038265467 -0.17474715 0.07126115 0.040074833 0.15629861 0.03741601 0.03074301 0.11342022
-0.05302838 -0.021092225 -0.15503393 0.08659471 0.11250134 0.1767808 -0.16436456 0.05989354
-0.19733593 -0.18069246 0.17137933 -0.10815837 -0.06557488 0.084350236 0.023267493 0.09281905
-0.10783683 0.15245003 0.19490796 -0.15995781 0.11590102 0.20244154 -0.0044471165 -0.14779304
0.06451834 -0.011278429 0.007863442 -0.19178748 0.14458202 -0.016522394 -0.007145701 0.15550424
0.09381833 -0.19034034 0.10885794 0.111328416 -0.19395967 -0.15340741 -0.15312952 -0.011258062
-0.010247541 0.13289203 0.13160457 -0.00042281882 -0.15500337 -0.09432329 0.013199097 0.08442891
-0.1721074 -0.11147495 0.08519281 -0.15162717 0.17875957 0.09485848 -0.017770192 -0.18813539
0.031606194 -0.018686738 -0.06258709 0.19132003 -0.14725655 0.12780984 -0.18051687 -0.058711104
0.10563112 -0.05202331 0.13530467 0.06226394 -0.2019889 0.061480474 0.1524704 0.05600208
0.14682369 -0.15608633 -0.028170353 -0.0121932225 -0.00077222346 0.112175904 0.18214017 -0.0032129947
-0.13322501 -0.18467405 0.083539106 0.14084704 -0.045531034 -0.11536653 0.020690916 -0.19615084
0.08934807 0.07082675 -0.123994 -0.07416915 0.1739193 -0.0972777 -0.052732337 -0.20223542
0.1829891 -0.16789393 -0.07102451 -0.13041894 0.06005307 -0.19928062 0.07050287 0.14618924
0.0047956696 0.049627434 0.1608173 0.19814636 -0.07020038 0.1906314 0.19566469 -0.1158078
-0.15487503 0.021699443 -0.046618912 0.18025482 0.18462671 -0.04709882 0.13969618 0.06486668
-0.19009934 0.04126878 0.18367572 0.018511415 0.1548094 -0.062424127 -0.028393418 0.1303457
-0.020152465 -0.04355873 0.09219582 0.105246186 -0.0052582007 -0.033928875 0.023723941 -0.16587172
-0.15625761 0.070902504 -0.16333885 0.11240031 0.08298734 0.14008325 0.07492556 0.043104816
00000000: e77e 163c 7f8e 90bd 357b 1e3c 5386 d33d
00000010: b7cf 35be 674f 013d 50eb cf3c f4b4 07be
00000020: 201b 9f3d 5446 46ba d42f b23d 15e0 99bd
00000030: 4664 38bd ee27 393e 9dd4 1e3d 1ad0 b3bd
00000040: 3b0f 49be daf9 203e e375 19be 1716 023d
00000050: 7f9f 1c3e b0ba 8cbc 169d 44bd 3276 01be
00000060: 183a 54bc 3169 da3d b73d 25be 8621 4dbe
00000070: d6e7 633d d961 2bbe 0726 733d cb1e f8bc
00000080: 146f e63d b152 bdbd 38ae 1cbe 765e 4a3e
00000090: c988 15be bbe4 4639 c3b0 e7ba 592f a3bd
000000a0: 12ea d5bd 4681 bb3c 3ec8 353e 1caa 3abe
000000b0: ddce 1d3e 4d8a 34bd 382b 4dbe 07a1 c03c
000000c0: 8111 803d 29d8 663d 6739 ebbd a094 e0bd
000000d0: 71ca da3c 524e 28be 1e1d c7bd e6b1 22be
000000e0: 7a15 70bd f6a6 44bd 51f6 163d eab7 d23d
000000f0: 4386 3dbe 564b 3a3e 7165 5ebd 2f6d 113c
00000100: 7d37 a73b 877d 01be 486d 40bb 8bff bebc
00000110: 8d9f 443e 5122 2e3d 6877 17be b6d8 8fbd
00000120: e2a7 9f3c 49c3 c3bc a1e8 103e 4b68 2a3d
00000130: ab11 2a3e 2a6d e1ba 5705 2b3e c8a6 db3d
00000140: 54fe e83d 1515 42be 2cbb fa3d cde1 163d
00000150: e54c f1bd 4c50 44be 8f16 913d 6dae 36be
00000160: eab6 1e3b 34f5 243b 8bce d4bd 8534 a5bd
00000170: 9cfd 0abe 4b70 5b3d 74d7 a43d b413 d5bd
00000180: 6ffd 0f3e 0313 2c3e 1cbd 283d 2c5d e4bd
00000190: ebae 1f3e 8dd3 dbbc c15b 0ebe 940b 9dbc
000001a0: 40bc 1cbd ebf0 32be 5ef1 913d 8225 243d
000001b0: be0c 203e 8841 193d c4d8 fb3c dc48 e83d
000001c0: 4934 59bd 9ac9 acbc 37c1 1ebe 9158 b13d
000001d0: 1a67 e63d 0706 353e 2f4f 28be ee52 753d
000001e0: 6e12 4abe 7207 39be 107e 2f3e 2382 ddbd
000001f0: 1f4c 86bd d1bf ac3d 789b be3c ea17 be3d
00000200: 8ed9 dcbd dc1b 1c3e f495 473e fbcb 23be
00000210: 845d ed3d d64c 4f3e 1eb9 91bb 0f57 17be
00000220: 3122 843d 29c9 38bc abd5 003c f063 44be
00000230: 4f0d 143e f959 87bc 7c26 eabb 813c 1f3e
00000240: d323 c03d 94e8 42be e9f0 de3d 2700 e43d
00000250: 5d9d 46be d516 1dbe fccd 1cbe bc73 38bc
00000260: 4de5 27bc d914 083e 59c3 063e c8ad ddb9
00000270: 34b9 1ebe 922c c1bd 0641 583c 10e9 ac3d
00000280: ec3c 30be fb4c e4bd 9179 ae3d 2744 1bbe
00000290: c00c 373e 2a45 c23d cb92 91bc 90a6 40be
000002a0: 7f75 013d ee14 99bc a92d 80bd 66e9 433e
000002b0: 6cca 16be 95e0 023e 6ad9 38be 0e7b 70bd
000002c0: 2155 d83d 6516 55bd 4f8d 0a3e 7908 7f3d
000002d0: 2ed6 4ebe f3d2 7b3d 3321 1c3e 7062 653d
000002e0: f358 163e 18d5 1fbe 83c5 e6bc 15c6 47bc
000002f0: 0a6f 4aba 7bbc e53d f482 3a3e 1b91 52bb
00000300: 236c 08be 321b 3dbe 8d16 ab3d 353a 103e
00000310: c07e 3abd 4a45 ecbd ff7f a93c c4db 48be
00000320: 1ffc b63d 9d0d 913d 91f0 fdbd ffe5 97bd
00000330: e717 323e 8839 c7bd ddfd 57bd cd16 4fbe
00000340: 7f61 3b3e 63ec 2bbe 4c75 91bd 8b8c 05be
00000350: 35fa 753d 3810 4cbe cf63 903d a2b2 153e
00000360: fe24 9d3b 2346 4b3d 4aad 243e e1e6 4a3e
00000370: 38c5 8fbd e134 433e 535c 483e a42c edbd
00000380: 8f97 1ebe 08c3 b13c 79f3 3ebd b894 383e
00000390: c90e 3d3e b1ea 40bd 840c 0f3e d2d8 843d
000003a0: 67a9 42be 7409 293d 7d15 3c3e 40a5 973c
000003b0: 5b86 1e3e 71b0 7fbd 5099 e8bc 5879 053e
000003c0: c816 a5bc a46a 32bd 29d1 bc3d 508b d73d
000003d0: fc4c acbb 01f9 0abd b658 c23c 47da 29be
000003e0: ff01 20be 5535 913d 4d42 27be 2232 e63d
000003f0: 44f5 a93d fc71 0f3e 9272 993d ad8e 303d

fc1.bias f4 [64]
0.13681813 -0.02141861 -0.057156656 0.08257109 0.04931998 -0.036664713 0.045692246 0.067565285
-0.03310022 -0.01644095 0.07096494 0.061558586 -0.13827881 -0.06849439 0.029021367 -0.203624
-0.14488687 0.14986686 -0.15612166 -0.18554415 -0.04415269 0.12703739 -0.15556428 0.037115246
0.032625377 -0.07685136 0.20073007 -0.18738453 -0.1302773 -0.04744557 -0.17760675 -0.12733674
0.05301548 -0.019694826 -0.11238641 0.054676294 0.14576511 0.05237201 0.18212925 0.03794283
-0.021409241 0.18478465 0.048440665 -0.18314949 -0.005567893 -0.17066497 -0.018774606 -0.041095454
0.0017835966 0.10406752 -0.09628114 0.040936362 0.17273003 0.15011647 -0.1473279 -0.091131836
0.12545542 -0.143644 0.20330511 -0.114093356 -0.08033297 -0.15816915 0.056581873 -0.17744282
00000000: 0d1a 0c3e 1576 afbc 191d 6abd 081b a93d
00000010: bf03 4a3d bd2d 16bd cb27 3b3d ab5f 8a3d
00000020: 1994 07bd 2caf 86bc 1156 913d db24 7c3d
00000030: f698 0dbe c946 8cbd 38be ed3c cf82 50be
00000040: 395d 14be b376 193e 5bde 1fbe 49ff 3dbe
00000050: 73d9 34bd 1716 023e 3e4c 1fbe 2806 183d
00000060: 30a2 053d 3f64 9dbd 2f8c 4d3e bbe1 3fbe
00000070: 6a67 05be 4956 42bd 8bde 35be 9064 02be
00000080: c326 593d 0b57 a1bc d92a e6bd 40f4 5f3d
00000090: 7343 153e 0884 563d 1780 3a3e f169 1b3d
000000a0: 6f62 afbc 3038 3d3e b869 463d 8a8b 3bbe
000000b0: df72 b6bb ccc2 2ebe 34cd 99bc b553 28bd
000000c0: 92c7 e93a 5a21 d53d 0c2f c5bd e3ac 273d
000000d0: 24e0 303e 22b8 193e 20dd 16be 54a3 babd
000000e0: 6377 003e 6a17 13be 372f 503e c7a9 e9bd
000000f0: 9d85 a4bd 18f7 21be 65c2 673d 92b3 35be

fc2.weight f4 [64, 64]
-0.084277496 0.06389551 -0.101930454 0.082298905 -0.00500682 -0.059602708 -0.0366161 -0.0051011294
-0.066309676 0.08456859 -0.055499136 -0.09546819 -0.0033222884 -0.038339168 0.0065509975 0.021940738
-0.045669377 -0.12015499 0.04531151 0.10632944 0.041923955 0.10920836 -0.0051053464 -0.07662569
-0.06367105 0.07024443 0.035965353 -0.05688028 -0.013246313 -0.063212946 0.015408084 -0.04931733
0.002900973 0.08044161 0.066738725 -0.011789709 -0.010121092 0.09500487 0.07385138 0.05460313
0.08100274 -0.009246662 -0.024080008 0.03675559 0.082247525 0.09178859 -0.01646258 0.032375723
-0.10013357 -0.10346486 0.021042123 -0.029277116 0.01266253 -0.054861993 -0.08632642 -0.009716347
-0.1021062 0.047697574 0.059305355 0.11605126 0.11379787 0.039632127 0.054200366 0.024232179
0.031611815 -0.06004241 0.09123981 -0.05218178 0.040034175 0.060836256 0.017487496 0.0069337487
-0.120039016 -0.09887208 0.0117057115 -0.03943807 0.10934886 -0.0044482946 0.093048826 -0.055092826
0.070945576 0.0142760575 0.111833066 0.063101515 -0.09815052 -0.067869395 0.051966593 -0.07200976
0.06469439 0.12058936 0.039717525 -0.0050936043 0.07070461 0.046750113 -0.012458354 0.06620507
-0.0035214722 0.10669507 0.031281322 -0.11897379 -0.02558355 -0.016564667 0.00043784082 -0.11286798
-0.09999278 -0.07025683 -0.053145394 -0.049608573 -0.11283724 -0.05263579 0.11931929 0.04654914
0.1010153 -0.0012167692 0.0663522 0.12075043 0.10897246 0.12179379 0.044270545 0.07212831
-0.10072574 -0.02027893 -0.09529659 0.046927825 0.06494488 0.06561485 -0.00038658082 0.09446156
0.06635901 -0.03862232 0.101331964 -0.03578198 0.11889233 0.08837992 -0.020881653 0.12490119
-0.023330748 0.012809426 -0.09523916 0.020696044 -0.02925682 -0.040000826 -0.10786559 0.12456803
-0.01798375 -0.0966607 -0.03450516 -0.004003376 -0.041426256 -0.12056047 0.01497829 -0.0055381507
0.10680443 0.07972829 0.07425837 0.119098276 0.120118275 -0.057900205 0.033605903 0.08345291
0.07820447 -0.045608252 0.108894974 -0.023388982 -0.041783363 0.11391683 -0.00030210614 -0.10888031
0.060295865 0.023196027 -0.061774135 0.07838029 0.11885291 -0.0016669333 -0.040312096 0.077226415
0.0007651001 0.04854022 0.08142622 0.06852022 0.028092563 0.04306577 0.11358845 0.07982604
0.072390646 -0.08353196 -0.043352023 -0.014253646 -0.12431155 0.08861615 0.09552316 -0.088707194
-0.06543994 -0.0027540326 -0.0626283 0.027483076 -0.07347782 0.023679033 0.022969395 -0.008125231
0.0020755827 0.013139486 0.0407158 -0.10761076 -0.020248786 0.06348018 0.11184949 -0.00487189
0.044008434 0.010308474 0.12279126 0.079639554 0.07130222 -0.0651623 0.0081449 0.090050116
0.07196708 0.08393474 -0.08724043 -0.021088019 -0.11965679 -0.09448993 -0.07695606 0.05345702
-0.012180045 0.04673043 -0.07717183 0.0367437 -0.111594364 0.10954322 -0.0884887 0.11470628
0.11181305 -0.06539868 -0.010579854 -0.12284748 -0.11029312 0.0071285367 0.10713193 -0.038987637
0.0121034235 0.015434891 0.07562347 -0.033470944 -0.020603955 0.08416264 0.11384636 -0.08795555
-0.11734788 -0.09533639 0.100572705 -0.0363573 -0.12044206 -0.016356662 0.034431085 -0.11225094
00000000: ae99 acbd a6db 823d eac0 d0bd 548c a83d
00000010: 4010 a4bb f821 74bd c4fa 15bd 6027 a7bb
00000020: 5ecd 87bd 4c32 ad3d 1053 63bd d484 c3bd
00000030: c0ba 59bb 8809 1dbd c0a9 d63b 10bd b33c
00000040: d00f 3bbd d213 f6bd 9098 393d 40c3 d93d
00000050: 74b8 2b3d a2a8 df3d c04a a7bb eeed 9cbd
00000060: f865 82bd 50dc 8f3d 6850 133d 4cfb 68bd
00000070: 1007 59bc ca75 81bd 3072 7c3c f800 4abd
00000080: 401e 3e3b 92be a43d 50ae 883d a029 41bc
00000090: f0d2 25bc ea91 c23d 643f 973d 88a7 5f3d
000000a0: c4e4 a53d 507f 17bc 7043 c5bc 088d 163d
000000b0: 6471 a83d a8fb bb3d 88dc 86bc 689c 043d
000000c0: d412 cdbd 62e5 d3bd 8860 ac3c 90d6 efbc
000000d0: 8076 4f3c f8b6 60bd e8cb b0bd 5031 1fbc
000000e0: 0e1d d1bd 885e 433d 2cea 723d 48ac ed3d
000000f0: dc0e e93d 4c55 223d 3401 5e3d 9082 c63c
00000100: 647b 013d 08ef 75bd f0db ba3d 90bc 55bd
00000110: e0fa 233d 702f 793d f041 8f3c 8034 e33b
00000120: 04d7 f5bd 727d cabd 50c9 3f3c d089 21bd
00000130: 4cf2 df3d 00c3 91bb 6290 be3d 04a9 61bd
00000140: ea4b 913d 20e6 693c bc08 e53d 5e3b 813d
00000150: 2403 c9bd 1cff 8abd ecda 543d da79 93bd
00000160: 7e7e 843d 8ef7 f63d d8ae 223d 40e8 a6bb
00000170: 94cd 903d 0c7d 3f3d 201e 4cbc 8696 873d
00000180: 80c8 66bb f282 da3d d820 003d 88a8 f3bd
00000190: 9894 d1bc a0b2 87bc 008e e539 5427 e7bd
000001a0: 04c9 ccbd d0e2 8fbd fcae 59bd 5c32 4bbd
000001b0: 3617 e7bd a098 57bd ac5d f43d 50aa 3e3d
000001c0: 1ce1 ce3d 007c 9fba aae3 873d 004c f73d
000001d0: f42c df3d 066f f93d 0855 353d 02b8 933d
000001e0: 4c49 cebd 0020 a6bc dc2a c3bd 6437 403d
000001f0: d201 853d 1461 863d 00ae cab9 1075 c13d
00000200: 3ce7 873d 7032 1ebd 2287 cf3d 2090 12bd
00000210: d27d f33d 8800 b53d 0010 abbc 32cc ff3d
00000220: 2020 bfbc a0de 513c c00c c3bd c08a a93c
00000230: 00ac efbc e8d7 23bd a2e8 dcbd 861d ff3d
00000240: a852 93bc 0cf6 c5bd 4855 0dbd c02e 83bb
00000250: 94ae 29bd 68e8 f6bd 8067 753c 6079 b5bb
00000260: 48bc da3d 9648 a33d c614 983d cce9 f33d
00000270: 9200 f63d c428 6dbd 58a6 093d 5ce9 aa3d
00000280: aa29 a03d b8cf 3abd 5404 df3d 409a bfbc
00000290: 0825 2bbd 3a4d e93d 0064 9eb9 a4fc debd
000002a0: ccf8 763d 9805 be3c e006 7dbd d885 a03d
000002b0: 2869 f33d 007d daba 4c1e 25bd e228 9e3d
000002c0: 0091 483a 1cd2 463d cac2 a63d 5454 8c3d
000002d0: 6022 e63c bc65 303d 10a1 e83d d67b a33d
000002e0: 8c41 943d ce12 abbd e491 31bd 2088 69bc
000002f0: 0e97 febd 627c b53d a6a1 c33d 1eac b5bd
00000300: 6005 86bd 007d 34bb 4443 80bd 3024 e13c
00000310: 8a7b 96bd 88fa c13c 502a bc3c b01f 05bc
00000320: 8006 083b 0047 573c 9cc5 263d 0863 dcbd
00000330: c8e0 a5bc e601 823d 5811 e53d 60a4 9fbb
00000340: 3042 343d e0e4 283c fc79 fb3d 101a a33d
00000350: e606 923d d073 85bd 3072 053c 326c b83d
00000360: 7a63 933d fae5 ab3d 1cab b2bd c8c0 acbc
00000370: 9e0e f5bd f083 c1bd 249b 9dbd c0f5 5a3d
00000380: d08e 47bc 6868 3f3d 440c 9ebd 9080 163d
00000390: 968b e4bd 3258 e03d 9039 b5bd 20eb ea3d
000003a0: 3efe e43d beef 85bd 2057 2dbc 7697 fbbd
000003b0: 5ce1 e1bd 8096 e93b fc67 db3d 80b1 1fbd
000003c0: 704d 463c a0e2 7c3c 7ae0 9a3d d418 09bd
000003d0: a0c9 a8bc 765d ac3d 4828 e93d 0a22 b4bd
000003e0: 1654 f0bd ba3f c3bd 10f9 cd3d 64eb 14bd
000003f0: 54aa f6bd 68fe 85bc 9c07 0d3d d2e3 e5bd

fc2.bias f4 [64]
-0.06275992 -0.06013243 -0.010498047 0.10858759 0.032229006 -0.08874887 0.085183874 -0.083222404
0.041479602 -0.073986456 0.023027346 -0.009067789 -0.10705759 0.1161965 -0.021611795 -0.0367184
0.03828451 0.08907084 0.08191784 0.090788916 -0.07003477 -0.006132275 0.06568505 -0.03358771
-0.061000302 0.08175418 -0.11194213 -0.054094464 -0.09792489 -0.08343582 0.056114882 0.09878938
0.10551797 0.07590513 0.08381443 -0.050126642 0.039535582 0.095882535 0.034976885 0.044521064
0.040115073 -0.11581276 0.00053167343 0.06475137 0.002332747 -0.07044648 0.12091303 0.11039698
-0.11396447 0.09270649 -0.03755094 -0.08309828 0.048927695 -0.07765797 0.057422087 0.12418501
-0.05877635 0.09837103 0.053145587 0.10821332 -0.053922027 0.06364493 0.09798995 0.001337558
00000000: 4688 80bd 6c4d 76bd 0000 2cbc 2c63 de3d
00000010: 9002 043d f8c1 b5bd e274 ae3d 8270 aabd
00000020: 84e6 293d 3686 97bd d8a3 bc3c 1091 14bc
00000030: 0241 dbbd 6ef8 ed3d 380b b1bc 0866 16bd
00000040: 38d0 1c3d c66a b63d 8ac4 a73d 8aef b93d
00000050: 646e 8fbd 40f1 c8bb e285 863d 4493 09bd
00000060: 74db 79bd bc6e a73d ea41 e5bd 2892 5dbd
00000070: d88c c8bd 66e0 aabd b8d8 653d 1652 ca3d
00000080: ce19 d83d 2674 9b3d e6a6 ab3d 9851 4dbd
00000090: 10f0 213d 105e c43d ec43 0f3d b85b 363d
000000a0: b44f 243d 3e2f edbd 0060 0b3a 5e9c 843d
000000b0: 00e1 183b 3e46 90bd 40a1 f73d d017 e23d
000000c0: 3466 e9bd e6dc bd3d 04cf 19bd 6e2f aabd
000000d0: 6868 483d 240b 9fbd 6c33 6b3d b654 fe3d
000000e0: 78bf 70bd c076 c93d 30af 593d f29e dd3d
000000f0: 58dd 5cbd 4658 823d f4ae c83d 0051 af3a

fc3.weight f4 [4, 64]
-0.012244567 -0.061800674 -0.11866963 0.06023185 -0.10282977 0.020034522 -0.1189127 -0.03372459
-0.014705405 -0.040598124 -0.11913392 -0.1220077 0.09907955 -0.02380453 -0.02721414 -0.07407193
-0.062391892 -0.05924365 -0.054461896 -0.08436929 0.014273256 -0.0242901 0.060198665 0.07090992
0.06500086 0.058293685 -0.11761841 0.08200692 0.010551199 0.02679506 -0.094254345 0.030183122
0.027907372 -0.08628924 -0.09384632 0.10179107 0.12225443 -0.08745697 0.08137345 -0.078870416
-0.029283807 -0.0101938695 0.014455482 0.025347129 0.0042033643 0.113190085 0.07106528 -0.076803684
-0.03295344 0.010649353 -0.089239165 0.007446021 0.0096963495 0.060903743 -0.10955188 0.009417772
-0.0108870715 0.074187785 -0.012239903 0.037827283 0.021080732 0.06796144 -0.05968474 -0.014501587
-0.018095285 -0.08295946 0.055970892 0.12252097 0.10542117 -0.04613939 -0.031187713 0.09664117
0.11980879 0.09460442 0.056771383 0.040643513 0.07703318 -0.0044270456 0.06159556 -0.122782186
-0.11561659 -0.116118535 0.07641631 -0.005737886 -0.03175299 -0.032009214 -0.041858763 -0.10951057
-0.05579029 -0.05450459 -0.116263926 0.099085584 -0.11124572 0.058031425 -0.07807763 0.006887257
0.0099283755 -0.07177785 0.045643434 0.045813233 0.08111139 0.07029019 -0.094868585 -0.013416097
0.087459534 -0.039384604 -0.016559273 0.09551707 0.09877926 0.10032551 0.051085666 -0.07302718
0.012048766 -0.06645717 -0.023835614 -0.05033502 0.025514007 -0.10816628 0.0004117787 0.08395842
0.007981241 0.093631014 -0.023870498 -0.0032370985 0.0938922 -0.020206228 -0.09197937 0.074864596
-0.0009673685 0.00066138804 0.04944159 -0.032419205 -0.030872896 0.05898641 0.05028011 0.0942553
0.108750835 0.06461665 -0.0670436 0.0716206 0.09971763 0.0876181 -0.0946289 0.041254982
0.012777254 0.10834618 0.056444302 0.018117204 -0.075334504 0.097645 -0.0141534805 -0.036784872
-0.04443346 -0.065937296 -0.115434065 0.06784952 0.08895101 0.0194595 -0.019795641 0.0104908645
-0.001260668 0.054392785 0.071495295 -0.086345226 -0.036218807 0.03616616 -0.042092025 -0.08692068
0.08744185 0.12301552 -0.06293008 -0.07649176 0.0047160536 0.050153688 -0.07050483 0.023723409
0.052706555 -0.10101293 0.038419083 0.09052324 0.08445561 -0.020273492 -0.08476843 0.090446115
0.044444457 -0.066711485 -0.0730032 0.114421576 -0.02295956 -0.059484735 0.11149791 0.0056549907
0.0830532 0.03857319 -0.026571363 -0.054650977 -0.0027099252 0.011972278 -0.0984689 0.07537408
-0.07976803 -0.03680992 -0.016316637 0.011647567 0.089160606 0.05030711 -0.11810483 0.0745693
0.11353086 -0.07110341 -0.030407384 0.054609805 0.012921408 0.048002705 -0.05533573 0.09420885
0.08127475 -0.10416645 0.015480295 0.09543866 0.025962427 0.018268675 -0.01366359 -0.039635032
0.03537555 -0.011289313 0.12101255 -0.07039149 0.01255019 0.02952367 0.11950792 -0.03094986
-0.11504382 -0.120139316 -0.064281836 0.058172077 -0.02043964 0.07589698 0.07347436 0.0023246855
-0.029653773 -0.023652747 0.020972759 0.008599475 -0.051801383 -0.049877375 0.0897706 0.028644755
0.040158898 -0.043354124 -0.07593343 -0.0103214085 -0.028188065 0.05185446 0.064912856 -0.113258824
00000000: 709d 48bc b422 7dbd 1009 f3bd acb5 763d
00000010: 6a98 d2bd 701f a43c 8088 f3bd cc22 0abd
00000020: f0ee 70bc 384a 26bd 7cfc f3bd 2cdf f9bd
00000030: 38ea ca3d b801 c3bc 30f0 debc 06b3 97bd
00000040: a48e 7fbd 78a9 72bd 7013 5fbd cec9 acbd
00000050: 60da 693c 08fc c6bc e092 763d 3839 913d
00000060: 2c1f 853d 5cc5 6e3d ece1 f0bd 3ef3 a73d
00000070: f0de 2c3c 5081 db3c 6c08 c1bd 9842 f73c
00000080: 009e e43c 6ab8 b0bd 8032 c0bd d677 d03d
00000090: 8860 fa3d a41c b3bd 20a7 a63d d086 a1bd
000000a0: 98e4 efbc 3004 27bc b0d6 6c3c c8a4 cf3c
000000b0: 60bc 893b 34d0 e73d ac8a 913d 404b 9dbd
000000c0: 30fa 06bd a07a 2e3c 06c3 b6bd c0fd f33b
000000d0: 70dd 1e3c 3476 793d bc5c e0bd 004d 1a3c
000000e0: b05f 32bc c4ef 973d e089 48bc c8f0 1a3d
000000f0: 80b1 ac3c 5e2f 8b3d fc77 74bd 1098 6dbc
00000100: 903c 94bc a6e6 a9bd bc41 653d 46ec fa3d
00000110: 0ee7 d73d a8fc 3cbd 607d ffbc ceeb c53d
00000120: 505e f53d f6bf c13d 1c89 683d d079 263d
00000130: 92c3 9d3d c010 91bb a04b 7c3d 3a75 fbbd
00000140: 64c8 ecbd 8ecf edbd 2880 9c3d e004 bcbb
00000150: 6c0f 02bd 181c 03bd 1874 2bbd 1447 e0bd
00000160: 5c84 64bd 3440 5fbd c81b eebd 62ed ca3d
00000170: ccd4 e3bd 5cb2 6d3d 2ae7 9fbd 80ae e13b
00000180: a0aa 223c 4400 93bd 9cf4 3a3d a8a6 3b3d
00000190: ba1d a63d 4ef4 8f3d 764a c2bd 30cf 5bbc
000001a0: fc1d b33d c051 21bd 50a7 87bc 749e c33d
000001b0: c84c ca3d 7677 cd3d 343f 513d 468f 95bd
000001c0: 3068 453c b21a 88bd e842 c3bc 182c 4ebd
000001d0: c002 d13c 4886 ddbd 00e4 d739 64f2 ab3d
000001e0: c0c3 023c 9ec1 bf3d 108c c3bc 8025 54bb
000001f0: 8e4a c03d 8887 a5bc ae5f bcbd 9c52 993d
00000200: 0097 7dba 0061 2d3a 4483 4a3d 00ca 04bd
00000210: 28e9 fcbc bc9b 713d 84f2 4d3d ec08 c13d
00000220: c2b8 de3d bc55 843d 284e 89bd d2ad 923d
00000230: c238 cc3d 1e71 b33d cccc c1bd fcfa 283d
00000240: b057 513c 9ae4 dd3d 2432 673d 886a 943c
00000250: fa48 9abd 1afa c73d 00e4 67bc bcab 16bd
00000260: dcff 35bd 220a 87bd b268 ecbd b0f4 8a3d
00000270: f22b b63d 8869 9f3c 782a a2bc e0e1 2b3c
00000280: 003d a5ba f8ca 5e3d 206c 923d c4d5 b0bd
00000290: 2c5a 14bd f822 143d b068 2cbd 7803 b2bd
000002a0: b614 b33d 90ef fb3d 7ce1 80bd b6a7 9cbd
000002b0: 2089 9a3b f46d 4d3d d664 90bd 9857 c23c
000002c0: d4e2 573d dedf cebd 545d 1d3d 4064 b93d
000002d0: 10f7 ac3d 9814 a6bc 129b adbd d03b b93d
000002e0: 640b 363d 08a0 88bd b482 95bd dc55 ea3d
000002f0: b015 bcbc 44a6 73bd 0459 e43d 804d b93b
00000300: cc17 aa3d ecfe 1d3d 30ac d9bc b4d9 5fbd
00000310: 0099 31bb 6027 443c 10aa c9bd ba5d 9a3d
00000320: 6c5d a3bd 00c6 16bd 78aa 85bc 70d5 3e3c
00000330: d699 b63d d40e 4e3d f2e0 f1bd cab7 983d
00000340: de82 e83d aa9e 91bd e818 f9bc 88ae 5f3d
00000350: 50b4 533c 7c9e 443d b8a7 62bd 92f0 c03d
00000360: 6073 a63d 3855 d5bd 10a1 7d3c 5875 c33d
00000370: 28af d43c 30a8 953c 40dd 5fbc 5858 22bd
00000380: f4e5 103d d0f6 38bc 6ed5 f73d 6a29 90bd
00000390: 509f 4d3c a0db f13c 92c0 f43d 908a fdbc
000003a0: 189c ebbd 9a0b f6bd 32a6 83bd d845 6e3d
000003b0: 0871 a7bc e06f 9b3d ba79 963d c059 183b
000003c0: 78ec f2bc 68c3 c1bc 10cf ab3c d0e4 0c3c
000003d0: b02d 54bd 384c 4cbd a6d9 b73d 68a8 ea3c
000003e0: a87d 243d 1894 31bd fc82 9bbd 201b 29bc
000003f0: a8ea e6bc 5865 543d 08f1 843d 3ef4 e7bd

fc3.bias f4 [4]
0.05916664 -0.014987424 -0.04694435 -0.09014405
00000000: b858 723d d08d 75bc b848 40bd 729d b8bd

fc1.weight f4 [64, 24]
0.009185529 -0.07058429 0.0096729295 0.10328355 -0.17755018 0.031569865 0.02538076 -0.13252622
0.077688456 -0.00075635803 0.08700529 -0.075134434 -0.045017503 0.18081638 0.038776983 -0.087799266
-0.19634716 0.15720311 -0.14986376 0.031759348 0.15295218 -0.017178863 -0.04800137 -0.12642744
-0.012953304 0.10664595 -0.16136824 -0.2003232 0.055641018 -0.16736545 0.059362438 -0.03028812
0.11251655 -0.09244288 -0.15300834 0.19762596 -0.1460296 0.0001896796 -0.001767658 -0.07968015
-0.10445036 0.02288879 0.17752168 -0.18228954 0.15410943 -0.044077206 -0.20036018 0.023514284
0.062533386 0.05635849 -0.11485558 -0.10965848 0.02670786 -0.16436127 -0.097223505 -0.15888175
-0.05861423 -0.04801079 0.036856 0.10288985 -0.18508248 0.18192801 -0.05429596 0.008876129
0.0051030503 -0.12645541 -0.0029362012 -0.023315212 0.19201489 0.042513195 -0.14791644 -0.07023756
0.019489232 -0.02389683 0.14151241 0.041603368 0.16608302 -0.0017198671 0.16701256 0.107251704
0.11376634 -0.18953355 0.122427315 0.036836434 -0.117822446 -0.19171256 0.07084381 -0.17839976
0.0024217912 0.0025170567 -0.103909574 -0.08066658 -0.13573307 0.053573888 0.08048907 -0.10404149
0.14061521 0.16804127 0.041195974 -0.111505836 0.1559407 -0.026834274 -0.13902189 -0.01917056
-0.038265467 -0.17474715 0.07126115 0.040074833 0.15629861 0.03741601 0.03074301 0.11342022
-0.05302838 -0.021092225 -0.15503393 0.08659471 0.11250134 0.1767808 -0.16436456 0.05989354
-0.19733593 -0.18069246 0.17137933 -0.10815837 -0.06557488 0.084350236 0.023267493 0.09281905
-0.10783683 0.15245003 0.19490796 -0.15995781 0.11590102 0.20244154 -0.0044471165 -0.14779304
0.06451834 -0.011278429 0.007863442 -0.19178748 0.14458202 -0.016522394 -0.007145701 0.15550424
0.09381833 -0.19034034 0.10885794 0.111328416 -0.19395967 -0.15340741 -0.15312952 -0.011258062
-0.010247541 0.13289203 0.13160457 -0.00042281882 -0.15500337 -0.09432329 0.013199097 0.08442891
-0.1721074 -0.11147495 0.08519281 -0.15162717 0.17875957 0.09485848 -0.017770192 -0.18813539
0.031606194 -0.018686738 -0.06258709 0.19132003 -0.14725655 0.12780984 -0.18051687 -0.058711104
0.10563112 -0.05202331 0.13530467 0.06226394 -0.2019889 0.061480474 0.1524704 0.05600208
0.14682369 -0.15608633 -0.028170353 -0.0121932225 -0.00077222346 0.112175904 0.18214017 -0.0032129947
-0.13322501 -0.18467405 0.083539106 0.14084704 -0.045531034 -0.11536653 0.020690916 -0.19615084
0.08934807 0.07082675 -0.123994 -0.07416915 0.1739193 -0.0972777 -0.052732337 -0.20223542
0.1829891 -0.16789393 -0.07102451 -0.13041894 0.06005307 -0.19928062 0.07050287 0.14618924
0.0047956696 0.049627434 0.1608173 0.19814636 -0.07020038 0.1906314 0.19566469 -0.1158078
-0.15487503 0.021699443 -0.046618912 0.18025482 0.18462671 -0.04709882 0.13969618 0.06486668
-0.19009934 0.04126878 0.18367572 0.018511415 0.1548094 -0.062424127 -0.028393418 0.1303457
-0.020152465 -0.04355873 0.09219582 0.105246186 -0.0052582007 -0.033928875 0.023723941 -0.16587172
-0.15625761 0.070902504 -0.16333885 0.11240031 0.08298734 0.14008325 0.07492556 0.043104816
00000000: e77e 163c 7f8e 90bd 357b 1e3c 5386 d33d
00000010: b7cf 35be 674f 013d 50eb cf3c f4b4 07be
00000020: 201b 9f3d 5446 46ba d42f b23d 15e0 99bd
00000030: 4664 38bd ee27 393e 9dd4 1e3d 1ad0 b3bd
00000040: 3b0f 49be daf9 203e e375 19be 1716 023d
00000050: 7f9f 1c3e b0ba 8cbc 169d 44bd 3276 01be
00000060: 183a 54bc 3169 da3d b73d 25be 8621 4dbe
00000070: d6e7 633d d961 2bbe 0726 733d cb1e f8bc
00000080: 146f e63d b152 bdbd 38ae 1cbe 765e 4a3e
00000090: c988 15be bbe4 4639 c3b0 e7ba 592f a3bd
000000a0: 12ea d5bd 4681 bb3c 3ec8 353e 1caa 3abe
000000b0: ddce 1d3e 4d8a 34bd 382b 4dbe 07a1 c03c
000000c0: 8111 803d 29d8 663d 6739 ebbd a094 e0bd
000000d0: 71ca da3c 524e 28be 1e1d c7bd e6b1 22be
000000e0: 7a15 70bd f6a6 44bd 51f6 163d eab7 d23d
000000f0: 4386 3dbe 564b 3a3e 7165 5ebd 2f6d 113c
00000100: 7d37 a73b 877d 01be 486d 40bb 8bff bebc
00000110: 8d9f 443e 5122 2e3d 6877 17be b6d8 8fbd
00000120: e2a7 9f3c 49c3 c3bc a1e8 103e 4b68 2a3d
00000130: ab11 2a3e 2a6d e1ba 5705 2b3e c8a6 db3d
00000140: 54fe e83d 1515 42be 2cbb fa3d cde1 163d
00000150: e54c f1bd 4c50 44be 8f16 913d 6dae 36be
00000160: eab6 1e3b 34f5 243b 8bce d4bd 8534 a5bd
00000170: 9cfd 0abe 4b70 5b3d 74d7 a43d b413 d5bd
00000180: 6ffd 0f3e 0313 2c3e 1cbd 283d 2c5d e4bd
00000190: ebae 1f3e 8dd3 dbbc c15b 0ebe 940b 9dbc
000001a0: 40bc 1cbd ebf0 32be 5ef1 913d 8225 243d
000001b0: be0c 203e 8841 193d c4d8 fb3c dc48 e83d
000001c0: 4934 59bd 9ac9 acbc 37c1 1ebe 9158 b13d
000001d0: 1a67 e63d 0706 353e 2f4f 28be ee52 753d
000001e0: 6e12 4abe 7207 39be 107e 2f3e 2382 ddbd
000001f0: 1f4c 86bd d1bf ac3d 789b be3c ea17 be3d
00000200: 8ed9 dcbd dc1b 1c3e f495 473e fbcb 23be
00000210: 845d ed3d d64c 4f3e 1eb9 91bb 0f57 17be
00000220: 3122 843d 29c9 38bc abd5 003c f063 44be
00000230: 4f0d 143e f959 87bc 7c26 eabb 813c 1f3e
00000240: d323 c03d 94e8 42be e9f0 de3d 2700 e43d
00000250: 5d9d 46be d516 1dbe fccd 1cbe bc73 38bc
00000260: 4de5 27bc d914 083e 59c3 063e c8ad ddb9
00000270: 34b9 1ebe 922c c1bd 0641 583c 10e9 ac3d
00000280: ec3c 30be fb4c e4bd 9179 ae3d 2744 1bbe
00000290: c00c 373e 2a45 c23d cb92 91bc 90a6 40be
000002a0: 7f75 013d ee14 99bc a92d 80bd 66e9 433e
000002b0: 6cca 16be 95e0 023e 6ad9 38be 0e7b 70bd
000002c0: 2155 d83d 6516 55bd 4f8d 0a3e 7908 7f3d
000002d0: 2ed6 4ebe f3d2 7b3d 3321 1c3e 7062 653d
000002e0: f358 163e 18d5 1fbe 83c5 e6bc 15c6 47bc
000002f0: 0a6f 4aba 7bbc e53d f482 3a3e 1b91 52bb
00000300: 236c 08be 321b 3dbe 8d16 ab3d 353a 103e
00000310: c07e 3abd 4a45 ecbd ff7f a93c c4db 48be
00000320: 1ffc b63d 9d0d 913d 91f0 fdbd ffe5 97bd
00000330: e717 323e 8839 c7bd ddfd 57bd cd16 4fbe
00000340: 7f61 3b3e 63ec 2bbe 4c75 91bd 8b8c 05be
00000350: 35fa 753d 3810 4cbe cf63 903d a2b2 153e
00000360: fe24 9d3b 2346 4b3d 4aad 243e e1e6 4a3e
00000370: 38c5 8fbd e134 433e 535c 483e a42c edbd
00000380: 8f97 1ebe 08c3 b13c 79f3 3ebd b894 383e
00000390: c90e 3d3e b1ea 40bd 840c 0f3e d2d8 843d
000003a0: 67a9 42be 7409 293d 7d15 3c3e 40a5 973c
000003b0: 5b86 1e3e 71b0 7fbd 5099 e8bc 5879 053e
000003c0: c816 a5bc a46a 32bd 29d1 bc3d 508b d73d
000003d0: fc4c acbb 01f9 0abd b658 c23c 47da 29be
000003e0: ff01 20be 5535 913d 4d42 27be 2232 e63d
000003f0: 44f5 a93d fc71 0f3e 9272 993d ad8e 303d

fc1.bias f4 [64]
0.13681813 -0.02141861 -0.057156656 0.08257109 0.04931998 -0.036664713 0.045692246 0.067565285
-0.03310022 -0.01644095 0.07096494 0.061558586 -0.13827881 -0.06849439 0.029021367 -0.203624
-0.14488687 0.14986686 -0.15612166 -0.18554415 -0.04415269 0.12703739 -0.15556428 0.037115246
0.032625377 -0.07685136 0.20073007 -0.18738453 -0.1302773 -0.04744557 -0.17760675 -0.12733674
0.05301548 -0.019694826 -0.11238641 0.054676294 0.14576511 0.05237201 0.18212925 0.03794283
-0.021409241 0.18478465 0.048440665 -0.18314949 -0.005567893 -0.17066497 -0.018774606 -0.041095454
0.0017835966 0.10406752 -0.09628114 0.040936362 0.17273003 0.15011647 -0.1473279 -0.091131836
0.12545542 -0.143644 0.20330511 -0.114093356 -0.08033297 -0.15816915 0.056581873 -0.17744282
00000000: 0d1a 0c3e 1576 afbc 191d 6abd 081b a93d
00000010: bf03 4a3d bd2d 16bd cb27 3b3d ab5f 8a3d
00000020: 1994 07bd 2caf 86bc 1156 913d db24 7c3d
00000030: f698 0dbe c946 8cbd 38be ed3c cf82 50be
00000040: 395d 14be b376 193e 5bde 1fbe 49ff 3dbe
00000050: 73d9 34bd 1716 023e 3e4c 1fbe 2806 183d
00000060: 30a2 053d 3f64 9dbd 2f8c 4d3e bbe1 3fbe
00000070: 6a67 05be 4956 42bd 8bde 35be 9064 02be
00000080: c326 593d 0b57 a1bc d92a e6bd 40f4 5f3d
00000090: 7343 153e 0884 563d 1780 3a3e f169 1b3d
000000a0: 6f62 afbc 3038 3d3e b869 463d 8a8b 3bbe
000000b0: df72 b6bb ccc2 2ebe 34cd 99bc b553 28bd
000000c0: 92c7 e93a 5a21 d53d 0c2f c5bd e3ac 273d
000000d0: 24e0 303e 22b8 193e 20dd 16be 54a3 babd
000000e0: 6377 003e 6a17 13be 372f 503e c7a9 e9bd
000000f0: 9d85 a4bd 18f7 21be 65c2 673d 92b3 35be

fc2.weight f4 [64, 64]
-0.084277496 0.06389551 -0.101930454 0.082298905 -0.00500682 -0.059602708 -0.0366161 -0.0051011294
-0.066309676 0.08456859 -0.055499136 -0.09546819 -0.0033222884 -0.038339168 0.0065509975 0.021940738
-0.045669377 -0.12015499 0.04531151 0.10632944 0.041923955 0.10920836 -0.0051053464 -0.07662569
-0.06367105 0.07024443 0.035965353 -0.05688028 -0.013246313 -0.063212946 0.015408084 -0.04931733
0.002900973 0.08044161 0.066738725 -0.011789709 -0.010121092 0.09500487 0.07385138 0.05460313
0.08100274 -0.009246662 -0.024080008 0.03675559 0.082247525 0.09178859 -0.01646258 0.032375723
-0.10013357 -0.10346486 0.021042123 -0.029277116 0.01266253 -0.054861993 -0.08632642 -0.009716347
-0.1021062 0.047697574 0.059305355 0.11605126 0.11379787 0.039632127 0.054200366 0.024232179
0.031611815 -0.06004241 0.09123981 -0.05218178 0.040034175 0.060836256 0.017487496 0.0069337487
-0.120039016 -0.09887208 0.0117057115 -0.03943807 0.10934886 -0.0044482946 0.093048826 -0.055092826
0.070945576 0.0142760575 0.111833066 0.063101515 -0.09815052 -0.067869395 0.051966593 -0.07200976
0.06469439 0.12058936 0.039717525 -0.0050936043 0.07070461 0.046750113 -0.012458354 0.06620507
-0.0035214722 0.10669507 0.031281322 -0.11897379 -0.02558355 -0.016564667 0.00043784082 -0.11286798
-0.09999278 -0.07025683 -0.053145394 -0.049608573 -0.11283724 -0.05263579 0.11931929 0.04654914
0.1010153 -0.0012167692 0.0663522 0.12075043 0.10897246 0.12179379 0.044270545 0.07212831
-0.10072574 -0.02027893 -0.09529659 0.046927825 0.06494488 0.06561485 -0.00038658082 0.09446156
0.06635901 -0.03862232 0.101331964 -0.03578198 0.11889233 0.08837992 -0.020881653 0.12490119
-0.023330748 0.012809426 -0.09523916 0.020696044 -0.02925682 -0.040000826 -0.10786559 0.12456803
-0.01798375 -0.0966607 -0.03450516 -0.004003376 -0.041426256 -0.12056047 0.01497829 -0.0055381507
0.10680443 0.07972829 0.07425837 0.119098276 0.120118275 -0.057900205 0.033605903 0.08345291
0.07820447 -0.045608252 0.108894974 -0.023388982 -0.041783363 0.11391683 -0.00030210614 -0.10888031
0.060295865 0.023196027 -0.061774135 0.07838029 0.11885291 -0.0016669333 -0.040312096 0.077226415
0.0007651001 0.04854022 0.08142622 0.06852022 0.028092563 0.04306577 0.11358845 0.07982604
0.072390646 -0.08353196 -0.043352023 -0.014253646 -0.12431155 0.08861615 0.09552316 -0.088707194
-0.06543994 -0.0027540326 -0.0626283 0.027483076 -0.07347782 0.023679033 0.022969395 -0.008125231
0.0020755827 0.013139486 0.0407158 -0.10761076 -0.020248786 0.06348018 0.11184949 -0.00487189
0.044008434 0.010308474 0.12279126 0.079639554 0.07130222 -0.0651623 0.0081449 0.090050116
0.07196708 0.08393474 -0.08724043 -0.021088019 -0.11965679 -0.09448993 -0.07695606 0.05345702
-0.012180045 0.04673043 -0.07717183 0.0367437 -0.111594364 0.10954322 -0.0884887 0.11470628
0.11181305 -0.06539868 -0.010579854 -0.12284748 -0.11029312 0.0071285367 0.10713193 -0.038987637
0.0121034235 0.015434891 0.07562347 -0.033470944 -0.020603955 0.08416264 0.11384636 -0.08795555
-0.11734788 -0.09533639 0.100572705 -0.0363573 -0.12044206 -0.016356662 0.034431085 -0.11225094
00000000: ae99 acbd a6db 823d eac0 d0bd 548c a83d
00000010: 4010 a4bb f821 74bd c4fa 15bd 6027 a7bb
00000020: 5ecd 87bd 4c32 ad3d 1053 63bd d484 c3bd
00000030: c0ba 59bb 8809 1dbd c0a9 d63b 10bd b33c
00000040: d00f 3bbd d213 f6bd 9098 393d 40c3 d93d
00000050: 74b8 2b3d a2a8 df3d c04a a7bb eeed 9cbd
00000060: f865 82bd 50dc 8f3d 6850 133d 4cfb 68bd
00000070: 1007 59bc ca75 81bd 3072 7c3c f800 4abd
00000080: 401e 3e3b 92be a43d 50ae 883d a029 41bc
00000090: f0d2 25bc ea91 c23d 643f 973d 88a7 5f3d
000000a0: c4e4 a53d 507f 17bc 7043 c5bc 088d 163d
000000b0: 6471 a83d a8fb bb3d 88dc 86bc 689c 043d
000000c0: d412 cdbd 62e5 d3bd 8860 ac3c 90d6 efbc
000000d0: 8076 4f3c f8b6 60bd e8cb b0bd 5031 1fbc
000000e0: 0e1d d1bd 885e 433d 2cea 723d 48ac ed3d
000000f0: dc0e e93d 4c55 223d 3401 5e3d 9082 c63c
00000100: 647b 013d 08ef 75bd f0db ba3d 90bc 55bd
00000110: e0fa 233d 702f 793d f041 8f3c 8034 e33b
00000120: 04d7 f5bd 727d cabd 50c9 3f3c d089 21bd
00000130: 4cf2 df3d 00c3 91bb 6290 be3d 04a9 61bd
00000140: ea4b 913d 20e6 693c bc08 e53d 5e3b 813d
00000150: 2403 c9bd 1cff 8abd ecda 543d da79 93bd
00000160: 7e7e 843d 8ef7 f63d d8ae 223d 40e8 a6bb
00000170: 94cd 903d 0c7d 3f3d 201e 4cbc 8696 873d
00000180: 80c8 66bb f282 da3d d820 003d 88a8 f3bd
00000190: 9894 d1bc a0b2 87bc 008e e539 5427 e7bd
000001a0: 04c9 ccbd d0e2 8fbd fcae 59bd 5c32 4bbd
000001b0: 3617 e7bd a098 57bd ac5d f43d 50aa 3e3d
000001c0: 1ce1 ce3d 007c 9fba aae3 873d 004c f73d
000001d0: f42c df3d 066f f93d 0855 353d 02b8 933d
000001e0: 4c49 cebd 0020 a6bc dc2a c3bd 6437 403d
000001f0: d201 853d 1461 863d 00ae cab9 1075 c13d
00000200: 3ce7 873d 7032 1ebd 2287 cf3d 2090 12bd
00000210: d27d f33d 8800 b53d 0010 abbc 32cc ff3d
00000220: 2020 bfbc a0de 513c c00c c3bd c08a a93c
00000230: 00ac efbc e8d7 23bd a2e8 dcbd 861d ff3d
00000240: a852 93bc 0cf6 c5bd 4855 0dbd c02e 83bb
00000250: 94ae 29bd 68e8 f6bd 8067 753c 6079 b5bb
00000260: 48bc da3d 9648 a33d c614 983d cce9 f33d
00000270: 9200 f63d c428 6dbd 58a6 093d 5ce9 aa3d
00000280: aa29 a03d b8cf 3abd 5404 df3d 409a bfbc
00000290: 0825 2bbd 3a4d e93d 0064 9eb9 a4fc debd
000002a0: ccf8 763d 9805 be3c e006 7dbd d885 a03d
000002b0: 2869 f33d 007d daba 4c1e 25bd e228 9e3d
000002c0: 0091 483a 1cd2 463d cac2 a63d 5454 8c3d
000002d0: 6022 e63c bc65 303d 10a1 e83d d67b a33d
000002e0: 8c41 943d ce12 abbd e491 31bd 2088 69bc
000002f0: 0e97 febd 627c b53d a6a1 c33d 1eac b5bd
00000300: 6005 86bd 007d 34bb 4443 80bd 3024 e13c
00000310: 8a7b 96bd 88fa c13c 502a bc3c b01f 05bc
00000320: 8006 083b 0047 573c 9cc5 263d 0863 dcbd
00000330: c8e0 a5bc e601 823d 5811 e53d 60a4 9fbb
00000340: 3042 343d e0e4 283c fc79 fb3d 101a a33d
00000350: e606 923d d073 85bd 3072 053c 326c b83d
00000360: 7a63 933d fae5 ab3d 1cab b2bd c8c0 acbc
00000370: 9e0e f5bd f083 c1bd 249b 9dbd c0f5 5a3d
00000380: d08e 47bc 6868 3f3d 440c 9ebd 9080 163d
00000390: 968b e4bd 3258 e03d 9039 b5bd 20eb ea3d
000003a0: 3efe e43d beef 85bd 2057 2dbc 7697 fbbd
000003b0: 5ce1 e1bd 8096 e93b fc67 db3d 80b1 1fbd
000003c0: 704d 463c a0e2 7c3c 7ae0 9a3d d418 09bd
000003d0: a0c9 a8bc 765d ac3d 4828 e93d 0a22 b4bd
000003e0: 1654 f0bd ba3f c3bd 10f9 cd3d 64eb 14bd
000003f0: 54aa f6bd 68fe 85bc 9c07 0d3d d2e3 e5bd

fc2.bias f4 [64]
-0.06275992 -0.06013243 -0.010498047 0.10858759 0.032229006 -0.08874887 0.085183874 -0.083222404
0.041479602 -0.073986456 0.023027346 -0.009067789 -0.10705759 0.1161965 -0.021611795 -0.0367184
0.03828451 0.08907084 0.08191784 0.090788916 -0.07003477 -0.006132275 0.06568505 -0.03358771
-0.061000302 0.08175418 -0.11194213 -0.054094464 -0.09792489 -0.08343582 0.056114882 0.09878938
0.10551797 0.07590513 0.08381443 -0.050126642 0.039535582 0.095882535 0.034976885 0.044521064
0.040115073 -0.11581276 0.00053167343 0.06475137 0.002332747 -0.07044648 0.12091303 0.11039698
-0.11396447 0.09270649 -0.03755094 -0.08309828 0.048927695 -0.07765797 0.057422087 0.12418501
-0.05877635 0.09837103 0.053145587 0.10821332 -0.053922027 0.06364493 0.09798995 0.001337558
00000000: 4688 80bd 6c4d 76bd 0000 2cbc 2c63 de3d
00000010: 9002 043d f8c1 b5bd e274 ae3d 8270 aabd
00000020: 84e6 293d 3686 97bd d8a3 bc3c 1091 14bc
00000030: 0241 dbbd 6ef8 ed3d 380b b1bc 0866 16bd
00000040: 38d0 1c3d c66a b63d 8ac4 a73d 8aef b93d
00000050: 646e 8fbd 40f1 c8bb e285 863d 4493 09bd
00000060: 74db 79bd bc6e a73d ea41 e5bd 2892 5dbd
00000070: d88c c8bd 66e0 aabd b8d8 653d 1652 ca3d
00000080: ce19 d83d 2674 9b3d e6a6 ab3d 9851 4dbd
00000090: 10f0 213d 105e c43d ec43 0f3d b85b 363d
000000a0: b44f 243d 3e2f edbd 0060 0b3a 5e9c 843d
000000b0: 00e1 183b 3e46 90bd 40a1 f73d d017 e23d
000000c0: 3466 e9bd e6dc bd3d 04cf 19bd 6e2f aabd
000000d0: 6868 483d 240b 9fbd 6c33 6b3d b654 fe3d
000000e0: 78bf 70bd c076 c93d 30af 593d f29e dd3d
000000f0: 58dd 5cbd 4658 823d f4ae c83d 0051 af3a

fc3.weight f4 [4, 64]
-0.012244567 -0.061800674 -0.11866963 0.06023185 -0.10282977 0.020034522 -0.1189127 -0.03372459
-0.014705405 -0.040598124 -0.11913392 -0.1220077 0.09907955 -0.02380453 -0.02721414 -0.07407193
-0.062391892 -0.05924365 -0.054461896 -0.08436929 0.014273256 -0.0242901 0.060198665 0.07090992
0.06500086 0.058293685 -0.11761841 0.08200692 0.010551199 0.02679506 -0.094254345 0.030183122
0.027907372 -0.08628924 -0.09384632 0.10179107 0.12225443 -0.08745697 0.08137345 -0.078870416
-0.029283807 -0.0101938695 0.014455482 0.025347129 0.0042033643 0.113190085 0.07106528 -0.076803684
-0.03295344 0.010649353 -0.089239165 0.007446021 0.0096963495 0.060903743 -0.10955188 0.009417772
-0.0108870715 0.074187785 -0.012239903 0.037827283 0.021080732 0.06796144 -0.05968474 -0.014501587
-0.018095285 -0.08295946 0.055970892 0.12252097 0.10542117 -0.04613939 -0.031187713 0.09664117
0.11980879 0.09460442 0.056771383 0.040643513 0.07703318 -0.0044270456 0.06159556 -0.122782186
-0.11561659 -0.116118535 0.07641631 -0.005737886 -0.03175299 -0.032009214 -0.041858763 -0.10951057
-0.05579029 -0.05450459 -0.116263926 0.099085584 -0.11124572 0.058031425 -0.07807763 0.006887257
0.0099283755 -0.07177785 0.045643434 0.045813233 0.08111139 0.07029019 -0.094868585 -0.013416097
0.087459534 -0.039384604 -0.016559273 0.09551707 0.09877926 0.10032551 0.051085666 -0.07302718
0.012048766 -0.06645717 -0.023835614 -0.05033502 0.025514007 -0.10816628 0.0004117787 0.08395842
0.007981241 0.093631014 -0.023870498 -0.0032370985 0.0938922 -0.020206228 -0.09197937 0.074864596
-0.0009673685 0.00066138804 0.04944159 -0.032419205 -0.030872896 0.05898641 0.05028011 0.0942553
0.108750835 0.06461665 -0.0670436 0.0716206 0.09971763 0.0876181 -0.0946289 0.041254982
0.012777254 0.10834618 0.056444302 0.018117204 -0.075334504 0.097645 -0.0141534805 -0.036784872
-0.04443346 -0.065937296 -0.115434065 0.06784952 0.08895101 0.0194595 -0.019795641 0.0104908645
-0.001260668 0.054392785 0.071495295 -0.086345226 -0.036218807 0.03616616 -0.042092025 -0.08692068
0.08744185 0.12301552 -0.06293008 -0.07649176 0.0047160536 0.050153688 -0.07050483 0.023723409
0.052706555 -0.10101293 0.038419083 0.09052324 0.08445561 -0.020273492 -0.08476843 0.090446115
0.044444457 -0.066711485 -0.0730032 0.114421576 -0.02295956 -0.059484735 0.11149791 0.0056549907
0.0830532 0.03857319 -0.026571363 -0.054650977 -0.0027099252 0.011972278 -0.0984689 0.07537408
-0.07976803 -0.03680992 -0.016316637 0.011647567 0.089160606 0.05030711 -0.11810483 0.0745693
0.11353086 -0.07110341 -0.030407384 0.054609805 0.012921408 0.048002705 -0.05533573 0.09420885
0.08127475 -0.10416645 0.015480295 0.09543866 0.025962427 0.018268675 -0.01366359 -0.039635032
0.03537555 -0.011289313 0.12101255 -0.07039149 0.01255019 0.02952367 0.11950792 -0.03094986
-0.11504382 -0.120139316 -0.064281836 0.058172077 -0.02043964 0.07589698 0.07347436 0.0023246855
-0.029653773 -0.023652747 0.020972759 0.008599475 -0.051801383 -0.049877375 0.0897706 0.028644755
0.040158898 -0.043354124 -0.07593343 -0.0103214085 -0.028188065 0.05185446 0.064912856 -0.113258824
00000000: 709d 48bc b422 7dbd 1009 f3bd acb5 763d
00000010: 6a98 d2bd 701f a43c 8088 f3bd cc22 0abd
00000020: f0ee 70bc 384a 26bd 7cfc f3bd 2cdf f9bd
00000030: 38ea ca3d b801 c3bc 30f0 debc 06b3 97bd
00000040: a48e 7fbd 78a9 72bd 7013 5fbd cec9 acbd
00000050: 60da 693c 08fc c6bc e092 763d 3839 913d
00000060: 2c1f 853d 5cc5 6e3d ece1 f0bd 3ef3 a73d
00000070: f0de 2c3c 5081 db3c 6c08 c1bd 9842 f73c
00000080: 009e e43c 6ab8 b0bd 8032 c0bd d677 d03d
00000090: 8860 fa3d a41c b3bd 20a7 a63d d086 a1bd
000000a0: 98e4 efbc 3004 27bc b0d6 6c3c c8a4 cf3c
000000b0: 60bc 893b 34d0 e73d ac8a 913d 404b 9dbd
000000c0: 30fa 06bd a07a 2e3c 06c3 b6bd c0fd f33b
000000d0: 70dd 1e3c 3476 793d bc5c e0bd 004d 1a3c
000000e0: b05f 32bc c4ef 973d e089 48bc c8f0 1a3d
000000f0: 80b1 ac3c 5e2f 8b3d fc77 74bd 1098 6dbc
00000100: 903c 94bc a6e6 a9bd bc41 653d 46ec fa3d
00000110: 0ee7 d73d a8fc 3cbd 607d ffbc ceeb c53d
00000120: 505e f53d f6bf c13d 1c89 683d d079 263d
00000130: 92c3 9d3d c010 91bb a04b 7c3d 3a75 fbbd
00000140: 64c8 ecbd 8ecf edbd 2880 9c3d e004 bcbb
00000150: 6c0f 02bd 181c 03bd 1874 2bbd 1447 e0bd
00000160: 5c84 64bd 3440 5fbd c81b eebd 62ed ca3d
00000170: ccd4 e3bd 5cb2 6d3d 2ae7 9fbd 80ae e13b
00000180: a0aa 223c 4400 93bd 9cf4 3a3d a8a6 3b3d
00000190: ba1d a63d 4ef4 8f3d 764a c2bd 30cf 5bbc
000001a0: fc1d b33d c051 21bd 50a7 87bc 749e c33d
000001b0: c84c ca3d 7677 cd3d 343f 513d 468f 95bd
000001c0: 3068 453c b21a 88bd e842 c3bc 182c 4ebd
000001d0: c002 d13c 4886 ddbd 00e4 d739 64f2 ab3d
000001e0: c0c3 023c 9ec1 bf3d 108c c3bc 8025 54bb
000001f0: 8e4a c03d 8887 a5bc ae5f bcbd 9c52 993d
00000200: 0097 7dba 0061 2d3a 4483 4a3d 00ca 04bd
00000210: 28e9 fcbc bc9b 713d 84f2 4d3d ec08 c13d
00000220: c2b8 de3d bc55 843d 284e 89bd d2ad 923d
00000230: c238 cc3d 1e71 b33d cccc c1bd fcfa 283d
00000240: b057 513c 9ae4 dd3d 2432 673d 886a 943c
00000250: fa48 9abd 1afa c73d 00e4 67bc bcab 16bd
00000260: dcff 35bd 220a 87bd b268 ecbd b0f4 8a3d
00000270: f22b b63d 8869 9f3c 782a a2bc e0e1 2b3c
00000280: 003d a5ba f8ca 5e3d 206c 923d c4d5 b0bd
00000290: 2c5a 14bd f822 143d b068 2cbd 7803 b2bd
000002a0: b614 b33d 90ef fb3d 7ce1 80bd b6a7 9cbd
000002b0: 2089 9a3b f46d 4d3d d664 90bd 9857 c23c
000002c0: d4e2 573d dedf cebd 545d 1d3d 4064 b93d
000002d0: 10f7 ac3d 9814 a6bc 129b adbd d03b b93d
000002e0: 640b 363d 08a0 88bd b482 95bd dc55 ea3d
000002f0: b015 bcbc 44a6 73bd 0459 e43d 804d b93b
00000300: cc17 aa3d ecfe 1d3d 30ac d9bc b4d9 5fbd
00000310: 0099 31bb 6027 443c 10aa c9bd ba5d 9a3d
00000320: 6c5d a3bd 00c6 16bd 78aa 85bc 70d5 3e3c
00000330: d699 b63d d40e 4e3d f2e0 f1bd cab7 983d
00000340: de82 e83d aa9e 91bd e818 f9bc 88ae 5f3d
00000350: 50b4 533c 7c9e 443d b8a7 62bd 92f0 c03d
00000360: 6073 a63d 3855 d5bd 10a1 7d3c 5875 c33d
00000370: 28af d43c 30a8 953c 40dd 5fbc 5858 22bd
00000380: f4e5 103d d0f6 38bc 6ed5 f73d 6a29 90bd
00000390: 509f 4d3c a0db f13c 92c0 f43d 908a fdbc
000003a0: 189c ebbd 9a0b f6bd 32a6 83bd d845 6e3d
000003b0: 0871 a7bc e06f 9b3d ba79 963d c059 183b
000003c0: 78ec f2bc 68c3 c1bc 10cf ab3c d0e4 0c3c
000003d0: b02d 54bd 384c 4cbd a6d9 b73d 68a8 ea3c
000003e0: a87d 243d 1894 31bd fc82 9bbd 201b 29bc
000003f0: a8ea e6bc 5865 543d 08f1 843d 3ef4 e7bd

fc3.bias f4 [4]
0.05916664 -0.014987424 -0.04694435 -0.09014405
00000000: b858 723d d08d 75bc b848 40bd 729d b8bd
