models/sess1-max3-sm0.pth (torch, 53245 bytes, 12 tensors)

fc1.weight f4 [64, 24]
0	0xbe11bca8	-0.14232123
1	0x3de2d85a	0.11076422
2	0x3e349c8d	0.17637844
3	0xbd5647ca	-0.052314557
4	0xbe21b518	-0.15791738
5	0xbdd5a5e5	-0.104320325
6	0x3e48f0d0	0.19623113
7	0x3d6f0d64	0.05836238
8	0x3deb49b8	0.1148867
9	0xbc716a29	-0.014734783
10	0x3e2f41b4	0.17114908
11	0x3e103458	0.14082468
12	0x3e221eb7	0.1583203
13	0xbd2014d5	-0.039082367
14	0xbe0e40b0	-0.13891864
15	0x3da8ff49	0.08251817
16	0xbe1680ad	-0.14697523
17	0x3db54780	0.08851528
18	0x3c41564a	0.011800358
19	0xbe42b6be	-0.19015023
20	0x3dbde9e8	0.0927313
21	0xbe107785	-0.14108093
22	0x3e1d2423	0.15345816
23	0xbd9adfb6	-0.07562201
24	0x3e30b941	0.17258169
25	0x3d580e04	0.05274774
26	0x3d817df4	0.06322852
27	0x3d8d47fe	0.06898497
28	0x3d88b63c	0.066753834
29	0x3de9719f	0.11398625
30	0x3cce9f4e	0.025222447
31	0x3e019a30	0.12656474
32	0x3e4245ad	0.18971892
33	0x3c9f41d2	0.019440565
34	0xbd5071c7	-0.050889757
35	0x3cc6ffb9	0.02429186
36	0x3dcf76a8	0.10130054
37	0x3e50723d	0.20356078
38	0xbdcc25ba	-0.09968133
39	0xbc5afa69	-0.0133653665
40	0xbb701f95	-0.0036639918
41	0xbd1afbb7	-0.03783771
42	0x3cf515d8	0.029917642
43	0xbda0808c	-0.07837018
44	0xbd9dfd33	-0.077143095
45	0xbd2c8b4b	-0.042125028
46	0xbcf089e1	-0.02936262
47	0xbd44a5f7	-0.04800984
48	0xbd1dab14	-0.03849323
49	0x3da4d9b9	0.0804934
50	0xbd21410c	-0.039368674
51	0x3e2a9651	0.16658904
52	0x3e0ab104	0.13544089
53	0x3e37913f	0.179265
54	0xbe26fceb	-0.16307418
55	0x3dca6279	0.098820634
56	0x3e0808de	0.13284633
57	0x3dfde5c9	0.12397344
58	0xbd3d64e5	-0.0462388
59	0xbe3553cf	-0.17707752
60	0xbe4f9fcc	-0.20275801
61	0x3e0c06f5	0.13674529
62	0x3e3e1d16	0.18565783
63	0xbe1f2466	-0.15541229
64	0x3dc2649a	0.094918445
65	0x3de3335e	0.11093782
66	0x3c14af08	0.009074934
67	0x3c706d5a	0.014674509
68	0xbdb167c6	-0.08662371
69	0x3e477e40	0.19481754
70	0xbd38610f	-0.045014437
71	0xbdf997b2	-0.12187137
72	0xbe080213	-0.13282041
73	0xbb8983a9	-0.0041966033
74	0x3c9543a2	0.018220726
75	0x3e40f0bd	0.18841834
76	0xbdab30f2	-0.08358945
77	0x3b1e4dfe	0.0024155374
78	0x3dde5f20	0.108579874
79	0x3cca1744	0.024669297
80	0xbc81965c	-0.015818767
81	0xbdd400b5	-0.10351697
82	0xbd8a63ea	-0.06757338
83	0x3e197d9e	0.14989325
84	0x3db34873	0.08754053
85	0x3d8e18f1	0.06938351
86	0xbdf481e5	-0.11938838
87	0xbe41d2c3	-0.18928055
88	0xbe0fe916	-0.14053759
89	0x3e216b23	0.15763526
90	0xbd5688e8	-0.052376658
91	0xbe46c2f2	-0.19410303
92	0xbe0e2050	-0.13879514
93	0xbe423c50	-0.1896832
94	0x3d2dbee8	0.04241839
95	0xbe039a79	-0.12851895
96	0xbe18fadd	-0.14939447
97	0xbb57f840	-0.0032954365
98	0x3e44ba3f	0.19211672
99	0x3e3c2332	0.18372801
100	0x3e021782	0.1270428
101	0x3d51dbcb	0.051235
102	0x3e2d7228	0.16938078
103	0xbdfb7afc	-0.12279317
104	0x3d137214	0.035997465
105	0x3e34bda3	0.17650466
106	0xbdcfc079	-0.10144133
107	0x3d9bb4f5	0.07602874
108	0x3e0d525d	0.1380095
109	0xbe2a32c9	-0.16620935
110	0xbd9d14d7	-0.076699905
111	0x3de910e1	0.113801725
112	0xbda99398	-0.082801044
113	0x3e2e7a98	0.17038953
114	0xbd316740	-0.043311357
115	0xbdd2595b	-0.102709495
116	0xbe1588d6	-0.1460298
117	0xbdf1a1a8	-0.117984116
118	0xbe133bc3	-0.14378266
119	0xbdc19c51	-0.09453643
120	0x3d9cb7bf	0.07652234
121	0xbe2b65be	-0.1673803
122	0xbdaa6089	-0.08319194
123	0xbd9cb70f	-0.07652103
124	0x3e081746	0.13290128
125	0x3df00c65	0.11721114
126	0xbd9854f3	-0.07438078
127	0xbe4187a1	-0.18899395
128	0x3e02ed14	0.1278575
129	0x3e132a8b	0.14371698
130	0xbe298987	-0.16556369
131	0x3cd38a58	0.025822803
132	0x3d965029	0.07339508
133	0xbdff93c9	-0.1247936
134	0x3e294fe7	0.16534387
135	0x3ddf631e	0.10907577
136	0xbe26ba71	-0.16282059
137	0x3e3765df	0.17909954
138	0x3e2fd717	0.17171894
139	0x3e2e640d	0.17030354
140	0x3d05a8cc	0.03263168
141	0xbd78debf	-0.060759302
142	0xbe19a1c6	-0.15003118
143	0x3d9adc06	0.075614974
144	0x3e22b939	0.1589097
145	0xbd68a6fd	-0.056799877
146	0xbdc34421	-0.09534479
147	0x3e192dae	0.14958832
148	0xbdeea96c	-0.116534084
149	0xbe28e284	-0.16492659
150	0xbb98aba7	-0.0046591344
151	0x3dd1ac97	0.10237997
152	0x3da99dd7	0.08282059
153	0xbe288fb8	-0.16461074
154	0x3ceef7f5	0.02917097
155	0x3da1cb72	0.07900132
156	0x3e4c2397	0.19935451
157	0xbcc10687	-0.023562683
158	0x3de4b761	0.11167789
159	0xbd814014	-0.0631105
160	0x3e142af0	0.14469504
161	0x3e404bdd	0.1877894
162	0xbe2026d1	-0.15639807
163	0xbe1c285a	-0.15249768
164	0xbdcf2705	-0.10114864
165	0x3dd4cae1	0.103902586
166	0xbdd89ed1	-0.10577167
167	0xbe3a5223	-0.18195395
168	0x3ce77e24	0.02825839
169	0x3d219f40	0.039458513
170	0xbb2a838b	-0.0026018347
171	0xbd360ca2	-0.04444564
172	0xbe0ddc90	-0.13853669
173	0xbdb60ab4	-0.0888876
174	0x3d898932	0.06715621
175	0xbda09741	-0.078413494
176	0x3e266e72	0.16253069
177	0x3db4529a	0.088048175
178	0x3e0f7a4c	0.14011496
179	0xbcd9ed05	-0.026602278
180	0xbd8e9a3d	-0.06963012
181	0xbe051610	-0.12996697
182	0x3e323c58	0.17405832
183	0xbd5757af	-0.052573856
184	0x3d5ca73a	0.053870417
185	0x3e3900ff	0.18066786
186	0x3d36459c	0.04449998
187	0x3e49ce06	0.19707498
188	0x3e210a25	0.15726526
189	0x3e1a06eb	0.15041701
190	0x3e425bf2	0.18980387
191	0x3dc19060	0.094513655
192	0x3d829c74	0.06377497
193	0x3e0ebefd	0.13940044
194	0xbe43be44	-0.1911555
195	0xbc9228c6	-0.017841708
196	0x3dcc9c5d	0.099907614
197	0xbdf4c93f	-0.11952447
198	0x3e33092b	0.17483966
199	0x3e4a5a6e	0.19761059
200	0xbe04d5eb	-0.12972228
201	0xbc5aac07	-0.013346679
202	0xbe4066a9	-0.18789162
203	0x3dd3223a	0.103092626
204	0xbd4b09a3	-0.049569737
205	0xbe31a022	-0.17346242
206	0xbe46fa97	-0.1943153
207	0xbe1df6ac	-0.15426129
208	0x3e3ed6b8	0.18636596
209	0xbdbe1498	-0.09281272
210	0x3ac7331d	0.0015197728
211	0x3d7c458a	0.061589755
212	0xbe0a4327	-0.13502179
213	0x3d8c436a	0.06848796
214	0x3e2690d7	0.1626619
215	0xbdf24afa	-0.11830707
216	0xbdc53c51	-0.09630645
217	0xbdf87959	-0.1213252
218	0xbb4e5259	-0.0031482188
219	0x3cf51c88	0.029920831
220	0x3dab107d	0.08352754
221	0xbd41107b	-0.047134858
222	0xbe2ad847	-0.16684066
223	0xbe456320	-0.19276094
224	0x3cf2fda9	0.02966197
225	0xbe401e5e	-0.18761584
226	0x3de40616	0.11133973
227	0xbdeb366e	-0.11484991
228	0x3c8ed8f2	0.017437432
229	0xbdb2f072	-0.087372676
230	0xbd9a69f8	-0.07539743
231	0xbe2b9da3	-0.16759352
232	0x3d7d44d2	0.06183321
233	0x3d15e06d	0.036590982
234	0xbd8d016e	-0.06885038
235	0xbdd519a2	-0.1040528
236	0x3e3aeaca	0.18253627
237	0xbd7787c4	-0.06043221
238	0xbd6c502c	-0.057693645
239	0x3d86279f	0.06550526
240	0x3e43664a	0.19081989
241	0x3d48db28	0.04903713
242	0x3e016333	0.12635498
243	0xbdef2383	-0.11676695
244	0x3e342dd8	0.17595613
245	0x3e0869fe	0.13321683
246	0xbe108e10	-0.14116693
247	0x3dcc01c0	0.09961271
248	0x3e458821	0.1929021
249	0x3e08a56a	0.1334435
250	0x3dc2dd16	0.09514825
251	0xbde08ca1	-0.10964323
252	0x3d16f3a9	0.036853466
253	0x3e2541ee	0.16138431
254	0x3d86d217	0.0658304
255	0xbdf5b7f2	-0.119979754

fc1.bias f4 [64]
0	0xbe39b148	-0.18134034
1	0xbe40ca77	-0.18827234
2	0xbe336070	-0.17517257
3	0xbdc31c91	-0.09526933
4	0x3e128d2a	0.14311662
5	0xbd875381	-0.06607724
6	0x3e2ccfe4	0.16876179
7	0xbe42deb5	-0.19030268
8	0x3db836db	0.08994838
9	0xbe3b1dd4	-0.18273097
10	0x3dbfc1b4	0.09363118
11	0x3dfa95d4	0.12235609
12	0xbe32ccf6	-0.17460999
13	0xbe19baf7	-0.15012728
14	0xbdfd8493	-0.12378802
15	0x3e2672ab	0.1625468
16	0xbe50f272	-0.20404986
17	0x3e05f11a	0.13080254
18	0xbdfb1b8b	-0.12261113
19	0x3e1d5a3b	0.15366451
20	0x3dfeace9	0.12435324
21	0xbe267d52	-0.16258743
22	0xbd680eca	-0.05665473
23	0xbb4b4c4f	-0.0031020825
24	0xbe1a21d1	-0.15051962
25	0xbdbb3a61	-0.09141994
26	0x3d990812	0.074722424
27	0xbdb0e01f	-0.08636498
28	0xbcdf769c	-0.027278237
29	0xbda08aeb	-0.078389965
30	0xbc1391c4	-0.009006921
31	0xbc24853e	-0.010041533
32	0xbdcfe56e	-0.10151182
33	0xbe40a4b0	-0.18812823
34	0x3b96ec9f	0.004605844
35	0x3c8f69d2	0.017506514
36	0x3e2e1610	0.17000604
37	0x3dcc9185	0.09988693
38	0xbd5db668	-0.054129034
39	0xbe47f731	-0.1952789
40	0x3e3f77a8	0.18697989
41	0xbbbf835b	-0.005844516
42	0x3dc4793d	0.09593437
43	0x3e2a14d8	0.16609514
44	0x3cca5c43	0.024702197
45	0x3d1b700a	0.037948646
46	0xbe44bccd	-0.19212647
47	0xbe41c036	-0.18920979
48	0xbcfd4021	-0.030914368
49	0xbe3f9742	-0.18710044
50	0x3c2f6fe8	0.010707833
51	0xbd9acbae	-0.0755838
52	0x3caa7343	0.020806914
53	0x3d954766	0.07289009
54	0x3dd77e39	0.10522122
55	0xbdf79078	-0.12088102
56	0x3d7f636f	0.062350687
57	0x3da9dca8	0.0829404
58	0xbd7ea0f5	-0.06216522
59	0x3dbd647d	0.09247682
60	0xbe43f8f0	-0.19137931
61	0xbd40ee92	-0.04710252
62	0xbdd29002	-0.102813736
63	0xbc8d92a7	-0.017281843

fc2.weight f4 [64, 64]
0	0xbb3f85c0	-0.0029224008
1	0x3d8204a6	0.06348543
2	0x3c234930	0.00996618
3	0x3d3dedbc	0.0463693
4	0xbdc20e82	-0.094754234
5	0x3d848f96	0.06472699
6	0xbd264d38	-0.040600985
7	0x3c13a170	0.009010658
8	0xbdb50a12	-0.088398114
9	0xbdecc1c4	-0.11560395
10	0xbdaf34d2	-0.085549966
11	0xbdfa0732	-0.12208404
12	0x3dc771a8	0.09738475
13	0xbdb31afe	-0.08745383
14	0x3cb6f1e0	0.022332132
15	0x3b6e0080	0.0036316216
16	0x3d775860	0.060387015
17	0x3d1ca3a4	0.038241997
18	0x3c8f5b18	0.017499492
19	0x3dcffe8c	0.10155973
20	0x3d45b6b4	0.048269942
21	0x3d6c1738	0.05763933
22	0x3d876cac	0.066125244
23	0x3dc96bc2	0.09835006
24	0x3c81e730	0.01585731
25	0x3db2de58	0.08733815
26	0x3df8567c	0.121258706
27	0xbd4132fc	-0.047167763
28	0x3d03d350	0.032183945
29	0x3dc8bb88	0.09801394
30	0xbde66692	-0.112500325
31	0x3dfefca0	0.12450528
32	0xbd6f9c20	-0.0584985
33	0x3de978a2	0.11399962
34	0x3dc25f5a	0.09490843
35	0x3d128188	0.035768062
36	0xbd9a025c	-0.07519981
37	0x3d53d9bc	0.05172132
38	0x3d80b322	0.06284167
39	0xbd89c174	-0.067263514
40	0xbd1e5c18	-0.038662046
41	0xbdc9a3dc	-0.09845707
42	0xbce68b50	-0.028142601
43	0xbca71f90	-0.020400792
44	0x3da44c40	0.08022356
45	0xbdead790	-0.114668965
46	0x3de40738	0.11134189
47	0x3db78658	0.08961171
48	0x3d39f9f0	0.045404375
49	0x3c2c0890	0.010500088
50	0x3def08fe	0.11671637
51	0xbd886c4e	-0.066612825
52	0x3d8b09c4	0.06788972
53	0x3c7495f0	0.014928326
54	0x3d912862	0.070877805
55	0x3d0e5554	0.034749344
56	0xbd62849c	-0.055302247
57	0x3d9f26c4	0.07771066
58	0x3dfc803c	0.12329146
59	0xbd156cb4	-0.03648062
60	0x3d95fe4c	0.07323894
61	0x3bcecd60	0.0063111037
62	0x3da33470	0.07968986
63	0xbd8480f2	-0.06469907
64	0x3d9c2d76	0.076258585
65	0x3ca38d00	0.019964695
66	0x3ccaf3f0	0.024774522
67	0x3cbabb68	0.02279444
68	0x3c742af0	0.014902815
69	0xbdeb8de8	-0.11501676
70	0x3d862f34	0.06551972
71	0x3d8819a2	0.06645514
72	0xbdff9c30	-0.12480962
73	0x3dc7e934	0.09761277
74	0x3d183658	0.0371612
75	0xbdc349b4	-0.09535542
76	0x3d9f1baa	0.077689484
77	0xbd1f0400	-0.038822174
78	0x3dc80c6a	0.09767993
79	0xbd64c65c	-0.055853233
80	0x3df61b7c	0.12016961
81	0xbdb576b6	-0.08860533
82	0xbd5c7ab0	-0.05382794
83	0xbcca3840	-0.024685025
84	0xbde31112	-0.1108724
85	0x3d14b6d0	0.036307156
86	0xbc702d30	-0.014659211
87	0x3cbc86c0	0.023013473
88	0xbdfe0c26	-0.12404661
89	0x3dd6be40	0.10485506
90	0x3d8abf76	0.067747995
91	0x3d97c280	0.07410145
92	0xbdbf5f18	-0.093443096
93	0xbbd5cd60	-0.0065247267
94	0x3dc59778	0.09648031
95	0x3d678fec	0.05653374
96	0x3da60700	0.08106804
97	0x3a0b2600	0.00053080916
98	0xbd8a8660	-0.06763911
99	0xbd49b000	-0.049240112
100	0x3b693e00	0.0035589933
101	0x3d9fb638	0.07798427
102	0x3de0eafe	0.10982321
103	0xbd688338	-0.056765765
104	0x3de82a6e	0.11336218
105	0xbd51b914	-0.051201895
106	0xbdf31db0	-0.11870897
107	0xbd217888	-0.03942159
108	0x3dcb0cd0	0.09914553
109	0xbd009c4c	-0.031399056
110	0x3d134b80	0.035960674
111	0xbddd9f06	-0.10821347
112	0x3ca1b338	0.019738778
113	0x3daa9a96	0.08330266
114	0x3d693e5c	0.056944236
115	0x3da6e638	0.081493795
116	0x3ddbfd9a	0.1074173
117	0xbd81a544	-0.0633035
118	0xbcc0d3a8	-0.023538426
119	0xbc850790	-0.016238958
120	0x3caa64c0	0.020799994
121	0xbcb39c58	-0.021925136
122	0xbd4c8010	-0.049926817
123	0x3ce760c8	0.028244391
124	0xbda850be	-0.08218525
125	0x3d10c000	0.035339355
126	0xbd0e9450	-0.03480941
127	0x3da6de96	0.08147924
128	0x3dc0e03e	0.09417771
129	0x3d886c40	0.06661272
130	0x3d8218de	0.06352399
131	0x3c933f90	0.017974645
132	0x3d8d462c	0.0689815
133	0x3cdd6fb8	0.02703081
134	0x3d10ccfc	0.03535174
135	0xbdf3f96a	-0.11912806
136	0x3ddfd4e8	0.109292805
137	0xbc9b5c88	-0.01896502
138	0xbbc8dac0	-0.0061295927
139	0x3db33dce	0.08752023
140	0x3d84171c	0.0644972
141	0xbd819c8e	-0.063286886
142	0x3d45c02c	0.048278973
143	0xbdf18e16	-0.11794679
144	0x3db91a88	0.090382636
145	0x3d70d8b0	0.0588004
146	0xbd51c6d8	-0.051215023
147	0xbcedb658	-0.029017612
148	0xbd81c5be	-0.063365445
149	0x3d847a00	0.06468582
150	0x3da668e8	0.08125478
151	0xbd3b8b24	-0.04578699
152	0xbd9114ea	-0.07084067
153	0x3d63b6b0	0.055594146
154	0xbca42ab0	-0.020039886
155	0x3d652108	0.055939704
156	0x3df9f1a4	0.122042924
157	0x3d2fea58	0.042948097
158	0xbdbdd2b8	-0.09268707
159	0x3d2c569c	0.042074785
160	0xbca97b08	-0.020688549
161	0x3cd073d8	0.025445864
162	0x3d60c01c	0.05487071
163	0xbdb75c86	-0.08953194
164	0x3dfc2f42	0.12313701
165	0xbd979898	-0.07402152
166	0x3cf7fdd8	0.03027241
167	0x3d3caadc	0.04606138
168	0x3b2d4300	0.002643764
169	0xbdc94cda	-0.098291114
170	0xbd9d78b0	-0.07689035
171	0xbdc09dea	-0.0940512
172	0x3ddc8fe8	0.107696354
173	0xbd1b0bcc	-0.037853047
174	0x3c9c0f88	0.019050375
175	0x3d51dcc8	0.051235944
176	0xbdd51e10	-0.104061246
177	0xbc49c9d0	-0.012316182
178	0xbad7f480	-0.0016476065
179	0x3d309e6c	0.043119833
180	0x3cd4c8a8	0.025974587
181	0xbdbcec5a	-0.09224768
182	0xbd79c6a8	-0.06098047
183	0x3ca45978	0.020062193
184	0xbded6500	-0.1159153
185	0xbd30a5c4	-0.043126836
186	0xbde109d6	-0.10988204
187	0xbcdc8b60	-0.026921928
188	0xbba9d3a0	-0.0051826984
189	0xbacbce00	-0.0015549064
190	0xbdddcfb8	-0.10830635
191	0x3d4238bc	0.047417387
192	0x3db17a70	0.08665931
193	0xbd8d935e	-0.06912874
194	0x3d8b71ea	0.06808837
195	0xbce3ce78	-0.027808413
196	0xbc99f6b0	-0.018794388
197	0x3dd88c7a	0.10573669
198	0xbd586158	-0.05282721
199	0x3d8a4f2e	0.067533836
200	0xbd19e35c	-0.037570342
201	0x3dd63a04	0.10460284
202	0x3d99b55e	0.07505296
203	0x3d025750	0.03182155
204	0x3d6a6420	0.057224393
205	0xbc27f240	-0.010250628
206	0x3d989074	0.07449427
207	0xbda870f2	-0.082246676
208	0x3a7fcf00	0.00097583234
209	0xbbb60060	-0.005554244
210	0xbdf2dc0c	-0.11858377
211	0x3bfc4e80	0.0076997876
212	0x3d4030cc	0.046921536
213	0xbd9d957c	-0.076945275
214	0x3db93e74	0.09045115
215	0x3d72ebc8	0.05930689
216	0xbde9e318	-0.11420268
217	0x3d6794a4	0.05653824
218	0x3d0be0f8	0.034150094
219	0xbdf73da0	-0.12072301
220	0xbdb946c8	-0.090467036
221	0x3dbebb9a	0.09313126
222	0xbd87ab42	-0.06624462
223	0xbdea8178	-0.114504755
224	0xbde492c2	-0.11160804
225	0xbcace3a8	-0.021104649
226	0xbdf8d19e	-0.12149356
227	0xbda620c8	-0.08111721
228	0xba537900	-0.00080670416
229	0x3d625424	0.055256024
230	0xbbc7afe0	-0.006093964
231	0x3dde42de	0.10852598
232	0xbdaf7bfa	-0.085685685
233	0x3d7f3890	0.0623098
234	0xbd87b944	-0.066271335
235	0x3cd57a88	0.026059404
236	0x3d57e30c	0.052706763
237	0x3b0a3c00	0.0021092892
238	0x3d88030a	0.06641205
239	0x3dec91aa	0.11551221
240	0x3dcc5446	0.099770114
241	0xbd005bec	-0.031337664
242	0x3b8164a0	0.003948763
243	0x3de55b8a	0.111991
244	0x3d2b47dc	0.041816577
245	0x3d446ef8	0.04795739
246	0x3de0d0a8	0.10977298
247	0x3cda4818	0.026645705
248	0xbd8184b2	-0.06324138
249	0xbd203e74	-0.03912206
250	0xbdf3aa9e	-0.11897777
251	0x3c9cc780	0.019138098
252	0x3bb3cb40	0.005486876
253	0xbd8cfd4c	-0.0688425
254	0x3dedfc44	0.116203815
255	0x3d259e7c	0.040434346

fc2.bias f4 [64]
0	0x3cfd9518	0.030954883
1	0xb5400000	-7.1525574e-07
2	0x3d7d5cfc	0.061856255
3	0xbdf73636	-0.12070887
4	0xbdd83994	-0.10557857
5	0x3bdc0c20	0.0067153126
6	0x3d549568	0.051900297
7	0xbd74da5c	-0.059778556
8	0x3db5dda8	0.08880168
9	0x3df06ed4	0.11739889
10	0xbdb0c2f8	-0.08630937
11	0xbda3d2f2	-0.07999219
12	0xbd505860	-0.05086553
13	0x3ce57fb0	0.028014988
14	0x3dfb5644	0.12272313
15	0x3d9b2d3e	0.07576989
16	0xbd62108c	-0.05519156
17	0xbdfea450	-0.12433684
18	0xbd65608c	-0.056000277
19	0xbd9b60c6	-0.075868174
20	0x3c7d6580	0.015466094
21	0x3d30f9e4	0.043207064
22	0xbc9bb270	-0.019005984
23	0xbddea4d0	-0.10871279
24	0xbdb95478	-0.09049314
25	0x3cc892e0	0.024484098
26	0x3d6dd3d8	0.058063358
27	0xbc65c980	-0.014025092
28	0xbd07feb8	-0.033201903
29	0xbdb354e4	-0.08756426
30	0x3d5202a8	0.051272064
31	0x3dbb2574	0.09138003
32	0x3d9216e8	0.07133275
33	0xbdc03d28	-0.09386665
34	0xbc1abec0	-0.009444892
35	0xbd001874	-0.03127332
36	0xbdec66b6	-0.11543028
37	0xbc2deb20	-0.01061514
38	0x3cd7ebb0	0.026357502
39	0xbd44fdfc	-0.04809378
40	0x3dc0d7f2	0.09416188
41	0x3dbbac14	0.09163681
42	0xbc9fbb58	-0.019498512
43	0x3d666d18	0.056256384
44	0xbdfd87fa	-0.12379451
45	0xbdf07058	-0.11740178
46	0x3c3ee0e0	0.011650294
47	0x3bd78920	0.006577626
48	0xbda5e4c4	-0.08100274
49	0xbdd6c202	-0.10486223
50	0x3cbfe088	0.023422495
51	0x3da6c058	0.081421554
52	0x3d86c3b0	0.06580293
53	0x3dd75ffc	0.105163544
54	0xbd9af67c	-0.075665444
55	0x3c9f0090	0.019409448
56	0x3dc77698	0.09739417
57	0xbd13290c	-0.035927817
58	0x3d99a65c	0.07502434
59	0xbd7207f4	-0.059089616
60	0x3daaba12	0.08336271
61	0x3d90c3c2	0.07068588
62	0x3d3a0ec8	0.045424253
63	0x3d4560fc	0.048188195

fc3.weight f4 [4, 64]
0	0x3da6efb0	0.081511855
1	0x3def2d52	0.11678566
2	0x3c91f8d0	0.017818838
3	0xbdf0709c	-0.117402285
4	0x3d0c4030	0.0342409
5	0x3cc13ca0	0.023588479
6	0xbdf10724	-0.1176894
7	0xbd21be70	-0.039488256
8	0xbdf1df84	-0.1181021
9	0xbda88a78	-0.08229536
10	0xbd4ee488	-0.050510913
11	0xbd2e3a94	-0.042536333
12	0x3d593848	0.05303219
13	0x3dee792e	0.11644207
14	0x3daef2b2	0.08542384
15	0xbd93753a	-0.072000936
16	0xbd0d2ccc	-0.03446655
17	0x3bf15960	0.0073653907
18	0xbdad4a6a	-0.08461459
19	0x3cd7b8a8	0.026333168
20	0xbcee0230	-0.029053777
21	0x3dc731aa	0.097262695
22	0xbc8ce5f0	-0.017199486
23	0xbd6f306c	-0.058395788
24	0xbcbb3830	-0.02285394
25	0xbc9f7d10	-0.019468814
26	0x3cd569f0	0.026051491
27	0xbde2991c	-0.110643595
28	0xbdeaa540	-0.114573
29	0x3cc2c0a0	0.023773491
30	0x3da877ce	0.08225976
31	0xbd009090	-0.031387866
32	0xbd9d9156	-0.07693736
33	0x3cf982c0	0.030457854
34	0x3cd49908	0.025951877
35	0xbd6c1df0	-0.057645738
36	0x3daba022	0.08380152
37	0x3d981f9c	0.07427904
38	0x3d02f62c	0.03197305
39	0xbdfa9694	-0.12235752
40	0x3d8232de	0.063573584
41	0x3d867da4	0.06566933
42	0x3d3c65b8	0.045995444
43	0x3dbc0f82	0.091826454
44	0xbd7653b8	-0.060138434
45	0x3c768df0	0.015048489
46	0xbd916bc4	-0.07100633
47	0xbddd0856	-0.107926056
48	0xbd7fac04	-0.062419906
49	0x3c4b71e0	0.012417287
50	0x3d9878d0	0.07444918
51	0x3c7e5290	0.015522614
52	0xbdacf652	-0.08445419
53	0xbdb99b08	-0.09062773
54	0xbd3fdcd0	-0.046841443
55	0x3d81a7f6	0.06330864
56	0x3daee512	0.085397854
57	0xbd0fe32c	-0.035128757
58	0xbcc810b0	-0.02442202
59	0x3df1c1d8	0.11804551
60	0x3dfdc75c	0.123915404
61	0x3da35a6c	0.07976231
62	0x3d74019c	0.059571847
63	0x3d767d44	0.060178056
64	0xbd7795f0	-0.060445726
65	0xbcdcfb58	-0.026975319
66	0xbdd57442	-0.10422565
67	0xbcdeaec0	-0.027182937
68	0xbcfc3200	-0.03078556
69	0x3de69f30	0.11260831
70	0xbd6395b8	-0.055562705
71	0x3dbd7afe	0.092519745
72	0x3d6a3a68	0.057184607
73	0xbdfa96a2	-0.12235762
74	0xbded3d7e	-0.11583994
75	0xbda718a8	-0.08159
76	0xbc9049c0	-0.017613292
77	0xbdcf87c6	-0.101333186
78	0xbd5710dc	-0.052506313
79	0xbb7d99c0	-0.0038696378
80	0xbc3a8d30	-0.011386201
81	0x3d88444a	0.0665365
82	0x3ba0ece0	0.00491105
83	0x3d5be4a0	0.05368483
84	0x3d81d268	0.0633896
85	0x3c935fb8	0.017989978
86	0x3d39dd64	0.04537715
87	0x3c03d7a0	0.0080470145
88	0x3dc46e92	0.09591402
89	0x3dad97bc	0.08476207
90	0xbda85ce6	-0.08220844
91	0x3cf58ce0	0.029974401
92	0x3dfaa0a2	0.122376695
93	0xbca3a270	-0.019974917
94	0xbcf18f28	-0.029487208
95	0xbb727b00	-0.0036999583
96	0xbdea1cb6	-0.114312574
97	0xbd5e10c0	-0.054215193
98	0x3c4519f0	0.01203011
99	0x3bd49920	0.0064879805
100	0xbde80bfa	-0.11330409
101	0xbd54528c	-0.051836535
102	0x3dc33b04	0.09532741
103	0xbd85c6bc	-0.06532046
104	0xbc711db0	-0.014716551
105	0x3df62a44	0.1201978
106	0xbce85890	-0.028362542
107	0x3cc95998	0.024578854
108	0x3dc42652	0.095776215
109	0xbd3ae078	-0.045624226
110	0xbde0b0ae	-0.10971199
111	0x3d1c6638	0.03818342
112	0xbce73988	-0.028225675
113	0xbd543620	-0.05180943
114	0x3ddb8e96	0.107205555
115	0x3ddc3b16	0.10753457
116	0x3ddd8504	0.10816386
117	0x3c816920	0.015797198
118	0xbd8a14aa	-0.067422226
119	0xbd61f648	-0.055166513
120	0xbd1922d0	-0.037386715
121	0xbdd93f3e	-0.106077656
122	0x3de7045a	0.11280127
123	0x3d7456b8	0.059653014
124	0x3dc07716	0.09397714
125	0x3ddbe714	0.10737434
126	0xbdfb213a	-0.12262197
127	0xbd0c1504	-0.03419973
128	0x3d9eb99e	0.077502474
129	0x3da61e7c	0.08111283
130	0xbb01ed40	-0.001982525
131	0x3c8d4280	0.017243624
132	0xbc2f8000	-0.01071167
133	0xbd4cfe9c	-0.050047502
134	0x3be22120	0.0069009215
135	0x3d7f0518	0.062260717
136	0x3cfb56b0	0.030680984
137	0xbcfa3748	-0.030543938
138	0x3c8194c8	0.015818015
139	0xbc64eb40	-0.013972104
140	0xbd885334	-0.06656495
141	0x3dd27550	0.10276282
142	0xbd8d3a1c	-0.06895849
143	0xbdf86176	-0.12127964
144	0x3cb54ab0	0.02213034
145	0xbde19d72	-0.110163584
146	0x3d57d854	0.05269654
147	0x3d6077c8	0.054801732
148	0x3d0832bc	0.03325151
149	0x3d216b14	0.03940876
150	0x3df1bacc	0.11803207
151	0xbdbffa78	-0.09373945
152	0xba08b700	-0.00052152574
153	0xbd20466c	-0.03912966
154	0xbdfe34ce	-0.124124154
155	0xbc279a30	-0.010229632
156	0xbcf4c6f8	-0.029880032
157	0xbdb53334	-0.08847657
158	0x3d065770	0.03279823
159	0x3dc4f01a	0.09616108
160	0xbdc78332	-0.097418204
161	0x3c8fa498	0.01753454
162	0xbdc33cf4	-0.0953311
163	0x3d4317a4	0.047629967
164	0x3d31fa4c	0.043451592
165	0x3dd86d02	0.105676666
166	0xbd19e67c	-0.037573323
167	0x3dbcfd2c	0.09227976
168	0x3d88b3f4	0.06674948
169	0x3cf028b0	0.029316276
170	0x3da47834	0.080307394
171	0xbc776860	-0.0151005685
172	0xbdd49c28	-0.10381347
173	0x3dee539e	0.116370425
174	0x3db1168a	0.08646877
175	0xbba73f20	-0.0051039606
176	0xbd1ed800	-0.038780212
177	0x3cef32f0	0.029199094
178	0xbda3029e	-0.079594836
179	0xbcee5370	-0.02909252
180	0x3decaab6	0.11555998
181	0x3b07a8c0	0.0020699948
182	0xbddb36fc	-0.10703847
183	0x3d680dbc	0.056653723
184	0xba7d5d00	-0.0009665042
185	0x3d8907c4	0.06690934
186	0xbc071f20	-0.008247167
187	0xbde3e3fe	-0.111274704
188	0xbdae2b74	-0.08504382
189	0xbc709740	-0.014684498
190	0x3da67cd0	0.08129275
191	0x3d873980	0.06602764
192	0x3da6c8c0	0.08143759
193	0x3d11e7c0	0.035621405
194	0x3d8842f0	0.06653392
195	0xbdd3e936	-0.10347216
196	0xbd9b966c	-0.0759705
197	0xbd9875d6	-0.074443504
198	0x3da55d56	0.08074443
199	0x3d2fcf50	0.042922318
200	0x3dbf517a	0.09341712
201	0xbdeff924	-0.11717442
202	0xbdc0fb0e	-0.09422885
203	0x3d20f46c	0.0392956
204	0xbdb4d386	-0.088294074
205	0xbdaa65b0	-0.083201766
206	0x3c7b88b0	0.015352413
207	0x3bf412a0	0.0074485093
208	0xbbc25440	-0.0059304535
209	0xbd135694	-0.03597124
210	0xbd87507e	-0.066071495
211	0xbda1cf8e	-0.07900916
212	0x3dee1b36	0.11626284
213	0xbd8a6eb6	-0.06759398
214	0xbdc0166e	-0.09379278
215	0x3cccbfc8	0.024993792
216	0xbbf7b7e0	-0.0075597614
217	0xbd9cdb36	-0.07658999
218	0x3d772fd4	0.060348347
219	0x3d670df0	0.056409776
220	0x3db534dc	0.08847973
221	0x3de01418	0.109413326
222	0xbc95dc18	-0.018293425
223	0x3dc6c99a	0.09706421
224	0x3dcb5328	0.0992797
225	0xbdafe860	-0.08589244
226	0x3d097c44	0.033565775
227	0x3dd8507c	0.10562226
228	0xbd01fc38	-0.031734675
229	0x3dcb381c	0.099228114
230	0xbdfb468e	-0.122693166
231	0xbd4c020c	-0.04980664
232	0x3ccc7518	0.024958178
233	0x3dd32aa6	0.10310869
234	0xbcbf67d8	-0.023364946
235	0xbc7f7bd0	-0.015593484
236	0x3db60d7a	0.08889289
237	0x3dab03b4	0.08350316
238	0x3daa47f2	0.08314504
239	0xbd050378	-0.03247401
240	0xbd592080	-0.05300951
241	0xbdbff826	-0.093735024
242	0xbd1b3b10	-0.037898123
243	0x3db89e0c	0.0901452
244	0xbb8f58a0	-0.0043745786
245	0xbdd19754	-0.10233942
246	0xbccce638	-0.02501212
247	0xbd21d9f0	-0.039514482
248	0x3c593430	0.013257071
249	0xbd9b0018	-0.07568377
250	0x3d397d20	0.045285344
251	0x3c611f60	0.013740391
252	0xbda0faac	-0.07860312
253	0xbcf832b0	-0.030297607
254	0xbcc82ee0	-0.024436414
255	0xbd367ad4	-0.04455073

fc3.bias f4 [4]
0	0xbdf00cc4	-0.11721185
1	0x3d51d078	0.051224202
2	0x3dd7d296	0.10538213
3	0x3df9d9de	0.12199758

fc1.weight f4 [64, 24]
0	0xbe11bca8	-0.14232123
1	0x3de2d85a	0.11076422
2	0x3e349c8d	0.17637844
3	0xbd5647ca	-0.052314557
4	0xbe21b518	-0.15791738
5	0xbdd5a5e5	-0.104320325
6	0x3e48f0d0	0.19623113
7	0x3d6f0d64	0.05836238
8	0x3deb49b8	0.1148867
9	0xbc716a29	-0.014734783
10	0x3e2f41b4	0.17114908
11	0x3e103458	0.14082468
12	0x3e221eb7	0.1583203
13	0xbd2014d5	-0.039082367
14	0xbe0e40b0	-0.13891864
15	0x3da8ff49	0.08251817
16	0xbe1680ad	-0.14697523
17	0x3db54780	0.08851528
18	0x3c41564a	0.011800358
19	0xbe42b6be	-0.19015023
20	0x3dbde9e8	0.0927313
21	0xbe107785	-0.14108093
22	0x3e1d2423	0.15345816
23	0xbd9adfb6	-0.07562201
24	0x3e30b941	0.17258169
25	0x3d580e04	0.05274774
26	0x3d817df4	0.06322852
27	0x3d8d47fe	0.06898497
28	0x3d88b63c	0.066753834
29	0x3de9719f	0.11398625
30	0x3cce9f4e	0.025222447
31	0x3e019a30	0.12656474
32	0x3e4245ad	0.18971892
33	0x3c9f41d2	0.019440565
34	0xbd5071c7	-0.050889757
35	0x3cc6ffb9	0.02429186
36	0x3dcf76a8	0.10130054
37	0x3e50723d	0.20356078
38	0xbdcc25ba	-0.09968133
39	0xbc5afa69	-0.0133653665
40	0xbb701f95	-0.0036639918
41	0xbd1afbb7	-0.03783771
42	0x3cf515d8	0.029917642
43	0xbda0808c	-0.07837018
44	0xbd9dfd33	-0.077143095
45	0xbd2c8b4b	-0.042125028
46	0xbcf089e1	-0.02936262
47	0xbd44a5f7	-0.04800984
48	0xbd1dab14	-0.03849323
49	0x3da4d9b9	0.0804934
50	0xbd21410c	-0.039368674
51	0x3e2a9651	0.16658904
52	0x3e0ab104	0.13544089
53	0x3e37913f	0.179265
54	0xbe26fceb	-0.16307418
55	0x3dca6279	0.098820634
56	0x3e0808de	0.13284633
57	0x3dfde5c9	0.12397344
58	0xbd3d64e5	-0.0462388
59	0xbe3553cf	-0.17707752
60	0xbe4f9fcc	-0.20275801
61	0x3e0c06f5	0.13674529
62	0x3e3e1d16	0.18565783
63	0xbe1f2466	-0.15541229
64	0x3dc2649a	0.094918445
65	0x3de3335e	0.11093782
66	0x3c14af08	0.009074934
67	0x3c706d5a	0.014674509
68	0xbdb167c6	-0.08662371
69	0x3e477e40	0.19481754
70	0xbd38610f	-0.045014437
71	0xbdf997b2	-0.12187137
72	0xbe080213	-0.13282041
73	0xbb8983a9	-0.0041966033
74	0x3c9543a2	0.018220726
75	0x3e40f0bd	0.18841834
76	0xbdab30f2	-0.08358945
77	0x3b1e4dfe	0.0024155374
78	0x3dde5f20	0.108579874
79	0x3cca1744	0.024669297
80	0xbc81965c	-0.015818767
81	0xbdd400b5	-0.10351697
82	0xbd8a63ea	-0.06757338
83	0x3e197d9e	0.14989325
84	0x3db34873	0.08754053
85	0x3d8e18f1	0.06938351
86	0xbdf481e5	-0.11938838
87	0xbe41d2c3	-0.18928055
88	0xbe0fe916	-0.14053759
89	0x3e216b23	0.15763526
90	0xbd5688e8	-0.052376658
91	0xbe46c2f2	-0.19410303
92	0xbe0e2050	-0.13879514
93	0xbe423c50	-0.1896832
94	0x3d2dbee8	0.04241839
95	0xbe039a79	-0.12851895
96	0xbe18fadd	-0.14939447
97	0xbb57f840	-0.0032954365
98	0x3e44ba3f	0.19211672
99	0x3e3c2332	0.18372801
100	0x3e021782	0.1270428
101	0x3d51dbcb	0.051235
102	0x3e2d7228	0.16938078
103	0xbdfb7afc	-0.12279317
104	0x3d137214	0.035997465
105	0x3e34bda3	0.17650466
106	0xbdcfc079	-0.10144133
107	0x3d9bb4f5	0.07602874
108	0x3e0d525d	0.1380095
109	0xbe2a32c9	-0.16620935
110	0xbd9d14d7	-0.076699905
111	0x3de910e1	0.113801725
112	0xbda99398	-0.082801044
113	0x3e2e7a98	0.17038953
114	0xbd316740	-0.043311357
115	0xbdd2595b	-0.102709495
116	0xbe1588d6	-0.1460298
117	0xbdf1a1a8	-0.117984116
118	0xbe133bc3	-0.14378266
119	0xbdc19c51	-0.09453643
120	0x3d9cb7bf	0.07652234
121	0xbe2b65be	-0.1673803
122	0xbdaa6089	-0.08319194
123	0xbd9cb70f	-0.07652103
124	0x3e081746	0.13290128
125	0x3df00c65	0.11721114
126	0xbd9854f3	-0.07438078
127	0xbe4187a1	-0.18899395
128	0x3e02ed14	0.1278575
129	0x3e132a8b	0.14371698
130	0xbe298987	-0.16556369
131	0x3cd38a58	0.025822803
132	0x3d965029	0.07339508
133	0xbdff93c9	-0.1247936
134	0x3e294fe7	0.16534387
135	0x3ddf631e	0.10907577
136	0xbe26ba71	-0.16282059
137	0x3e3765df	0.17909954
138	0x3e2fd717	0.17171894
139	0x3e2e640d	0.17030354
140	0x3d05a8cc	0.03263168
141	0xbd78debf	-0.060759302
142	0xbe19a1c6	-0.15003118
143	0x3d9adc06	0.075614974
144	0x3e22b939	0.1589097
145	0xbd68a6fd	-0.056799877
146	0xbdc34421	-0.09534479
147	0x3e192dae	0.14958832
148	0xbdeea96c	-0.116534084
149	0xbe28e284	-0.16492659
150	0xbb98aba7	-0.0046591344
151	0x3dd1ac97	0.10237997
152	0x3da99dd7	0.08282059
153	0xbe288fb8	-0.16461074
154	0x3ceef7f5	0.02917097
155	0x3da1cb72	0.07900132
156	0x3e4c2397	0.19935451
157	0xbcc10687	-0.023562683
158	0x3de4b761	0.11167789
159	0xbd814014	-0.0631105
160	0x3e142af0	0.14469504
161	0x3e404bdd	0.1877894
162	0xbe2026d1	-0.15639807
163	0xbe1c285a	-0.15249768
164	0xbdcf2705	-0.10114864
165	0x3dd4cae1	0.103902586
166	0xbdd89ed1	-0.10577167
167	0xbe3a5223	-0.18195395
168	0x3ce77e24	0.02825839
169	0x3d219f40	0.039458513
170	0xbb2a838b	-0.0026018347
171	0xbd360ca2	-0.04444564
172	0xbe0ddc90	-0.13853669
173	0xbdb60ab4	-0.0888876
174	0x3d898932	0.06715621
175	0xbda09741	-0.078413494
176	0x3e266e72	0.16253069
177	0x3db4529a	0.088048175
178	0x3e0f7a4c	0.14011496
179	0xbcd9ed05	-0.026602278
180	0xbd8e9a3d	-0.06963012
181	0xbe051610	-0.12996697
182	0x3e323c58	0.17405832
183	0xbd5757af	-0.052573856
184	0x3d5ca73a	0.053870417
185	0x3e3900ff	0.18066786
186	0x3d36459c	0.04449998
187	0x3e49ce06	0.19707498
188	0x3e210a25	0.15726526
189	0x3e1a06eb	0.15041701
190	0x3e425bf2	0.18980387
191	0x3dc19060	0.094513655
192	0x3d829c74	0.06377497
193	0x3e0ebefd	0.13940044
194	0xbe43be44	-0.1911555
195	0xbc9228c6	-0.017841708
196	0x3dcc9c5d	0.099907614
197	0xbdf4c93f	-0.11952447
198	0x3e33092b	0.17483966
199	0x3e4a5a6e	0.19761059
200	0xbe04d5eb	-0.12972228
201	0xbc5aac07	-0.013346679
202	0xbe4066a9	-0.18789162
203	0x3dd3223a	0.103092626
204	0xbd4b09a3	-0.049569737
205	0xbe31a022	-0.17346242
206	0xbe46fa97	-0.1943153
207	0xbe1df6ac	-0.15426129
208	0x3e3ed6b8	0.18636596
209	0xbdbe1498	-0.09281272
210	0x3ac7331d	0.0015197728
211	0x3d7c458a	0.061589755
212	0xbe0a4327	-0.13502179
213	0x3d8c436a	0.06848796
214	0x3e2690d7	0.1626619
215	0xbdf24afa	-0.11830707
216	0xbdc53c51	-0.09630645
217	0xbdf87959	-0.1213252
218	0xbb4e5259	-0.0031482188
219	0x3cf51c88	0.029920831
220	0x3dab107d	0.08352754
221	0xbd41107b	-0.047134858
222	0xbe2ad847	-0.16684066
223	0xbe456320	-0.19276094
224	0x3cf2fda9	0.02966197
225	0xbe401e5e	-0.18761584
226	0x3de40616	0.11133973
227	0xbdeb366e	-0.11484991
228	0x3c8ed8f2	0.017437432
229	0xbdb2f072	-0.087372676
230	0xbd9a69f8	-0.07539743
231	0xbe2b9da3	-0.16759352
232	0x3d7d44d2	0.06183321
233	0x3d15e06d	0.036590982
234	0xbd8d016e	-0.06885038
235	0xbdd519a2	-0.1040528
236	0x3e3aeaca	0.18253627
237	0xbd7787c4	-0.06043221
238	0xbd6c502c	-0.057693645
239	0x3d86279f	0.06550526
240	0x3e43664a	0.19081989
241	0x3d48db28	0.04903713
242	0x3e016333	0.12635498
243	0xbdef2383	-0.11676695
244	0x3e342dd8	0.17595613
245	0x3e0869fe	0.13321683
246	0xbe108e10	-0.14116693
247	0x3dcc01c0	0.09961271
248	0x3e458821	0.1929021
249	0x3e08a56a	0.1334435
250	0x3dc2dd16	0.09514825
251	0xbde08ca1	-0.10964323
252	0x3d16f3a9	0.036853466
253	0x3e2541ee	0.16138431
254	0x3d86d217	0.0658304
255	0xbdf5b7f2	-0.119979754

fc1.bias f4 [64]
0	0xbe39b148	-0.18134034
1	0xbe40ca77	-0.18827234
2	0xbe336070	-0.17517257
3	0xbdc31c91	-0.09526933
4	0x3e128d2a	0.14311662
5	0xbd875381	-0.06607724
6	0x3e2ccfe4	0.16876179
7	0xbe42deb5	-0.19030268
8	0x3db836db	0.08994838
9	0xbe3b1dd4	-0.18273097
10	0x3dbfc1b4	0.09363118
11	0x3dfa95d4	0.12235609
12	0xbe32ccf6	-0.17460999
13	0xbe19baf7	-0.15012728
14	0xbdfd8493	-0.12378802
15	0x3e2672ab	0.1625468
16	0xbe50f272	-0.20404986
17	0x3e05f11a	0.13080254
18	0xbdfb1b8b	-0.12261113
19	0x3e1d5a3b	0.15366451
20	0x3dfeace9	0.12435324
21	0xbe267d52	-0.16258743
22	0xbd680eca	-0.05665473
23	0xbb4b4c4f	-0.0031020825
24	0xbe1a21d1	-0.15051962
25	0xbdbb3a61	-0.09141994
26	0x3d990812	0.074722424
27	0xbdb0e01f	-0.08636498
28	0xbcdf769c	-0.027278237
29	0xbda08aeb	-0.078389965
30	0xbc1391c4	-0.009006921
31	0xbc24853e	-0.010041533
32	0xbdcfe56e	-0.10151182
33	0xbe40a4b0	-0.18812823
34	0x3b96ec9f	0.004605844
35	0x3c8f69d2	0.017506514
36	0x3e2e1610	0.17000604
37	0x3dcc9185	0.09988693
38	0xbd5db668	-0.054129034
39	0xbe47f731	-0.1952789
40	0x3e3f77a8	0.18697989
41	0xbbbf835b	-0.005844516
42	0x3dc4793d	0.09593437
43	0x3e2a14d8	0.16609514
44	0x3cca5c43	0.024702197
45	0x3d1b700a	0.037948646
46	0xbe44bccd	-0.19212647
47	0xbe41c036	-0.18920979
48	0xbcfd4021	-0.030914368
49	0xbe3f9742	-0.18710044
50	0x3c2f6fe8	0.010707833
51	0xbd9acbae	-0.0755838
52	0x3caa7343	0.020806914
53	0x3d954766	0.07289009
54	0x3dd77e39	0.10522122
55	0xbdf79078	-0.12088102
56	0x3d7f636f	0.062350687
57	0x3da9dca8	0.0829404
58	0xbd7ea0f5	-0.06216522
59	0x3dbd647d	0.09247682
60	0xbe43f8f0	-0.19137931
61	0xbd40ee92	-0.04710252
62	0xbdd29002	-0.102813736
63	0xbc8d92a7	-0.017281843

fc2.weight f4 [64, 64]
0	0xbb3f85c0	-0.0029224008
1	0x3d8204a6	0.06348543
2	0x3c234930	0.00996618
3	0x3d3dedbc	0.0463693
4	0xbdc20e82	-0.094754234
5	0x3d848f96	0.06472699
6	0xbd264d38	-0.040600985
7	0x3c13a170	0.009010658
8	0xbdb50a12	-0.088398114
9	0xbdecc1c4	-0.11560395
10	0xbdaf34d2	-0.085549966
11	0xbdfa0732	-0.12208404
12	0x3dc771a8	0.09738475
13	0xbdb31afe	-0.08745383
14	0x3cb6f1e0	0.022332132
15	0x3b6e0080	0.0036316216
16	0x3d775860	0.060387015
17	0x3d1ca3a4	0.038241997
18	0x3c8f5b18	0.017499492
19	0x3dcffe8c	0.10155973
20	0x3d45b6b4	0.048269942
21	0x3d6c1738	0.05763933
22	0x3d876cac	0.066125244
23	0x3dc96bc2	0.09835006
24	0x3c81e730	0.01585731
25	0x3db2de58	0.08733815
26	0x3df8567c	0.121258706
27	0xbd4132fc	-0.047167763
28	0x3d03d350	0.032183945
29	0x3dc8bb88	0.09801394
30	0xbde66692	-0.112500325
31	0x3dfefca0	0.12450528
32	0xbd6f9c20	-0.0584985
33	0x3de978a2	0.11399962
34	0x3dc25f5a	0.09490843
35	0x3d128188	0.035768062
36	0xbd9a025c	-0.07519981
37	0x3d53d9bc	0.05172132
38	0x3d80b322	0.06284167
39	0xbd89c174	-0.067263514
40	0xbd1e5c18	-0.038662046
41	0xbdc9a3dc	-0.09845707
42	0xbce68b50	-0.028142601
43	0xbca71f90	-0.020400792
44	0x3da44c40	0.08022356
45	0xbdead790	-0.114668965
46	0x3de40738	0.11134189
47	0x3db78658	0.08961171
48	0x3d39f9f0	0.045404375
49	0x3c2c0890	0.010500088
50	0x3def08fe	0.11671637
51	0xbd886c4e	-0.066612825
52	0x3d8b09c4	0.06788972
53	0x3c7495f0	0.014928326
54	0x3d912862	0.070877805
55	0x3d0e5554	0.034749344
56	0xbd62849c	-0.055302247
57	0x3d9f26c4	0.07771066
58	0x3dfc803c	0.12329146
59	0xbd156cb4	-0.03648062
60	0x3d95fe4c	0.07323894
61	0x3bcecd60	0.0063111037
62	0x3da33470	0.07968986
63	0xbd8480f2	-0.06469907
64	0x3d9c2d76	0.076258585
65	0x3ca38d00	0.019964695
66	0x3ccaf3f0	0.024774522
67	0x3cbabb68	0.02279444
68	0x3c742af0	0.014902815
69	0xbdeb8de8	-0.11501676
70	0x3d862f34	0.06551972
71	0x3d8819a2	0.06645514
72	0xbdff9c30	-0.12480962
73	0x3dc7e934	0.09761277
74	0x3d183658	0.0371612
75	0xbdc349b4	-0.09535542
76	0x3d9f1baa	0.077689484
77	0xbd1f0400	-0.038822174
78	0x3dc80c6a	0.09767993
79	0xbd64c65c	-0.055853233
80	0x3df61b7c	0.12016961
81	0xbdb576b6	-0.08860533
82	0xbd5c7ab0	-0.05382794
83	0xbcca3840	-0.024685025
84	0xbde31112	-0.1108724
85	0x3d14b6d0	0.036307156
86	0xbc702d30	-0.014659211
87	0x3cbc86c0	0.023013473
88	0xbdfe0c26	-0.12404661
89	0x3dd6be40	0.10485506
90	0x3d8abf76	0.067747995
91	0x3d97c280	0.07410145
92	0xbdbf5f18	-0.093443096
93	0xbbd5cd60	-0.0065247267
94	0x3dc59778	0.09648031
95	0x3d678fec	0.05653374
96	0x3da60700	0.08106804
97	0x3a0b2600	0.00053080916
98	0xbd8a8660	-0.06763911
99	0xbd49b000	-0.049240112
100	0x3b693e00	0.0035589933
101	0x3d9fb638	0.07798427
102	0x3de0eafe	0.10982321
103	0xbd688338	-0.056765765
104	0x3de82a6e	0.11336218
105	0xbd51b914	-0.051201895
106	0xbdf31db0	-0.11870897
107	0xbd217888	-0.03942159
108	0x3dcb0cd0	0.09914553
109	0xbd009c4c	-0.031399056
110	0x3d134b80	0.035960674
111	0xbddd9f06	-0.10821347
112	0x3ca1b338	0.019738778
113	0x3daa9a96	0.08330266
114	0x3d693e5c	0.056944236
115	0x3da6e638	0.081493795
116	0x3ddbfd9a	0.1074173
117	0xbd81a544	-0.0633035
118	0xbcc0d3a8	-0.023538426
119	0xbc850790	-0.016238958
120	0x3caa64c0	0.020799994
121	0xbcb39c58	-0.021925136
122	0xbd4c8010	-0.049926817
123	0x3ce760c8	0.028244391
124	0xbda850be	-0.08218525
125	0x3d10c000	0.035339355
126	0xbd0e9450	-0.03480941
127	0x3da6de96	0.08147924
128	0x3dc0e03e	0.09417771
129	0x3d886c40	0.06661272
130	0x3d8218de	0.06352399
131	0x3c933f90	0.017974645
132	0x3d8d462c	0.0689815
133	0x3cdd6fb8	0.02703081
134	0x3d10ccfc	0.03535174
135	0xbdf3f96a	-0.11912806
136	0x3ddfd4e8	0.109292805
137	0xbc9b5c88	-0.01896502
138	0xbbc8dac0	-0.0061295927
139	0x3db33dce	0.08752023
140	0x3d84171c	0.0644972
141	0xbd819c8e	-0.063286886
142	0x3d45c02c	0.048278973
143	0xbdf18e16	-0.11794679
144	0x3db91a88	0.090382636
145	0x3d70d8b0	0.0588004
146	0xbd51c6d8	-0.051215023
147	0xbcedb658	-0.029017612
148	0xbd81c5be	-0.063365445
149	0x3d847a00	0.06468582
150	0x3da668e8	0.08125478
151	0xbd3b8b24	-0.04578699
152	0xbd9114ea	-0.07084067
153	0x3d63b6b0	0.055594146
154	0xbca42ab0	-0.020039886
155	0x3d652108	0.055939704
156	0x3df9f1a4	0.122042924
157	0x3d2fea58	0.042948097
158	0xbdbdd2b8	-0.09268707
159	0x3d2c569c	0.042074785
160	0xbca97b08	-0.020688549
161	0x3cd073d8	0.025445864
162	0x3d60c01c	0.05487071
163	0xbdb75c86	-0.08953194
164	0x3dfc2f42	0.12313701
165	0xbd979898	-0.07402152
166	0x3cf7fdd8	0.03027241
167	0x3d3caadc	0.04606138
168	0x3b2d4300	0.002643764
169	0xbdc94cda	-0.098291114
170	0xbd9d78b0	-0.07689035
171	0xbdc09dea	-0.0940512
172	0x3ddc8fe8	0.107696354
173	0xbd1b0bcc	-0.037853047
174	0x3c9c0f88	0.019050375
175	0x3d51dcc8	0.051235944
176	0xbdd51e10	-0.104061246
177	0xbc49c9d0	-0.012316182
178	0xbad7f480	-0.0016476065
179	0x3d309e6c	0.043119833
180	0x3cd4c8a8	0.025974587
181	0xbdbcec5a	-0.09224768
182	0xbd79c6a8	-0.06098047
183	0x3ca45978	0.020062193
184	0xbded6500	-0.1159153
185	0xbd30a5c4	-0.043126836
186	0xbde109d6	-0.10988204
187	0xbcdc8b60	-0.026921928
188	0xbba9d3a0	-0.0051826984
189	0xbacbce00	-0.0015549064
190	0xbdddcfb8	-0.10830635
191	0x3d4238bc	0.047417387
192	0x3db17a70	0.08665931
193	0xbd8d935e	-0.06912874
194	0x3d8b71ea	0.06808837
195	0xbce3ce78	-0.027808413
196	0xbc99f6b0	-0.018794388
197	0x3dd88c7a	0.10573669
198	0xbd586158	-0.05282721
199	0x3d8a4f2e	0.067533836
200	0xbd19e35c	-0.037570342
201	0x3dd63a04	0.10460284
202	0x3d99b55e	0.07505296
203	0x3d025750	0.03182155
204	0x3d6a6420	0.057224393
205	0xbc27f240	-0.010250628
206	0x3d989074	0.07449427
207	0xbda870f2	-0.082246676
208	0x3a7fcf00	0.00097583234
209	0xbbb60060	-0.005554244
210	0xbdf2dc0c	-0.11858377
211	0x3bfc4e80	0.0076997876
212	0x3d4030cc	0.046921536
213	0xbd9d957c	-0.076945275
214	0x3db93e74	0.09045115
215	0x3d72ebc8	0.05930689
216	0xbde9e318	-0.11420268
217	0x3d6794a4	0.05653824
218	0x3d0be0f8	0.034150094
219	0xbdf73da0	-0.12072301
220	0xbdb946c8	-0.090467036
221	0x3dbebb9a	0.09313126
222	0xbd87ab42	-0.06624462
223	0xbdea8178	-0.114504755
224	0xbde492c2	-0.11160804
225	0xbcace3a8	-0.021104649
226	0xbdf8d19e	-0.12149356
227	0xbda620c8	-0.08111721
228	0xba537900	-0.00080670416
229	0x3d625424	0.055256024
230	0xbbc7afe0	-0.006093964
231	0x3dde42de	0.10852598
232	0xbdaf7bfa	-0.085685685
233	0x3d7f3890	0.0623098
234	0xbd87b944	-0.066271335
235	0x3cd57a88	0.026059404
236	0x3d57e30c	0.052706763
237	0x3b0a3c00	0.0021092892
238	0x3d88030a	0.06641205
239	0x3dec91aa	0.11551221
240	0x3dcc5446	0.099770114
241	0xbd005bec	-0.031337664
242	0x3b8164a0	0.003948763
243	0x3de55b8a	0.111991
244	0x3d2b47dc	0.041816577
245	0x3d446ef8	0.04795739
246	0x3de0d0a8	0.10977298
247	0x3cda4818	0.026645705
248	0xbd8184b2	-0.06324138
249	0xbd203e74	-0.03912206
250	0xbdf3aa9e	-0.11897777
251	0x3c9cc780	0.019138098
252	0x3bb3cb40	0.005486876
253	0xbd8cfd4c	-0.0688425
254	0x3dedfc44	0.116203815
255	0x3d259e7c	0.040434346

fc2.bias f4 [64]
0	0x3cfd9518	0.030954883
1	0xb5400000	-7.1525574e-07
2	0x3d7d5cfc	0.061856255
3	0xbdf73636	-0.12070887
4	0xbdd83994	-0.10557857
5	0x3bdc0c20	0.0067153126
6	0x3d549568	0.051900297
7	0xbd74da5c	-0.059778556
8	0x3db5dda8	0.08880168
9	0x3df06ed4	0.11739889
10	0xbdb0c2f8	-0.08630937
11	0xbda3d2f2	-0.07999219
12	0xbd505860	-0.05086553
13	0x3ce57fb0	0.028014988
14	0x3dfb5644	0.12272313
15	0x3d9b2d3e	0.07576989
16	0xbd62108c	-0.05519156
17	0xbdfea450	-0.12433684
18	0xbd65608c	-0.056000277
19	0xbd9b60c6	-0.075868174
20	0x3c7d6580	0.015466094
21	0x3d30f9e4	0.043207064
22	0xbc9bb270	-0.019005984
23	0xbddea4d0	-0.10871279
24	0xbdb95478	-0.09049314
25	0x3cc892e0	0.024484098
26	0x3d6dd3d8	0.058063358
27	0xbc65c980	-0.014025092
28	0xbd07feb8	-0.033201903
29	0xbdb354e4	-0.08756426
30	0x3d5202a8	0.051272064
31	0x3dbb2574	0.09138003
32	0x3d9216e8	0.07133275
33	0xbdc03d28	-0.09386665
34	0xbc1abec0	-0.009444892
35	0xbd001874	-0.03127332
36	0xbdec66b6	-0.11543028
37	0xbc2deb20	-0.01061514
38	0x3cd7ebb0	0.026357502
39	0xbd44fdfc	-0.04809378
40	0x3dc0d7f2	0.09416188
41	0x3dbbac14	0.09163681
42	0xbc9fbb58	-0.019498512
43	0x3d666d18	0.056256384
44	0xbdfd87fa	-0.12379451
45	0xbdf07058	-0.11740178
46	0x3c3ee0e0	0.011650294
47	0x3bd78920	0.006577626
48	0xbda5e4c4	-0.08100274
49	0xbdd6c202	-0.10486223
50	0x3cbfe088	0.023422495
51	0x3da6c058	0.081421554
52	0x3d86c3b0	0.06580293
53	0x3dd75ffc	0.105163544
54	0xbd9af67c	-0.075665444
55	0x3c9f0090	0.019409448
56	0x3dc77698	0.09739417
57	0xbd13290c	-0.035927817
58	0x3d99a65c	0.07502434
59	0xbd7207f4	-0.059089616
60	0x3daaba12	0.08336271
61	0x3d90c3c2	0.07068588
62	0x3d3a0ec8	0.045424253
63	0x3d4560fc	0.048188195

fc3.weight f4 [4, 64]
0	0x3da6efb0	0.081511855
1	0x3def2d52	0.11678566
2	0x3c91f8d0	0.017818838
3	0xbdf0709c	-0.117402285
4	0x3d0c4030	0.0342409
5	0x3cc13ca0	0.023588479
6	0xbdf10724	-0.1176894
7	0xbd21be70	-0.039488256
8	0xbdf1df84	-0.1181021
9	0xbda88a78	-0.08229536
10	0xbd4ee488	-0.050510913
11	0xbd2e3a94	-0.042536333
12	0x3d593848	0.05303219
13	0x3dee792e	0.11644207
14	0x3daef2b2	0.08542384
15	0xbd93753a	-0.072000936
16	0xbd0d2ccc	-0.03446655
17	0x3bf15960	0.0073653907
18	0xbdad4a6a	-0.08461459
19	0x3cd7b8a8	0.026333168
20	0xbcee0230	-0.029053777
21	0x3dc731aa	0.097262695
22	0xbc8ce5f0	-0.017199486
23	0xbd6f306c	-0.058395788
24	0xbcbb3830	-0.02285394
25	0xbc9f7d10	-0.019468814
26	0x3cd569f0	0.026051491
27	0xbde2991c	-0.110643595
28	0xbdeaa540	-0.114573
29	0x3cc2c0a0	0.023773491
30	0x3da877ce	0.08225976
31	0xbd009090	-0.031387866
32	0xbd9d9156	-0.07693736
33	0x3cf982c0	0.030457854
34	0x3cd49908	0.025951877
35	0xbd6c1df0	-0.057645738
36	0x3daba022	0.08380152
37	0x3d981f9c	0.07427904
38	0x3d02f62c	0.03197305
39	0xbdfa9694	-0.12235752
40	0x3d8232de	0.063573584
41	0x3d867da4	0.06566933
42	0x3d3c65b8	0.045995444
43	0x3dbc0f82	0.091826454
44	0xbd7653b8	-0.060138434
45	0x3c768df0	0.015048489
46	0xbd916bc4	-0.07100633
47	0xbddd0856	-0.107926056
48	0xbd7fac04	-0.062419906
49	0x3c4b71e0	0.012417287
50	0x3d9878d0	0.07444918
51	0x3c7e5290	0.015522614
52	0xbdacf652	-0.08445419
53	0xbdb99b08	-0.09062773
54	0xbd3fdcd0	-0.046841443
55	0x3d81a7f6	0.06330864
56	0x3daee512	0.085397854
57	0xbd0fe32c	-0.035128757
58	0xbcc810b0	-0.02442202
59	0x3df1c1d8	0.11804551
60	0x3dfdc75c	0.123915404
61	0x3da35a6c	0.07976231
62	0x3d74019c	0.059571847
63	0x3d767d44	0.060178056
64	0xbd7795f0	-0.060445726
65	0xbcdcfb58	-0.026975319
66	0xbdd57442	-0.10422565
67	0xbcdeaec0	-0.027182937
68	0xbcfc3200	-0.03078556
69	0x3de69f30	0.11260831
70	0xbd6395b8	-0.055562705
71	0x3dbd7afe	0.092519745
72	0x3d6a3a68	0.057184607
73	0xbdfa96a2	-0.12235762
74	0xbded3d7e	-0.11583994
75	0xbda718a8	-0.08159
76	0xbc9049c0	-0.017613292
77	0xbdcf87c6	-0.101333186
78	0xbd5710dc	-0.052506313
79	0xbb7d99c0	-0.0038696378
80	0xbc3a8d30	-0.011386201
81	0x3d88444a	0.0665365
82	0x3ba0ece0	0.00491105
83	0x3d5be4a0	0.05368483
84	0x3d81d268	0.0633896
85	0x3c935fb8	0.017989978
86	0x3d39dd64	0.04537715
87	0x3c03d7a0	0.0080470145
88	0x3dc46e92	0.09591402
89	0x3dad97bc	0.08476207
90	0xbda85ce6	-0.08220844
91	0x3cf58ce0	0.029974401
92	0x3dfaa0a2	0.122376695
93	0xbca3a270	-0.019974917
94	0xbcf18f28	-0.029487208
95	0xbb727b00	-0.0036999583
96	0xbdea1cb6	-0.114312574
97	0xbd5e10c0	-0.054215193
98	0x3c4519f0	0.01203011
99	0x3bd49920	0.0064879805
100	0xbde80bfa	-0.11330409
101	0xbd54528c	-0.051836535
102	0x3dc33b04	0.09532741
103	0xbd85c6bc	-0.06532046
104	0xbc711db0	-0.014716551
105	0x3df62a44	0.1201978
106	0xbce85890	-0.028362542
107	0x3cc95998	0.024578854
108	0x3dc42652	0.095776215
109	0xbd3ae078	-0.045624226
110	0xbde0b0ae	-0.10971199
111	0x3d1c6638	0.03818342
112	0xbce73988	-0.028225675
113	0xbd543620	-0.05180943
114	0x3ddb8e96	0.107205555
115	0x3ddc3b16	0.10753457
116	0x3ddd8504	0.10816386
117	0x3c816920	0.015797198
118	0xbd8a14aa	-0.067422226
119	0xbd61f648	-0.055166513
120	0xbd1922d0	-0.037386715
121	0xbdd93f3e	-0.106077656
122	0x3de7045a	0.11280127
123	0x3d7456b8	0.059653014
124	0x3dc07716	0.09397714
125	0x3ddbe714	0.10737434
126	0xbdfb213a	-0.12262197
127	0xbd0c1504	-0.03419973
128	0x3d9eb99e	0.077502474
129	0x3da61e7c	0.08111283
130	0xbb01ed40	-0.001982525
131	0x3c8d4280	0.017243624
132	0xbc2f8000	-0.01071167
133	0xbd4cfe9c	-0.050047502
134	0x3be22120	0.0069009215
135	0x3d7f0518	0.062260717
136	0x3cfb56b0	0.030680984
137	0xbcfa3748	-0.030543938
138	0x3c8194c8	0.015818015
139	0xbc64eb40	-0.013972104
140	0xbd885334	-0.06656495
141	0x3dd27550	0.10276282
142	0xbd8d3a1c	-0.06895849
143	0xbdf86176	-0.12127964
144	0x3cb54ab0	0.02213034
145	0xbde19d72	-0.110163584
146	0x3d57d854	0.05269654
147	0x3d6077c8	0.054801732
148	0x3d0832bc	0.03325151
149	0x3d216b14	0.03940876
150	0x3df1bacc	0.11803207
151	0xbdbffa78	-0.09373945
152	0xba08b700	-0.00052152574
153	0xbd20466c	-0.03912966
154	0xbdfe34ce	-0.124124154
155	0xbc279a30	-0.010229632
156	0xbcf4c6f8	-0.029880032
157	0xbdb53334	-0.08847657
158	0x3d065770	0.03279823
159	0x3dc4f01a	0.09616108
160	0xbdc78332	-0.097418204
161	0x3c8fa498	0.01753454
162	0xbdc33cf4	-0.0953311
163	0x3d4317a4	0.047629967
164	0x3d31fa4c	0.043451592
165	0x3dd86d02	0.105676666
166	0xbd19e67c	-0.037573323
167	0x3dbcfd2c	0.09227976
168	0x3d88b3f4	0.06674948
169	0x3cf028b0	0.029316276
170	0x3da47834	0.080307394
171	0xbc776860	-0.0151005685
172	0xbdd49c28	-0.10381347
173	0x3dee539e	0.116370425
174	0x3db1168a	0.08646877
175	0xbba73f20	-0.0051039606
176	0xbd1ed800	-0.038780212
177	0x3cef32f0	0.029199094
178	0xbda3029e	-0.079594836
179	0xbcee5370	-0.02909252
180	0x3decaab6	0.11555998
181	0x3b07a8c0	0.0020699948
182	0xbddb36fc	-0.10703847
183	0x3d680dbc	0.056653723
184	0xba7d5d00	-0.0009665042
185	0x3d8907c4	0.06690934
186	0xbc071f20	-0.008247167
187	0xbde3e3fe	-0.111274704
188	0xbdae2b74	-0.08504382
189	0xbc709740	-0.014684498
190	0x3da67cd0	0.08129275
191	0x3d873980	0.06602764
192	0x3da6c8c0	0.08143759
193	0x3d11e7c0	0.035621405
194	0x3d8842f0	0.06653392
195	0xbdd3e936	-0.10347216
196	0xbd9b966c	-0.0759705
197	0xbd9875d6	-0.074443504
198	0x3da55d56	0.08074443
199	0x3d2fcf50	0.042922318
200	0x3dbf517a	0.09341712
201	0xbdeff924	-0.11717442
202	0xbdc0fb0e	-0.09422885
203	0x3d20f46c	0.0392956
204	0xbdb4d386	-0.088294074
205	0xbdaa65b0	-0.083201766
206	0x3c7b88b0	0.015352413
207	0x3bf412a0	0.0074485093
208	0xbbc25440	-0.0059304535
209	0xbd135694	-0.03597124
210	0xbd87507e	-0.066071495
211	0xbda1cf8e	-0.07900916
212	0x3dee1b36	0.11626284
213	0xbd8a6eb6	-0.06759398
214	0xbdc0166e	-0.09379278
215	0x3cccbfc8	0.024993792
216	0xbbf7b7e0	-0.0075597614
217	0xbd9cdb36	-0.07658999
218	0x3d772fd4	0.060348347
219	0x3d670df0	0.056409776
220	0x3db534dc	0.08847973
221	0x3de01418	0.109413326
222	0xbc95dc18	-0.018293425
223	0x3dc6c99a	0.09706421
224	0x3dcb5328	0.0992797
225	0xbdafe860	-0.08589244
226	0x3d097c44	0.033565775
227	0x3dd8507c	0.10562226
228	0xbd01fc38	-0.031734675
229	0x3dcb381c	0.099228114
230	0xbdfb468e	-0.122693166
231	0xbd4c020c	-0.04980664
232	0x3ccc7518	0.024958178
233	0x3dd32aa6	0.10310869
234	0xbcbf67d8	-0.023364946
235	0xbc7f7bd0	-0.015593484
236	0x3db60d7a	0.08889289
237	0x3dab03b4	0.08350316
238	0x3daa47f2	0.08314504
239	0xbd050378	-0.03247401
240	0xbd592080	-0.05300951
241	0xbdbff826	-0.093735024
242	0xbd1b3b10	-0.037898123
243	0x3db89e0c	0.0901452
244	0xbb8f58a0	-0.0043745786
245	0xbdd19754	-0.10233942
246	0xbccce638	-0.02501212
247	0xbd21d9f0	-0.039514482
248	0x3c593430	0.013257071
249	0xbd9b0018	-0.07568377
250	0x3d397d20	0.045285344
251	0x3c611f60	0.013740391
252	0xbda0faac	-0.07860312
253	0xbcf832b0	-0.030297607
254	0xbcc82ee0	-0.024436414
255	0xbd367ad4	-0.04455073

fc3.bias f4 [4]
0	0xbdf00cc4	-0.11721185
1	0x3d51d078	0.051224202
2	0x3dd7d296	0.10538213
3	0x3df9d9de	0.12199758
